check_point/lapalce_noise_ttm_epoch_2.pth (torch, 973453 bytes, 72 tensors)

tokenTuringMachineUnit.tokenLearner1.norm.weight f4 [16]
0	0x3f8033ad	1.001577
1	0x3f7a2e06	0.97726476
2	0x3f807fb7	1.0038975
3	0x3f7c8917	0.9864668
4	0x3f7d809e	0.9902438
5	0x3f7f1a7f	0.99649805
6	0x3f7b0db5	0.9806779
7	0x3f7b032f	0.9805173
8	0x3f80980d	1.0046402
9	0x3f7e9b73	0.99455947
10	0x3f81029d	1.0078923
11	0x3f80387c	1.0017238
12	0x3f7fe092	0.9995204
13	0x3f7aa352	0.9790546
14	0x3f7ee63d	0.99570066
15	0x3f7e2f76	0.9929117

tokenTuringMachineUnit.tokenLearner1.norm.bias f4 [16]
0	0xb7069040	-8.020608e-06
1	0x368c1901	4.175236e-06
2	0x373a681b	1.1110703e-05
3	0xb6c6c7d3	-5.9241224e-06
4	0x3714d3a7	8.870767e-06
5	0x3556e72b	8.0057606e-07
6	0xb6b10335	-5.2753844e-06
7	0x36ee8507	7.108439e-06
8	0xb5fd55ef	-1.8874979e-06
9	0x36a1c771	4.821392e-06
10	0x349d4a6f	2.9297686e-07
11	0x36822039	3.878053e-06
12	0x3600f146	1.9213926e-06
13	0xb6286d5c	-2.5097606e-06
14	0xb6101319	-2.1468788e-06
15	0xb61ae6a7	-2.3082046e-06

tokenTuringMachineUnit.tokenLearner1.attention_maps.0.weight f4 [16, 16, 1]
0	0x3e75a8a8	0.23990119
1	0x3e0cd03e	0.13751313
2	0xbe55339a	-0.20820466
3	0x3e7ba9b8	0.24576461
4	0xbe26aaab	-0.16276042
5	0xbe06359d	-0.1310639
6	0x3caebe10	0.021330863
7	0xbdd7d7f8	-0.1053924
8	0x3e549ccc	0.20762938
9	0xbdffe2b9	-0.12494416
10	0xba05081f	-0.00050747575
11	0x3e80199c	0.25019538
12	0xbdb9b5b3	-0.090678595
13	0x3da7a37b	0.08185478
14	0xbdb60855	-0.08888308
15	0xbd0451ec	-0.03230469
16	0x3d3646ac	0.04450099
17	0x3da5a7a0	0.080886126
18	0xbe5ce1e9	-0.21570553
19	0x3e1a2791	0.15054156
20	0xbe370634	-0.1787346
21	0xbcaa6a09	-0.020802515
22	0xbe1bba90	-0.15207887
23	0x3e406016	0.18786654
24	0xbe867220	-0.26258945
25	0x3e496785	0.19668396
26	0x3e5168bb	0.20450108
27	0xbd3bf37c	-0.0458865
28	0x3e71824d	0.23584862
29	0x3e5040ee	0.20337269
30	0x3d9725a0	0.07380223
31	0x3e2f7d32	0.17137602
32	0xbe100eb3	-0.14068107
33	0xbe3ee885	-0.18643387
34	0x3c0cd5c5	0.0085958885
35	0xbe049f01	-0.1295128
36	0x3e1379f0	0.14401984
37	0xbe66c7bb	-0.22537129
38	0xbe2179ce	-0.15769121
39	0xbe18777a	-0.14889327
40	0x3d754f3b	0.059890013
41	0xbde1f2ed	-0.110326625
42	0x3e62c614	0.22145873
43	0xbe142384	-0.14466673
44	0xbad5e127	-0.0016317711
45	0xbe4bba21	-0.19895221
46	0x3e321552	0.17390946
47	0xbe39fbb6	-0.18162426
48	0x3de5b38b	0.11215886
49	0xbd3fe07a	-0.046844937
50	0xbe1337bd	-0.14376731
51	0xbda51356	-0.08060329
52	0xbb19fe99	-0.00234977
53	0x3e45b3a7	0.19306813
54	0xbd93cb3d	-0.07216499
55	0xbe8015b0	-0.25016546
56	0xbd174be4	-0.03693761
57	0xbddbd3ea	-0.10733779
58	0x3e653c0a	0.22386184
59	0x3d398b0a	0.045298614
60	0xbe5bfd9d	-0.21483465
61	0x3e347a0b	0.1762468
62	0x3c8835a3	0.016627138
63	0x3df415ad	0.11918197
64	0xbd9e97f2	-0.07743825
65	0xbd311eea	-0.043242373
66	0xbe4e86d0	-0.20168614
67	0xbe023003	-0.12713628
68	0xbd0a956a	-0.0338339
69	0x3d4c1d97	0.049832907
70	0xbde0c138	-0.109743536
71	0x3dbd2bd2	0.09236874
72	0xbe0192d6	-0.1265367
73	0x3e602258	0.21888101
74	0xbde031e5	-0.109470166
75	0xbe2d20cd	-0.16907044
76	0xbde49189	-0.11160571
77	0xbd287fd8	-0.041137546
78	0xbe13c2b6	-0.14429745
79	0x3e3428b7	0.17593656
80	0xbd474076	-0.04864546
81	0xbbfad4b9	-0.007654753
82	0x3e302a32	0.17203596
83	0xbe5a789a	-0.21335068
84	0x3e383705	0.17989738
85	0xbdba26f8	-0.09089464
86	0xbe5d80b5	-0.21631129
87	0x3d5e3bf1	0.054256383
88	0x3c9cf16a	0.019158084
89	0xbe56ec2b	-0.20988528
90	0x3d2fbcae	0.04290455
91	0x3e5c9ea6	0.21544895
92	0x3e164fc0	0.1467886
93	0xbd4f5dd3	-0.050626587
94	0xbe08a3d8	-0.13343751
95	0xbdb8a397	-0.09015577
96	0xbe795194	-0.24347526
97	0x3d8d1a0a	0.06889732
98	0x3dcce771	0.100050814
99	0xbd86f219	-0.06589145
100	0x3da2d4b0	0.07950723
101	0xbcc4112c	-0.02393397
102	0xbe0890d2	-0.13336495
103	0xbd720b8c	-0.059093043
104	0xbe74bd0f	-0.23900245
105	0x3e773f1f	0.24145173
106	0x3e10193c	0.14072126
107	0xbdc28e99	-0.094998546
108	0xbdd24db5	-0.10268728
109	0x3e2a0bcb	0.16606061
110	0x3e53c23d	0.20679565
111	0x3e6ac6e1	0.22927429
112	0x3e3c8238	0.1840905
113	0x3bcb9459	0.006212753
114	0x3d6fb5e5	0.058523078
115	0xbe489bb0	-0.1959064
116	0xbd6fc703	-0.0585394
117	0x3dfd9cc3	0.123834155
118	0xbda7372e	-0.081648216
119	0xbd619def	-0.055082258
120	0xbd6b3d12	-0.057431288
121	0xbdd173fb	-0.102272
122	0x3e5529ca	0.20816723
123	0xbd96ead8	-0.07369012
124	0x3e7d671a	0.24746361
125	0x3d179250	0.03700477
126	0x3e019d8f	0.1265776
127	0xbe13be82	-0.14428142
128	0x3dea17de	0.114303336
129	0xbe4f210d	-0.20227452
130	0x3e6cc095	0.23120339
131	0xbd8fc484	-0.07019904
132	0xbe02847b	-0.1274585
133	0x3e76b6fa	0.24093238
134	0xbca71c76	-0.020399313
135	0xbda41fa7	-0.0801385
136	0xbdf2057d	-0.11817453
137	0x3e068f98	0.13140714
138	0x3d731cae	0.059353523
139	0x3e697ece	0.22802278
140	0x3e70b76d	0.23507471
141	0x3dad485c	0.08461067
142	0xbe083d0c	-0.13304538
143	0x3e4d09a9	0.20023216
144	0x3df0c266	0.117558286
145	0xbd884184	-0.06653121
146	0xbe708212	-0.23487118
147	0xbe31fc52	-0.17381409
148	0xbe0ee120	-0.13953066
149	0x3e78736c	0.2426278
150	0xbd59b181	-0.053147797
151	0x3e086e39	0.13323297
152	0xbdf63c10	-0.12023175
153	0x3d729d1e	0.05923187
154	0xbe010176	-0.12598214
155	0xbdff09bb	-0.12453028
156	0x3dd21dc8	0.102595866
157	0x3d291144	0.04127623
158	0xbc9951e4	-0.018715806
159	0x3e3d2649	0.18471636
160	0x3c855a7a	0.016278494
161	0x3e5d0b9a	0.21586457
162	0xbcaf046f	-0.021364419
163	0xbe6e9285	-0.2329808
164	0xbe6cbaa2	-0.2311807
165	0x3e533dd0	0.20629048
166	0x3d013d7a	0.03155277
167	0xbd2f2498	-0.042759508
168	0xbd8fee65	-0.07027892
169	0x3e2354df	0.15950345
170	0x3e2f30f3	0.17108516
171	0x3dc65dc0	0.0968585
172	0x3db8da7d	0.09026048
173	0xbe0017d7	-0.12509094
174	0xbdef7ba7	-0.11693507
175	0xbddeed1d	-0.108850695
176	0x3d8ad5bc	0.06779048
177	0x3e3e498d	0.18582745
178	0x3e077381	0.13227655
179	0x3e0492ca	0.1294662
180	0x3e7ab7ed	0.24484225
181	0x3cdd2094	0.026993074
182	0xbe7b8148	-0.24561036
183	0x3e238f63	0.15972666
184	0x3e6c630a	0.23084655
185	0x3e39b4f7	0.18135439
186	0xbdfedca4	-0.124444276
187	0x3cc87f68	0.024474815
188	0xbe0d6009	-0.13806166
189	0xbd511c68	-0.05105248
190	0xbe1bcd31	-0.15214993
191	0xbe0b6fa9	-0.13616814
192	0xbdfd6125	-0.123720445
193	0x3e289395	0.16462548
194	0xbe6be5c8	-0.23036873
195	0x3e569f56	0.2095922
196	0x3c95dc98	0.018293664
197	0x3d01055d	0.031499255
198	0x3e3c082e	0.18362495
199	0xbdba6ed7	-0.09103172
200	0x3e7e2ec3	0.24822526
201	0x3bd219e9	0.00641178
202	0xbcd044f0	-0.025423497
203	0xbb881c6e	-0.0041537797
204	0xbd838d71	-0.06423462
205	0xbddcd7f4	-0.10783377
206	0xbe4c428d	-0.19947262
207	0xbd27255d	-0.040807117
208	0xbcb42300	-0.021989346
209	0xbdf0c986	-0.117571875
210	0x3e71e398	0.23621976
211	0x3e361e8e	0.17785093
212	0xbdcfdbdb	-0.10149356
213	0x3dd5081d	0.10401938
214	0xbe2e234d	-0.17005654
215	0xbe52d6d6	-0.20589766
216	0x3d8e776c	0.06956372
217	0x3d56156a	0.052266516
218	0xbd51e35f	-0.05124223
219	0xbe3d6d24	-0.18498665
220	0xbe621fde	-0.22082469
221	0x3e4a08f9	0.19729985
222	0x3d367b20	0.044551015
223	0xbdfcf9d1	-0.12352336
224	0x3e4c9619	0.19979133
225	0xbddaee2e	-0.106899604
226	0xbd38512c	-0.044999287
227	0x3e5ecffc	0.21759027
228	0xbe2825e5	-0.16420706
229	0xbe1a2e49	-0.15056719
230	0x3d8c0bc1	0.068381794
231	0xbdc73ecd	-0.09728775
232	0xbdb09636	-0.086224005
233	0x3e6a7593	0.22896414
234	0xbe726469	-0.23671116
235	0xbe04873a	-0.1294221
236	0x3db824f8	0.08991426
237	0x3dacb773	0.08433428
238	0xbe82b439	-0.25528124
239	0x3e06463c	0.1311273
240	0xbe72e1a5	-0.23718889
241	0x3cf89a19	0.030346917
242	0x3b6bc379	0.0035974665
243	0x3bbe7990	0.005812831
244	0x3da0efa5	0.078582086
245	0xbcae10d0	-0.021248251
246	0xbdeb7f94	-0.11498943
247	0x3e3bbb92	0.18333271
248	0x3cb6cbfe	0.022314068
249	0x3e5ca8fd	0.21548839
250	0xbe21cce6	-0.15800819
251	0xbcf15aee	-0.029462304
252	0xbe44afa2	-0.19207624
253	0xbe0c2367	-0.1368538
254	0x3e085a5a	0.13315716
255	0xbe2e50cb	-0.17023008

tokenTuringMachineUnit.tokenLearner1.attention_maps.1.weight f4 [8, 16, 1]
0	0x3e60c003	0.21948247
1	0x3e126e38	0.14299858
2	0x3ba3c98f	0.004998393
3	0xbe47f2a9	-0.19526161
4	0x3dc177a8	0.09446651
5	0x3e5f3d85	0.21800812
6	0xbd919e36	-0.071102545
7	0x3e3b4436	0.18287739
8	0xbe6a032b	-0.22852771
9	0xbd899f09	-0.06719787
10	0x3e49c073	0.1970232
11	0xbd2ce7bb	-0.042213183
12	0x3d5078a1	0.05089629
13	0x3dfbc2c0	0.12293005
14	0x3df336b7	0.118756704
15	0xbd4a17a2	-0.049338944
16	0xbe28f61d	-0.16500135
17	0x3dc94e1d	0.09829352
18	0xbe700922	-0.23440984
19	0x3d05c636	0.03265973
20	0x3e414517	0.18874012
21	0x3e3a84eb	0.18214767
22	0xbd004349	-0.031314168
23	0x3d570f55	0.052504856
24	0xbe144892	-0.14480808
25	0xbe3b0223	-0.18262534
26	0x3d9a348c	0.07529554
27	0xbe801a2b	-0.25019965
28	0xbdb5f270	-0.08884132
29	0xbe65998f	-0.22421859
30	0xbe4aa410	-0.19789147
31	0xbcbbe0e4	-0.022934385
32	0x3da93c49	0.082634516
33	0x3c29b082	0.010357024
34	0x3d75d984	0.060021892
35	0xbe39b0d5	-0.18133862
36	0x3e107690	0.14107728
37	0xbe1f5fec	-0.15563935
38	0x3e1fc014	0.15600616
39	0x3d487a28	0.048944622
40	0xbe675863	-0.2259231
41	0x3aebbbea	0.001798508
42	0x3e6ccd11	0.23125102
43	0x3d6bc626	0.057562016
44	0xbe3e3cc6	-0.1857787
45	0x3e27989f	0.16366814
46	0xbe019a2f	-0.12656473
47	0x3d4ac0d4	0.0495003
48	0x3e745348	0.23859894
49	0x3b0611a4	0.0020457292
50	0xbe141013	-0.14459257
51	0x3e7f3d72	0.24925783
52	0xbcd211ad	-0.025643194
53	0x3e729d1f	0.2369275
54	0x3d03ab1b	0.0321456
55	0x3dbc925c	0.09207603
56	0xbd8cdc92	-0.06878008
57	0xbdaa9378	-0.08328909
58	0xbdc02940	-0.09382868
59	0x3e23bd5a	0.159902
60	0xbd2ca463	-0.04214896
61	0xbdd938de	-0.1060655
62	0x3d902864	0.07038954
63	0x3e2b67ef	0.16738866
64	0x3e58b31c	0.21162075
65	0x3d2d8d74	0.04237123
66	0xbdc6a6a4	-0.09699753
67	0xbd12f3a4	-0.035876885
68	0xbcebe7cf	-0.028797058
69	0xbdbd3e4e	-0.09240399
70	0xbddcd2fc	-0.107824296
71	0x3d5aea1b	0.053445917
72	0x3d883fea	0.06652816
73	0x3e583f40	0.21117878
74	0x3e2b0c49	0.16703905
75	0xbdb04556	-0.08606975
76	0x3bb0631a	0.0053829076
77	0xbe66eca3	-0.22551207
78	0x3d501a33	0.050806236
79	0xbdee3430	-0.11631048
80	0xbe086b49	-0.13322176
81	0x3d988f54	0.07449213
82	0x3e2b693f	0.16739367
83	0xbe235761	-0.15951301
84	0x3e3dd8ff	0.18539809
85	0xbdd6313a	-0.10458608
86	0x3e591c78	0.21202266
87	0x3d4dc7b5	0.050239284
88	0xbc98a918	-0.018635318
89	0xbd9bdee1	-0.0761087
90	0x3e2a2ba6	0.16618213
91	0x3d534898	0.051582903
92	0x3e2f5f4d	0.17126198
93	0x3d34978b	0.044089835
94	0x3dc39d1f	0.09551453
95	0xbe6e906e	-0.23297283
96	0x3e618bcb	0.22025983
97	0x3e2839c8	0.16428292
98	0x3d9b3bd3	0.0757977
99	0x3e487da3	0.19579177
100	0x3d878612	0.06617369
101	0xbdbb96ee	-0.09159647
102	0x3dc6873c	0.09693763
103	0x3e7c016d	0.24609919
104	0x3e223085	0.15838821
105	0xbb444cf4	-0.0029953094
106	0x3e1e336f	0.15449308
107	0x3df3ae52	0.11898483
108	0xbe6da07a	-0.23205748
109	0xbe283c68	-0.16429293
110	0xbe79b1f7	-0.24384294
111	0x3e2da132	0.16956022
112	0x3e23f64d	0.16011925
113	0xbc328348	-0.010895558
114	0x3e1f6960	0.15567541
115	0x3e353ae3	0.17698245
116	0xbe5712b0	-0.21003222
117	0xbd241c68	-0.040066153
118	0x3e30a4a4	0.17250305
119	0xbe11c196	-0.14234003
120	0xbe2fb8b8	-0.17160308
121	0x3e6e134a	0.23249546
122	0xbe40495f	-0.18777989
123	0xbe06ec73	-0.13176136
124	0xbd820767	-0.06349068
125	0xbd221ee5	-0.039580245
126	0xbd49aae8	-0.049235255
127	0x3d64e8ae	0.055885963

tokenTuringMachineUnit.tokenLearner1.feat_conv.weight f4 [16, 16, 1]
0	0xbc459eeb	-0.012061815
1	0x3d9ee10e	0.077577695
2	0x3da5b930	0.08091962
3	0x3e720465	0.23634489
4	0xbd7d7c81	-0.061886314
5	0x3cb089cb	0.02155008
6	0xbe56f832	-0.20993116
7	0xbe3fd3e5	-0.18733175
8	0xbd3da8f3	-0.0463037
9	0x3d989a5b	0.07451316
10	0xbd86bd9a	-0.065791324
11	0xbda12690	-0.07868683
12	0x3d6ac083	0.0573125
13	0x3dd1744d	0.10227261
14	0x3d9e13db	0.07718631
15	0xbdf148c6	-0.117814586
16	0xbdfa5102	-0.12222482
17	0xbe17e686	-0.14834031
18	0x3e464f80	0.19366264
19	0x3e0c7572	0.13716677
20	0xbe586271	-0.21131302
21	0xbdd065ff	-0.10175704
22	0x3a423f77	0.00074099697
23	0x3e564012	0.20922878
24	0xbe71a53e	-0.23598191
25	0x3d8da4ff	0.06916236
26	0x3def6c5c	0.1169059
27	0x3d3b35e6	0.0457057
28	0x3e30f0e1	0.17279388
29	0xbdf7627b	-0.120793305
30	0x3e6fe280	0.23426247
31	0x3d506fae	0.050887756
32	0x3e270985	0.16312225
33	0xbe08f774	-0.13375646
34	0xbdabd6e7	-0.08390599
35	0xbe167bcf	-0.14695667
36	0xbe786dee	-0.24260685
37	0xbe3a6ef8	-0.18206394
38	0x3b8332b2	0.004003846
39	0x3ddaeb8a	0.10689457
40	0xbe3b133a	-0.18269053
41	0xbe3427d7	-0.17593323
42	0xbe2c97ec	-0.16854829
43	0x3dd3bad5	0.1033837
44	0x3e35014b	0.17676274
45	0xbdf72e94	-0.12069431
46	0xbc4752a2	-0.012165697
47	0xbe557c9f	-0.2084832
48	0xbde493df	-0.11161017
49	0x3e0bf604	0.13668066
50	0xbd654357	-0.055972423
51	0x3deb5803	0.11491396
52	0x3e169f25	0.14709146
53	0xbd8ee058	-0.06976384
54	0xbe66816f	-0.22510312
55	0x3e583b6c	0.21116418
56	0x3e6e4b1a	0.23270836
57	0xbc33ada5	-0.010966693
58	0xbd976c0d	-0.07393656
59	0xbe371f87	-0.1788312
60	0xbd8beb7c	-0.068320245
61	0xbd172232	-0.036897846
62	0x3e2df726	0.16988811
63	0xbe4044a9	-0.18776192
64	0xbdd57867	-0.104233555
65	0xbd4d7136	-0.050156794
66	0x3e690946	0.22757444
67	0xbe36b2c9	-0.17841639
68	0x3e56401c	0.20922893
69	0xbd1e6512	-0.038670607
70	0x3d3448b2	0.04401464
71	0xbe08f4dc	-0.13374656
72	0x3db08710	0.08619511
73	0xbd5edfe8	-0.054412752
74	0xbe21b282	-0.15790752
75	0xbdbb5534	-0.091471106
76	0x3e59b591	0.21260668
77	0x3e3becf7	0.18352114
78	0x3e51ba5d	0.20481248
79	0x3e02fc41	0.1279154
80	0xbce22564	-0.02760572
81	0x3e4d3024	0.20037895
82	0xbe3006ab	-0.17190044
83	0x3e6a9dde	0.22911784
84	0xbe6caa19	-0.23111762
85	0xbe677e51	-0.2260678
86	0x3d6b1613	0.0573941
87	0x3e430baa	0.19047418
88	0xbe70f273	-0.23529987
89	0x3e0b2ddc	0.13591713
90	0x3d87126b	0.0659531
91	0x3d2e95f3	0.04262347
92	0x3c6164a4	0.013756905
93	0xbd822a55	-0.063557304
94	0x3e34fca5	0.17674501
95	0x3e08d208	0.1336137
96	0xbe80122e	-0.2501387
97	0xbe2d9cff	-0.1695442
98	0x3e6f8e34	0.2339409
99	0xbdd72425	-0.10504941
100	0xbe504cac	-0.20341748
101	0xbb704ef4	-0.0036668153
102	0x3d272ba2	0.040813096
103	0x3e2bdd53	0.16783647
104	0xbe7ea2a3	-0.24866728
105	0xbd5fd52f	-0.054646667
106	0x3d8c2cc4	0.06844476
107	0xbd82de58	-0.06390065
108	0xbdba2f75	-0.09091083
109	0xbd51d881	-0.051231865
110	0xbe1c75e9	-0.15279354
111	0x3e169830	0.14706492
112	0x3d8842f3	0.066533946
113	0x3e17a724	0.14809853
114	0xbab1917a	-0.0013547384
115	0xbe749f12	-0.23888806
116	0x3e05cf2a	0.13067308
117	0x3e54d5ca	0.20784679
118	0xbe49591f	-0.19662903
119	0x3e799850	0.24374509
120	0xbe59f25d	-0.2128386
121	0x3d44dd17	0.04806241
122	0x3d873376	0.06601612
123	0xbe32d3ac	-0.17463559
124	0xbe3920d4	-0.18078929
125	0xbd5a485c	-0.053291664
126	0x3e7232d9	0.2365221
127	0xbdedd8c5	-0.11613611
128	0xbca35b37	-0.019940956
129	0xbd3d0022	-0.046142705
130	0x3c06a30a	0.0082175825
131	0xbe3cfb2d	-0.18455191
132	0xbdb8d8ff	-0.09025764
133	0xbcba4986	-0.022740137
134	0xbe311ec2	-0.1729689
135	0x3e85bb52	0.26119477
136	0xbdfdf0cc	-0.12399444
137	0xbe2aba22	-0.16672567
138	0x3d383b58	0.04497847
139	0x3df8545a	0.12125464
140	0xbe4304f3	-0.19044857
141	0xbe1958de	-0.14975306
142	0x3d887d6b	0.066645466
143	0xbdf59f1b	-0.119932376
144	0x3cc638a9	0.02419694
145	0x3e478ba7	0.19486867
146	0x3df3f4e9	0.11911947
147	0xbe30753e	-0.17232224
148	0x3d91e327	0.07123404
149	0xbd5d6b68	-0.05405751
150	0xbcb1f5c4	-0.021723635
151	0xbe0d0868	-0.13772738
152	0xbb702781	-0.003664464
153	0x3c90645a	0.017625976
154	0x3e366116	0.17810473
155	0x3ca0b24b	0.019616267
156	0xbd761312	-0.06007678
157	0x3e0952ea	0.13410535
158	0x3ddee991	0.10884393
159	0x3e0a4641	0.13503362
160	0xbc5629bb	-0.013071473
161	0x3ca01bdd	0.019544536
162	0xbdcee092	-0.10101427
163	0xbe6760b4	-0.22595483
164	0x3dd7492e	0.10512005
165	0xbba2ba7d	-0.004966079
166	0xbdcd64e0	-0.10029006
167	0x3e33e52d	0.17567892
168	0xbd72b2e6	-0.059252642
169	0xbdfc6f5d	-0.12325928
170	0xbe22e9ba	-0.15909472
171	0xbdb0dd3a	-0.086359456
172	0x3e5ef743	0.2177401
173	0x3e73ae1d	0.23796888
174	0xbe0e75de	-0.1391215
175	0x3e837106	0.25672168
176	0xbdc7d624	-0.09757641
177	0xbe628a98	-0.22123182
178	0xbdfb9844	-0.12284902
179	0x3d88d0ad	0.06680427
180	0xbe021d49	-0.12706484
181	0x3d898690	0.06715119
182	0x3e224514	0.15846664
183	0x3e355e1e	0.17711684
184	0x3d48d23b	0.049028616
185	0x3d9d33d9	0.07675905
186	0xbe3ef49c	-0.18647999
187	0xbe6bf91b	-0.23044245
188	0x3dbae820	0.091263056
189	0xbe56ba6e	-0.20969555
190	0xbcc8103a	-0.0244218
191	0x3dccaf40	0.09994364
192	0x3e0b0ae1	0.13578369
193	0xbd99169f	-0.07475018
194	0x3e27bca1	0.1638055
195	0x3d8a7ac2	0.067616954
196	0x3e21b7a2	0.15792707
197	0xbdc17925	-0.094469346
198	0x3e07d298	0.13263929
199	0xbdddf21f	-0.108371966
200	0x3dd11905	0.1020985
201	0xbb17ee15	-0.002318268
202	0x3d55c1b3	0.05218668
203	0x3d59e245	0.053194303
204	0x3e22a493	0.15883093
205	0xbe57eb1d	-0.21085782
206	0xbe0f2b9d	-0.13981481
207	0xbe2e8d5f	-0.17046116
208	0xbe2f1dc1	-0.17101194
209	0xbe70e08f	-0.23523162
210	0xbd1d9908	-0.03847602
211	0xbe2401e1	-0.16016342
212	0xbdc4ac4b	-0.09603175
213	0xbd847d43	-0.06469204
214	0x3dd78680	0.10523701
215	0xbe39189c	-0.18075794
216	0xbe374029	-0.17895569
217	0xbda3b88d	-0.07994185
218	0xbe7ab6e1	-0.24483825
219	0xbd2c049e	-0.04199659
220	0xbe69e2f0	-0.22840476
221	0x3d9de5e2	0.07709862
222	0x3b74467b	0.0037273455
223	0xbde01a69	-0.10942537
224	0xbe7a63b2	-0.24452093
225	0xbdafa145	-0.085756816
226	0x3e685be3	0.22691302
227	0xbd30a6ac	-0.0431277
228	0x3e130579	0.14357556
229	0xbd3b1750	-0.04567653
230	0x3e4ea080	0.20178413
231	0x3cae0402	0.021242145
232	0xbd6163ee	-0.05502694
233	0x3e744965	0.23856123
234	0xbe4cc224	-0.19995934
235	0xbe212020	-0.15734911
236	0x3c44f462	0.012021156
237	0xbd7a9bdd	-0.0611838
238	0xbe528fdc	-0.2056269
239	0x3e34975c	0.17635864
240	0xbdaf7080	-0.085663795
241	0xbbc0570d	-0.0058697523
242	0xbe6c3da3	-0.23070388
243	0x3e26c418	0.16285741
244	0xbe3cb752	-0.18429306
245	0x3e27f009	0.1640016
246	0x3df49911	0.119432576
247	0x3e01ead8	0.12687242
248	0xbe6f7085	-0.23382767
249	0x3d606122	0.054780133
250	0xbc5ffdc7	-0.013671345
251	0x3db47fcd	0.088134386
252	0x3e6546e5	0.22390325
253	0xbe59e327	-0.21278058
254	0x3b74787a	0.0037303255
255	0xbe37a75f	-0.17934941

tokenTuringMachineUnit.tokenLearner2.norm.weight f4 [16]
0	0x3f7998e7	0.97498935
1	0x3f7ab506	0.9793247
2	0x3f79d4ee	0.9759053
3	0x3f7a277a	0.97716486
4	0x3f796cdd	0.9743174
5	0x3f79a5e5	0.9751876
6	0x3f7930ea	0.9734026
7	0x3f792d31	0.9733458
8	0x3f793c4d	0.97357637
9	0x3f7a73c6	0.97832906
10	0x3f7ad869	0.97986466
11	0x3f7a1639	0.9769016
12	0x3f79fc7f	0.97650903
13	0x3f791419	0.9729629
14	0x3f7a0553	0.97664374
15	0x3f7b9ee6	0.98289335

tokenTuringMachineUnit.tokenLearner2.norm.bias f4 [16]
0	0xb4906f13	-2.6902907e-07
1	0x364dace4	3.0648016e-06
2	0x35afb7d6	1.3092019e-06
3	0xb4bd43e6	-3.5253396e-07
4	0x35a2aca4	1.2120186e-06
5	0xb5df31b5	-1.6629261e-06
6	0x3584be27	9.890108e-07
7	0xb428c64d	-1.571836e-07
8	0x35df82f5	1.6652908e-06
9	0xb5afa1f9	-1.3085656e-06
10	0x34c57fc1	3.6787063e-07
11	0x35e3a5e5	1.69611e-06
12	0x35bccc00	1.4066463e-06
13	0x362ab0cf	2.543489e-06
14	0x35101922	5.3680753e-07
15	0x361e0398	2.3545927e-06

tokenTuringMachineUnit.tokenLearner2.attention_maps.0.weight f4 [16, 16, 1]
0	0x3e126522	0.14296392
1	0x3dde8d2d	0.10866771
2	0x3e013013	0.12615995
3	0x3e6e8320	0.23292208
4	0xbdf30b2d	-0.11867366
5	0xbe56426f	-0.2092378
6	0x3d8fa657	0.07014149
7	0x3d1a9c90	0.037746966
8	0x3d1145fa	0.035467125
9	0xbe32d160	-0.17462683
10	0xbcc08bb3	-0.023504114
11	0x3be20631	0.0068977107
12	0xbdb7d88a	-0.089768484
13	0xbe2ba68a	-0.16762748
14	0xbe28aeff	-0.16473006
15	0xbe63e840	-0.22256565
16	0xbe1da8a4	-0.15396363
17	0x3da32671	0.079663165
18	0xbc69958b	-0.014256845
19	0x3da5457d	0.080698945
20	0x3e1bbbb3	0.1520832
21	0xbe5387e6	-0.2065731
22	0x3e3ca3c1	0.18421842
23	0xbd2dfd61	-0.04247797
24	0xbd5e421d	-0.05426227
25	0x3dffcd52	0.124903336
26	0xbe360f42	-0.17779258
27	0xbca8ec0a	-0.020620365
28	0xbd95229b	-0.07281991
29	0xbdcb418e	-0.09924613
30	0xbdbc21d0	-0.09186137
31	0x3e163a87	0.14670764
32	0x3e6eb016	0.23309359
33	0x3e617a24	0.22019249
34	0xbdb15dd4	-0.086604744
35	0xbd85ff68	-0.065428555
36	0xbe0623f0	-0.13099647
37	0xbe6b8868	-0.23001254
38	0x3c58a3f9	0.013222688
39	0xbd89f818	-0.06736773
40	0xbe618a27	-0.22025357
41	0x3e212b1a	0.15739098
42	0x3e089911	0.1333964
43	0xbe18d996	-0.14926752
44	0x3d69aa2c	0.057047054
45	0x3dbe3750	0.09287894
46	0x3e77d74e	0.24203226
47	0xbe32abbb	-0.17448322
48	0xbdae7e68	-0.08520204
49	0x3dd30b5c	0.10304901
50	0x3e4228f6	0.18960938
51	0xbe03f747	-0.12887298
52	0x3e62ff43	0.22167687
53	0x3e5e420a	0.2170488
54	0xbd33fce9	-0.043942366
55	0xbdfd0110	-0.12353718
56	0xbbd945e9	-0.0066306484
57	0xbc56fe1e	-0.01312211
58	0xbc9c8c89	-0.019109981
59	0xbe393d1d	-0.18089719
60	0x3de850eb	0.11343559
61	0xbdb15094	-0.08657947
62	0xbe08b44f	-0.13350032
63	0x3e6b664f	0.22988246
64	0xbc6b29e3	-0.014353248
65	0x3d1d6c0d	0.038433123
66	0xbdd51f18	-0.10406321
67	0xbdbc0f26	-0.09182577
68	0xbe729fa5	-0.23693712
69	0x3dafe9ac	0.08589491
70	0x3c804300	0.015656948
71	0xbe4ba763	-0.19888072
72	0x3d64e409	0.055881534
73	0x3e74ee78	0.23919094
74	0x3e2ae39d	0.1668839
75	0x3e6114e7	0.2198063
76	0xbe4be8f5	-0.19913085
77	0xbdeb235b	-0.11481353
78	0xbe4f1204	-0.20221716
79	0x3d5f87bf	0.054572817
80	0xbdecdecd	-0.115659334
81	0xbe7345da	-0.23757115
82	0x3d47e496	0.04880198
83	0x3e22053a	0.15822306
84	0xbda6591a	-0.081224635
85	0x3c2e0d8b	0.010623346
86	0x3d183ae1	0.037165526
87	0x3de0f894	0.109849125
88	0x3e32c02c	0.1745612
89	0x3c593be0	0.013258904
90	0xbe045ef0	-0.12926841
91	0xbe5b510d	-0.21417637
92	0xbdd438b5	-0.103623785
93	0x3d69a7cd	0.057044793
94	0xbcfd069b	-0.030886939
95	0x3e73c6f4	0.23806363
96	0x3d66d9ea	0.056360163
97	0xbe15db81	-0.14634515
98	0xbe5b17ac	-0.21395749
99	0xbe27694b	-0.1634876
100	0xbd491222	-0.04908956
101	0x3d44d621	0.04805577
102	0x3e4b8253	0.19873933
103	0xbe11160a	-0.14168563
104	0xbd9f65ce	-0.077830896
105	0x3e0d8b67	0.13822709
106	0xbc906133	-0.017624473
107	0xbd77dce8	-0.060513407
108	0xbda624ce	-0.08112489
109	0xbe1cbfa6	-0.15307483
110	0x3e23f8fe	0.16012952
111	0x3e2b71af	0.16742586
112	0x3d9fb677	0.07798474
113	0xbce8f024	-0.02843482
114	0x3e5157a6	0.20443591
115	0xbda80e93	-0.08205905
116	0xbe428d42	-0.18999198
117	0xbcbac5bf	-0.02279937
118	0x3d92bd1c	0.07164976
119	0xbcb141b5	-0.021637777
120	0x3d797ebe	0.060911886
121	0x3d262f25	0.040572304
122	0x3ddd80d4	0.10815588
123	0x3cbcebe2	0.023061696
124	0xbd0dbba3	-0.034602772
125	0x3e6224e8	0.22084391
126	0x3dfc5ffa	0.123229936
127	0x3df048d9	0.117326446
128	0xbdf1ef39	-0.11813206
129	0x3e6421b5	0.22278483
130	0xbe5270f2	-0.20550898
131	0x3e53f0a6	0.20697269
132	0xbe574eb2	-0.21026114
133	0x3dc0c963	0.094134115
134	0xbd8cfbf9	-0.068839975
135	0xbe27257d	-0.16322894
136	0xbe46b28c	-0.19404048
137	0xbe549ea0	-0.20763636
138	0xbe18fa81	-0.1493931
139	0x3ddbef15	0.10738961
140	0xbe54f340	-0.20795918
141	0x3bf919ef	0.0076019685
142	0x3da29bc2	0.07939865
143	0xbdd7536e	-0.1051396
144	0xbc3b3890	-0.01142706
145	0x3e4700a5	0.1943384
146	0xbe2a01aa	-0.16602197
147	0x3e5e989e	0.21737906
148	0x3e232384	0.15931517
149	0x3e0aacce	0.13542482
150	0x3e29fb3a	0.16599742
151	0xbe04c60c	-0.12966174
152	0x3cec5376	0.028848391
153	0x3d26dc78	0.0407376
154	0xbe6f33c0	-0.23359585
155	0xbe52c9d8	-0.2058481
156	0x3e58cd82	0.21172145
157	0x3cf859af	0.030316202
158	0xbd8e0220	-0.06933999
159	0x3e296d65	0.16545637
160	0xbdc782f1	-0.09741772
161	0xbc9df140	-0.019280076
162	0x3dafc2e1	0.08582092
163	0x3e4f230c	0.20228213
164	0x3e0509d1	0.12992026
165	0x3c143bc2	0.0090474505
166	0x3db840b3	0.089967154
167	0x3e02f051	0.12786986
168	0xbe1339b4	-0.14377481
169	0xbdfa2045	-0.12213186
170	0xbe30ecd1	-0.17277838
171	0x3dd638e9	0.104600735
172	0xbde22188	-0.11041552
173	0xbe3fa0dd	-0.18713708
174	0xbe5f5e72	-0.21813372
175	0x3dcdc7d9	0.100478835
176	0xbdaef4b6	-0.08542769
177	0x3e205046	0.15655622
178	0x3e3ab8c7	0.1823455
179	0xbe5eb609	-0.21749128
180	0xbd494c23	-0.049144875
181	0xbe2a9a98	-0.16660535
182	0xbe0cefe3	-0.13763385
183	0xbd92da45	-0.07170538
184	0xbd2a1e69	-0.041532908
185	0xbd9f1db5	-0.07769338
186	0xbde7d485	-0.11319832
187	0x3e3382b7	0.17530333
188	0x3e218b7c	0.15775865
189	0x3cb0ac4e	0.021566536
190	0xbc5a4bbe	-0.013323722
191	0x3dad2c5f	0.08455729
192	0xbd851f3c	-0.06500098
193	0x3df01c2e	0.11724125
194	0x3e4f6ddd	0.20256753
195	0xbc17b6fa	-0.009259934
196	0x3dfb8b80	0.12282467
197	0xbb9831ba	-0.0046445997
198	0x3e218925	0.15774973
199	0xbe0cca3f	-0.13749026
200	0x3ddfb408	0.1092301
201	0xbd1d54f4	-0.038411096
202	0x3e43c341	0.19117452
203	0x3cc33c74	0.023832537
204	0xbe6dba4f	-0.23215602
205	0x3e12922b	0.14313571
206	0xbda95308	-0.0826779
207	0xbba5a878	-0.0050554834
208	0x3e5bdfc9	0.21472086
209	0x3e172af9	0.14762487
210	0x3e276ce1	0.16350128
211	0x3d8ff0aa	0.07028325
212	0x3e39570d	0.18099613
213	0x3d93535b	0.07193633
214	0xbe4359e1	-0.19077255
215	0x3b7d17e4	0.0038618976
216	0x3e1c187f	0.1524372
217	0xbe69e01a	-0.22839394
218	0xbddc57be	-0.10758923
219	0xbe06fd8d	-0.1318266
220	0xbd23c059	-0.03997836
221	0x3e4a0752	0.19729355
222	0x3e1ac893	0.15115575
223	0x3e095127	0.13409863
224	0xbd824f0e	-0.06362735
225	0x3e03505a	0.1282362
226	0x3d0651b6	0.03279277
227	0xbe74ad43	-0.23894219
228	0x3e6219a3	0.22080092
229	0xbe4b5d8f	-0.19859909
230	0x3cae2ca2	0.021261517
231	0xbe5766f9	-0.21035375
232	0x3e3d88b9	0.18509187
233	0xbda28345	-0.07935194
234	0xbd3a532d	-0.04548948
235	0x3e2309f8	0.15921772
236	0xbe4f43a6	-0.2024065
237	0xbdfed7b6	-0.12443487
238	0xbe387e0a	-0.1801683
239	0xbd04bb3e	-0.03240513
240	0xbe3a8abd	-0.18216987
241	0x3e3fe6b0	0.18740344
242	0xbe0caa79	-0.13736905
243	0x3dfcc912	0.123430386
244	0x3e191957	0.14951073
245	0x3d90945a	0.07059546
246	0xbd68da98	-0.056849092
247	0xbe61cb0f	-0.22050117
248	0x3daa9bf3	0.08330526
249	0x3ce5f630	0.028071493
250	0x3e6cfdc2	0.23143676
251	0xbd8b794a	-0.068102434
252	0xbdbba27b	-0.0916185
253	0x3e7abf7b	0.24487107
254	0xbddcb443	-0.1077657
255	0x3d93b28f	0.07211792

tokenTuringMachineUnit.tokenLearner2.attention_maps.1.weight f4 [128, 16, 1]
0	0xbe37111e	-0.17877623
1	0x3d644685	0.055731315
2	0x3e03e26e	0.12879345
3	0xbe3ea2f8	-0.18616855
4	0xbddcdad1	-0.107839234
5	0xbda17997	-0.078845195
6	0x3dbd7761	0.09251285
7	0xbd41d8a1	-0.047325734
8	0xbdc83705	-0.09776119
9	0x3cfcc4e9	0.030855613
10	0xbe2f5779	-0.17123212
11	0x3e1d50da	0.15362874
12	0xbe26cc7a	-0.16288939
13	0xbd76fd67	-0.060300257
14	0x3dd48727	0.10377341
15	0x3c6d4e19	0.014483952
16	0xbe5740b1	-0.21020772
17	0x3b2d4935	0.002644134
18	0xbdd1d51d	-0.10245726
19	0x3ddd0cf9	0.1079349
20	0xbd34f60f	-0.044179972
21	0xb93e5840	-0.00018152688
22	0xbcdf4708	-0.02725555
23	0xbcdbd001	-0.026832582
24	0x3e43b78d	0.19112988
25	0x3d860042	0.06543018
26	0xbe2f122b	-0.17096774
27	0xbe01d5f2	-0.1267927
28	0xbd2cfc47	-0.042232778
29	0x3d9623e7	0.073310666
30	0x3e5ea2b7	0.21741758
31	0xbdc0d757	-0.09416073
32	0xbdf51afc	-0.119680375
33	0xbe6a2c80	-0.22868538
34	0x3e5ad156	0.21368918
35	0xbd5f42b1	-0.05450696
36	0xbe4c54e0	-0.19954252
37	0xbe6441c2	-0.2229071
38	0x3de4a1a4	0.11163643
39	0x3c91a077	0.01777671
40	0x3e50aae2	0.20377687
41	0xbbd9db95	-0.0066484907
42	0xbdbf5e7a	-0.09344192
43	0x3e23f8bf	0.16012858
44	0xbd984337	-0.07434695
45	0xbc8f63f6	-0.01750372
46	0x3d12748a	0.03575567
47	0x3cbfd7e7	0.02341838
48	0xbe6cd0ea	-0.2312657
49	0x3d2b92a4	0.041887894
50	0xbcecac23	-0.028890675
51	0x3d876c0e	0.06612407
52	0x3e0723bd	0.13197227
53	0xbe13e8ee	-0.14444324
54	0x3d3bd2fd	0.04585551
55	0xbd146fee	-0.036239557
56	0xbde2f9ec	-0.11082825
57	0xbe342092	-0.1759055
58	0xb9cd4d48	-0.00039158226
59	0x3cf08ea7	0.029364897
60	0xbd52e18c	-0.05148463
61	0xbe310439	-0.17286767
62	0xbe3fd768	-0.18734515
63	0xbc1e8f2b	-0.009677689
64	0x3e61b492	0.22041538
65	0x3cc38999	0.023869323
66	0x3e6647d1	0.22488333
67	0x3d1c0ac7	0.038096216
68	0xbda7c824	-0.08192471
69	0x3d9f0f62	0.07766606
70	0xbe2c61ec	-0.16834229
71	0xbcfd9d71	-0.030958863
72	0x3e5f9f00	0.21837997
73	0xbb3b1ffe	-0.0028553004
74	0x3d6ec941	0.0582974
75	0x3e041195	0.12897332
76	0xbcda4d0b	-0.026648065
77	0xbe09861d	-0.13430066
78	0x3dfe40bc	0.12414691
79	0xbdf36587	-0.11884599
80	0xbdc7f01f	-0.09762596
81	0xbe4c3fde	-0.19946238
82	0xbe56b8a6	-0.20968875
83	0x3e483d50	0.19554639
84	0x3e2759b3	0.16342811
85	0xbce7ccfd	-0.028295988
86	0xbbe8ea11	-0.007107981
87	0x3e0b8f08	0.13628781
88	0xbe5531e7	-0.20819817
89	0x3e237a49	0.15964617
90	0x3dad8a9b	0.084737025
91	0xbcc07177	-0.023491604
92	0xbde9a01b	-0.11407491
93	0x3e336706	0.17519769
94	0xbd948a93	-0.072529934
95	0x3e676b83	0.22599606
96	0x3ddeaafd	0.10872457
97	0xbdf054ef	-0.1173495
98	0x3e52f8fe	0.20602795
99	0x3dc79e5e	0.09747003
100	0xbd3f2df5	-0.046674687
101	0x3cf5afdd	0.029991085
102	0xbcf81158	-0.030281708
103	0x3e2edc9f	0.17076348
104	0x3b9dda06	0.00481725
105	0x3cfae0bf	0.030624745
106	0x3e1d9a02	0.1539078
107	0x3e612ccd	0.21989746
108	0xbe519515	-0.20467027
109	0x3e09531b	0.13410608
110	0x3c607fe9	0.013702371
111	0xbdd3e0e9	-0.103456326
112	0xbe141b75	-0.14463599
113	0x3e57591b	0.21030085
114	0x3e4163c7	0.18885718
115	0x3e3b48f1	0.18289544
116	0x3e568eb1	0.2095287
117	0xbe088d78	-0.13335216
118	0xbe379785	-0.17928894
119	0xbdcb80a5	-0.09936646
120	0xbe42fbb6	-0.19041333
121	0xbe06ca8c	-0.13163203
122	0xbe23e102	-0.16003802
123	0x3d0cdeb0	0.03439206
124	0xbdea7257	-0.1144759
125	0x3ce46e0e	0.02788451
126	0x3da159e8	0.078784764
127	0xbe148cdf	-0.14506863
128	0x3dc5a537	0.09650653
129	0x3e58fc4b	0.21189992
130	0x3e343e4d	0.17601891
131	0xbe1dda47	-0.15415297
132	0x3e5eeca8	0.21769965
133	0xbd63129b	-0.055437665
134	0xbe03d6f0	-0.12874961
135	0x3e02f950	0.12790418
136	0xbe4dd135	-0.20099337
137	0xbd832adc	-0.06404659
138	0xbd962ebe	-0.07333134
139	0xbe0e7042	-0.1391001
140	0x3d263116	0.040574156
141	0xbc5cee61	-0.013484568
142	0xbe07bf43	-0.13256554
143	0x3e1a1295	0.15046151
144	0xbe015e00	-0.12633514
145	0xbcc7ffba	-0.024413932
146	0xbc386cb6	-0.011256387
147	0xbe268b35	-0.16264041
148	0x3e08808e	0.1333029
149	0xbd163e84	-0.036680713
150	0x3dcec48b	0.10096081
151	0x3e182e4b	0.1486141
152	0x3e300574	0.1718958
153	0xbe02ee51	-0.12786223
154	0x3d570082	0.05249072
155	0x3dba5c97	0.09099691
156	0x3e14e871	0.14541794
157	0x3bff4524	0.0077902246
158	0x3e0a0264	0.13477474
159	0xbe0351aa	-0.12824121
160	0xbe36ddf6	-0.17858109
161	0xbd42b35b	-0.047534328
162	0xbe44f481	-0.19233896
163	0xbe67e36c	-0.22645348
164	0x3e21abb8	0.15788162
165	0xbd7b7c68	-0.06139794
166	0x3de776df	0.1130197
167	0xbe4460b0	-0.19177508
168	0x3ddbf7bc	0.10740611
169	0xbe53172b	-0.20614307
170	0xbdf4d64e	-0.11954938
171	0xbe6ac0e0	-0.22925138
172	0x3d36fba5	0.04467358
173	0xbd9216b4	-0.071332365
174	0xbcc5e3c9	-0.024156468
175	0x3d944c89	0.072411604
176	0xbe3ae98c	-0.18253154
177	0x3c3f027f	0.01165831
178	0x3e4e81c1	0.20166685
179	0xbe08e079	-0.1336688
180	0x3d7c4b66	0.061595343
181	0xbe064286	-0.13111314
182	0xbe51bddb	-0.2048258
183	0x3b40f1b7	0.0029440948
184	0x3e15497d	0.14578815
185	0xbe21ca9f	-0.1579995
186	0x3da906b7	0.08253234
187	0xbd712ce9	-0.05888072
188	0xbe11e739	-0.1424836
189	0x3e3ecfef	0.18634008
190	0x3e322639	0.17397393
191	0xbe180dbc	-0.14848989
192	0x3e6a0767	0.22854386
193	0xbe323b01	-0.1740532
194	0xbe1195f0	-0.14217353
195	0x3d244234	0.0401022
196	0x3e1092db	0.14118521
197	0x3de49eeb	0.11163124
198	0x3e3bfb0c	0.18357486
199	0xbdb87bad	-0.09007964
200	0x3e2884d7	0.16456924
201	0x3e3172ad	0.17328902
202	0x3da5a8c9	0.08088834
203	0xbe4e1854	-0.20126468
204	0x3e4051e3	0.18781237
205	0xbd3f5f33	-0.04672165
206	0xbd8955b7	-0.06705802
207	0xbdfaa2e5	-0.12238101
208	0xbe6d23b7	-0.23158155
209	0x3db39b98	0.087699115
210	0x3bd3d44c	0.0064645167
211	0xbe08e5cd	-0.13368912
212	0xbdfc4fe1	-0.12319923
213	0x3dc9ce09	0.09853751
214	0xbe25b2c6	-0.16181478
215	0x3da0e19d	0.07855532
216	0xbd6fa028	-0.058502346
217	0x3df7f376	0.12106983
218	0x3dd78a42	0.105244175
219	0xbe39fdae	-0.18163177
220	0xbe1a3aa4	-0.15061432
221	0xbcd886c6	-0.026431452
222	0x3dd93f39	0.10607762
223	0xbdce5695	-0.10075108
224	0x3c877d2a	0.016539175
225	0x3d65db93	0.056117605
226	0xbe182c0a	-0.1486055
227	0x3e4d5406	0.20051584
228	0xbe6ef8a9	-0.23337044
229	0x3d89884a	0.06715448
230	0xbe25846b	-0.16163795
231	0x3e686d6a	0.22697988
232	0x3e415743	0.18880944
233	0xbe33920f	-0.17536186
234	0xbe1cd512	-0.15315655
235	0x3d4afaab	0.04955546
236	0xbdd39062	-0.10330273
237	0x3c3eb887	0.011640674
238	0x3e5e80d4	0.21728832
239	0xbd43bacf	-0.047785576
240	0xbc6dcaf2	-0.014513718
241	0x3e5d8cc8	0.21635735
242	0xbcb801ae	-0.022461738
243	0xbe60b1c8	-0.21942818
244	0x3e4b916f	0.19879697
245	0xbe6a17e0	-0.2286067
246	0x3d65732b	0.056018036
247	0xbc629b9b	-0.013831045
248	0xbe5b1c0b	-0.21397416
249	0xbe67b701	-0.22628404
250	0xbe54929b	-0.2075905
251	0x3e010a8b	0.12601678
252	0x3dc2ae6f	0.09505927
253	0x3dc4469d	0.09583781
254	0x3e5c326f	0.21503614
255	0x3d81c375	0.063361086

tokenTuringMachineUnit.tokenLearner2.feat_conv.weight f4 [16, 16, 1]
0	0xbe384729	-0.17995895
1	0xbe68b28b	-0.22724359
2	0x3d04d41c	0.032428846
3	0xbd18ef0d	-0.03733735
4	0xbe69227c	-0.22767061
5	0x3df6e6ac	0.12055716
6	0x3ca703f4	0.020387627
7	0x3e78bc0a	0.24290481
8	0xbe5bf515	-0.2148021
9	0xbd65a44d	-0.056064893
10	0xbd216182	-0.03939963
11	0xbe1f965d	-0.15584703
12	0xbc07f029	-0.008297005
13	0x3e6353aa	0.22199884
14	0x3d51e879	0.051247094
15	0xbcd10f54	-0.025520004
16	0x3e3c781b	0.18405192
17	0x3df9b77a	0.121931985
18	0xbe638bfb	-0.22221367
19	0x3d700acd	0.05860405
20	0x3e523970	0.20529723
21	0x3ded08de	0.11573957
22	0x3d839b68	0.06426126
23	0x3e30dff0	0.17272925
24	0xbdab59e9	-0.083667584
25	0x3dd904f7	0.1059665
26	0x3d6b11ba	0.057389952
27	0x3c806b89	0.015676277
28	0x3bd07671	0.0063617756
29	0xbe49b604	-0.1969834
30	0xbe5d5c7a	-0.21617308
31	0x3da440d7	0.0802018
32	0x3e79ec24	0.24406487
33	0x3e010840	0.12600803
34	0xbd5bd5c2	-0.053670652
35	0x3e5df039	0.21673669
36	0x3e280edf	0.16411923
37	0x3e259c53	0.16172914
38	0x3e5f4f27	0.21807538
39	0xbd958d2f	-0.07302319
40	0xbdcadac2	-0.09905006
41	0xbe3dc16d	-0.18530817
42	0xbda5298c	-0.08064565
43	0xbe09370a	-0.13399902
44	0x3ca29e76	0.01985095
45	0xbe58b6c1	-0.21163465
46	0x3ccc1b09	0.024915235
47	0x3e6840c9	0.22680964
48	0x3e0e0a6a	0.1387116
49	0xbd9a8613	-0.07545104
50	0xbe65513e	-0.22394273
51	0x3e1bfe80	0.15233803
52	0x3e3edf9b	0.18639986
53	0xbe2c25d8	-0.16811311
54	0xbd7456f7	-0.05965325
55	0xbe6e4428	-0.23268187
56	0x3e5e9851	0.21737792
57	0xbd9da388	-0.07697207
58	0x3d6d98fc	0.058007225
59	0xbdfa2698	-0.122143924
60	0x3d91e681	0.07124043
61	0xbdb6c1a9	-0.089236565
62	0x3d23c64f	0.039984044
63	0x3db5e235	0.08881036
64	0x3e2096d1	0.15682532
65	0xbda5b108	-0.08090407
66	0x3da1143d	0.07865188
67	0x3e3549a5	0.17703874
68	0xbd14d05a	-0.036331512
69	0x3c01197e	0.007879613
70	0x3ccae521	0.02476746
71	0x3d3dad01	0.046307568
72	0x3d5f2206	0.054475807
73	0x3d4ba5cc	0.049718663
74	0x3e74569b	0.23861162
75	0xbe3e0a46	-0.18558607
76	0x3e1a6fb3	0.15081672
77	0xbe5b8d89	-0.2144071
78	0x3cdd6b92	0.027028833
79	0x3dee0033	0.11621132
80	0x3e63396e	0.22189876
81	0x3e6054a2	0.21907285
82	0xbdeac6da	-0.11463709
83	0xbda00174	-0.07812777
84	0x3e7e44bb	0.24830906
85	0xbcd65856	-0.026165169
86	0xbdbeabdc	-0.09310123
87	0x3ba56d14	0.0050484035
88	0x3e44ec65	0.19230802
89	0x3e50cbcd	0.20390244
90	0x3e5956eb	0.21224563
91	0x3e6e0523	0.23244147
92	0xbe06473e	-0.13113114
93	0xbe761365	-0.24030836
94	0x3d541cd8	0.05178532
95	0x3cd41b07	0.025891794
96	0xbdaedbe7	-0.08538037
97	0x3da14bed	0.0787581
98	0x3d7acd93	0.061231207
99	0xbdf8a491	-0.121407636
100	0x3e5f4b63	0.21806102
101	0xbe51960e	-0.20467398
102	0xbdb3c686	-0.087781
103	0xbe3f6eda	-0.1869463
104	0x3e4f8b23	0.2026792
105	0xbd9cbecf	-0.07653581
106	0xbda9e716	-0.08296029
107	0xbdf1a6da	-0.117994025
108	0xbe6746a1	-0.22585537
109	0x3e2d0174	0.16895086
110	0x3e37449b	0.17897265
111	0xbc1028a0	-0.008798748
112	0x3e28ddef	0.16490911
113	0x3e439285	0.19098862
114	0x3da81990	0.08208001
115	0xbe35e845	-0.17764385
116	0x3e083968	0.13303149
117	0xbe004e8a	-0.1252996
118	0x3dd3f21e	0.103489146
119	0xbe4b485e	-0.19851825
120	0x3e4909a2	0.19632581
121	0xbe158639	-0.14601983
122	0xbe5d01d2	-0.21582726
123	0xbe5e4521	-0.21706058
124	0x3e5946b4	0.21218377
125	0x3e282128	0.16418898
126	0xbdd5583a	-0.104172185
127	0x3dde10d6	0.10843055
128	0xbda0cd57	-0.078516655
129	0xbe13ccfb	-0.14433663
130	0xbe2edc98	-0.17076337
131	0xbdc9cc6c	-0.098534435
132	0x3dbd36de	0.09238981
133	0x3e7ab486	0.24482927
134	0xbe693928	-0.2277571
135	0xbcde21cb	-0.027115723
136	0xbc1caa33	-0.009562063
137	0x3dff9bde	0.12480901
138	0xbe19bfc6	-0.15014562
139	0xbd478147	-0.048707273
140	0x3d156ff0	0.036483705
141	0x3d5a4f64	0.05329837
142	0x3e20ad21	0.15691043
143	0xbe289efb	-0.16466896
144	0x3e3d98cb	0.18515317
145	0xbda1a47b	-0.078927
146	0xbe067d04	-0.13133627
147	0xbdfdb0df	-0.12387251
148	0x3e313f94	0.1730941
149	0x3dbbfa55	0.091786064
150	0x3cbd4715	0.023105184
151	0xbd6ce48a	-0.05783514
152	0xbd6d9688	-0.058004886
153	0x3e4e1780	0.20126152
154	0xbdad489d	-0.084611155
155	0xbe3c8015	-0.18408234
156	0xbc96cdc1	-0.018408658
157	0x3dc8a496	0.09797017
158	0x3e753902	0.23947528
159	0xbdace960	-0.0844295
160	0x3df06b51	0.11739219
161	0x3dfd561d	0.123699404
162	0xbe262774	-0.16225988
163	0x3df4ecee	0.11959253
164	0xbe81eac3	-0.2537442
165	0x3e1f363f	0.15548037
166	0x3de655a2	0.11246802
167	0xbd9d80c5	-0.076905765
168	0xbd7c0808	-0.061531097
169	0xbe0bc8f7	-0.13650881
170	0x3e6a526e	0.22883007
171	0x3d6cb660	0.057791114
172	0xbd9e5e73	-0.077328585
173	0x3e8224ce	0.25418705
174	0x3e303c37	0.1721047
175	0x3e113ced	0.14183398
176	0x3d02112c	0.031754658
177	0xbe111382	-0.14167598
178	0x3d92383c	0.07139632
179	0x3e1134c8	0.1418029
180	0x3e64139a	0.22273102
181	0xbe600fe1	-0.21881057
182	0xbdcac3a0	-0.09900594
183	0xbdcf3820	-0.10118127
184	0x3dcbbd95	0.09948269
185	0xbe694c62	-0.22783044
186	0xbd782712	-0.060584135
187	0x3c801cd7	0.015638752
188	0xbbb01d61	-0.005374596
189	0xbd937db0	-0.07201707
190	0xbe2a32e2	-0.16620973
191	0x3e5654cb	0.20930783
192	0x3e3c31e7	0.18378411
193	0xbe7174a9	-0.23579659
194	0xbd6b7d2c	-0.05749242
195	0x3d17ea19	0.037088487
196	0x3e410209	0.18848433
197	0x3dff10ba	0.12454362
198	0x3e20a0e3	0.15686373
199	0xbe1092d9	-0.14118518
200	0xbe5e18ec	-0.21689194
201	0x3e0f46a7	0.13991795
202	0xbe755cea	-0.23961225
203	0x3dbfb325	0.09360341
204	0xbda55d22	-0.08074404
205	0xbe204e4b	-0.15654866
206	0xbdf03d55	-0.11730448
207	0x3e793c05	0.24339302
208	0xbd360854	-0.044441536
209	0xbcebcee1	-0.028785171
210	0x3dfb6fc8	0.1227718
211	0xbe05c764	-0.13064343
212	0x3e275112	0.1633952
213	0x3d923bf5	0.07140342
214	0x3d938c90	0.072045445
215	0xbdf160a6	-0.11786012
216	0xbd78dde0	-0.06075847
217	0xbe39b653	-0.18135957
218	0xbe053326	-0.13007793
219	0x3e4a9fcb	0.19787519
220	0xbe5bce3d	-0.21465392
221	0x3dbf7a3e	0.09349488
222	0xbe1be807	-0.1522523
223	0x3dd9a436	0.10627024
224	0x3d4f0307	0.050539996
225	0xbd1f62f8	-0.038912743
226	0x3e0109ab	0.12601344
227	0x3d681642	0.05666185
228	0xbe2aeb7b	-0.16691391
229	0x3e6ddc2a	0.23228517
230	0x3d32ff92	0.043700762
231	0xbe5d6b0c	-0.21622866
232	0xbe50413f	-0.2033739
233	0xbe2c8064	-0.16845852
234	0x3d5c1e94	0.0537401
235	0x3e1ce5ac	0.15321988
236	0xbe6f28ae	-0.23355362
237	0xbe0349f7	-0.12821184
238	0xba709aa0	-0.00091783144
239	0x3e220452	0.1582196
240	0x3e70d169	0.23517384
241	0x3d677c7d	0.056515206
242	0xbe196f6f	-0.14983915
243	0x3e65fb17	0.22459064
244	0xbd17dec4	-0.03707768
245	0xbdfce1dd	-0.123477675
246	0xbe131d87	-0.14366733
247	0xbe1772d1	-0.14789893
248	0x3e679e97	0.22619091
249	0xbe37347b	-0.17891113
250	0xbd104528	-0.035222203
251	0x3dc08373	0.09400072
252	0xbd7cc1f8	-0.06170842
253	0xbcf9d06d	-0.030494893
254	0xbe3b509c	-0.18292469
255	0xbda8eb51	-0.08248008

tokenTuringMachineUnit.transformerBlock.self_attn.in_proj_weight f4 [48, 16]
0	0x3e838f19	0.25695112
1	0xbc91ad30	-0.017782778
2	0xbe75bba0	-0.23997355
3	0xbe30df87	-0.17272769
4	0xbd0946b0	-0.03351468
5	0xbe3ba652	-0.18325165
6	0x3e8b7141	0.27234843
7	0xbe8d4747	-0.27593443
8	0x3e521086	0.20514116
9	0xbc141580	-0.009038329
10	0x3c969d30	0.0183855
11	0x3e914533	0.28373107
12	0x3c8c5140	0.017128587
13	0xbe568694	-0.20949775
14	0x3e97797d	0.29584876
15	0xbe469466	-0.19392547
16	0x3e90d2d5	0.28285852
17	0xbddacba4	-0.106833726
18	0xbe76fce6	-0.2411991
19	0x3e1bba36	0.15207753
20	0x3e01cb68	0.1267525
21	0x3e0ce580	0.13759422
22	0x3e22b950	0.15891004
23	0x3e4ba15a	0.1988577
24	0x3d0aab30	0.033854663
25	0x3e8d8f85	0.2764856
26	0x3d75ebf8	0.06003949
27	0xbe59b359	-0.21259822
28	0xbdd5bd12	-0.10436453
29	0x3e7dfdc2	0.24803832
30	0x3e901c01	0.28146365
31	0x3e19fe0e	0.1503832
32	0xbe774d95	-0.24150689
33	0x3e28e6a0	0.16494226
34	0x3e4aa4ee	0.19789478
35	0xbe8d4b7c	-0.27596653
36	0xbdf9b82e	-0.121933326
37	0x3e015952	0.12631729
38	0x3dfd4f24	0.123686105
39	0xbe3b3bf8	-0.18284595
40	0x3e4b73ae	0.19868347
41	0x3df9f188	0.122042716
42	0x3d38a080	0.04507494
43	0x3e156ac8	0.14591515
44	0xbde513ca	-0.11185415
45	0x3e801953	0.2501932
46	0x3e659bbe	0.22422692
47	0xbe96345b	-0.2933682
48	0xbe69bb8e	-0.22825453
49	0xbd035d08	-0.032071143
50	0xbda7e86a	-0.08198626
51	0xbd8280fe	-0.063722596
52	0xbde0520c	-0.10953149
53	0xbcc1b1e0	-0.023644388
54	0xbe923292	-0.28554207
55	0x3e71570a	0.23568359
56	0xbe6d2986	-0.23160371
57	0xbe1c670e	-0.15273687
58	0xbd539448	-0.051655084
59	0xbdeb79d0	-0.11497843
60	0xbe58128d	-0.21100827
61	0x3e062076	0.1309832
62	0x3d6b0158	0.05737433
63	0xbe96bc71	-0.29440644
64	0x3e28106e	0.16412517
65	0xbc3edf60	-0.011649936
66	0x3e9c59c9	0.3053725
67	0x3e928ee3	0.2862464
68	0x3d885a6c	0.066578716
69	0xbe916854	-0.2839991
70	0xbe7a28d4	-0.24429637
71	0x3e901c5d	0.2814664
72	0xbdf40220	-0.11914468
73	0x3dad1df8	0.08452982
74	0x3e449280	0.1919651
75	0xbe96eea5	-0.29478946
76	0xbe34f756	-0.17672476
77	0x3d86dc28	0.0658496
78	0x3e47455a	0.1946005
79	0x3e855b87	0.26046392
80	0x3e650fa6	0.2236925
81	0xbe2fcc5a	-0.17167798
82	0x3cdae1b0	0.026718944
83	0xbdb3b2da	-0.087743476
84	0x3d8840ec	0.06653008
85	0xbe2a3dcb	-0.16625135
86	0x3e8798e9	0.2648385
87	0xbdc56830	-0.09639013
88	0xbe941a6a	-0.28926402
89	0xbe985a1f	-0.29756257
90	0x3e59edca	0.21282116
91	0xbe2eeecf	-0.17083286
92	0x3e045402	0.12922671
93	0x3e13e9ea	0.144447
94	0xbe19573d	-0.14974685
95	0xbddafdea	-0.106929615
96	0xbd681718	-0.05666265
97	0x3e236c34	0.15959245
98	0xbe8d3809	-0.27581814
99	0x3db084b4	0.08619061
100	0xbe27c96c	-0.1638543
101	0xbe38741e	-0.18013045
102	0xbe3599b1	-0.1773441
103	0x3c9b1520	0.018930972
104	0x3e65d586	0.22444734
105	0x3e93faf3	0.28902397
106	0xbde42c90	-0.11141312
107	0xbe9959a7	-0.29951212
108	0xbdc5efca	-0.09664877
109	0xbe9357c6	-0.28777903
110	0xbe71ba84	-0.23606306
111	0xbd89a51a	-0.06720944
112	0xbd063f10	-0.032774985
113	0xbddb7dd2	-0.10717358
114	0xbd6bc8a4	-0.057564393
115	0x3e69dfb2	0.22839239
116	0xbdf371d6	-0.11886947
117	0xbe33a4a8	-0.1754328
118	0xbd1a2910	-0.037636817
119	0x3dde44c8	0.10852963
120	0x3e419370	0.18903899
121	0xbd8c5816	-0.068527386
122	0xbe09a3b6	-0.13441357
123	0x3e905d91	0.28196386
124	0x3d7ab150	0.061204255
125	0xbe83bf0e	-0.257317
126	0xbe8cf4a0	-0.27530384
127	0x3e059b00	0.13047409
128	0x3e849325	0.25893512
129	0xbe6368e6	-0.22207984
130	0x3e1a8462	0.15089563
131	0x3e457dc0	0.19286251
132	0xbcee3880	-0.029079676
133	0x3e6d991e	0.23202941
134	0x3e97aff1	0.2962642
135	0x3d977720	0.07395768
136	0x3e4e45c2	0.20143798
137	0xbdd5f3f4	-0.10446921
138	0xbe83a2b4	-0.2571007
139	0xbe0b4517	-0.13600574
140	0x3e147580	0.14497948
141	0x3e91427d	0.2837104
142	0x3e360cf8	0.17778385
143	0x3d08a5a0	0.033361077
144	0x3d57bc30	0.052669704
145	0x3e85b603	0.26115426
146	0xbe216ac7	-0.15763389
147	0xbe3c583f	-0.18393038
148	0xbe45adc0	-0.19304562
149	0x3d2e1c80	0.04250765
150	0x3d43c4b8	0.047795027
151	0x3e05291a	0.1300396
152	0x3e213906	0.15744409
153	0xbe828a22	-0.25496012
154	0xbe4450a0	-0.19171381
155	0x3d59dbf0	0.053188264
156	0x3d5741c0	0.05255294
157	0xbc945150	-0.01810518
158	0xbd9a1b50	-0.07524741
159	0x3e88e125	0.26734272
160	0x3e61bd32	0.22044829
161	0x3e09f372	0.13471773
162	0xbe89074c	-0.2676338
163	0x3d7b9a40	0.0614264
164	0x3e799356	0.2437261
165	0xbe771211	-0.24127986
166	0xbe116fae	-0.14202759
167	0x3e9441e1	0.28956512
168	0x3e53362e	0.20626137
169	0xbdfb1628	-0.12260085
170	0xbe152b4a	-0.14567295
171	0xbcc5ddf0	-0.02415368
172	0x3e943c15	0.2895209
173	0xbdf519e2	-0.119678274
174	0x3d1d9ab8	0.03847763
175	0x3d3b13a0	0.045673013
176	0xbe3d1ea8	-0.18468726
177	0xbdb8591e	-0.09001373
178	0x3e4bbade	0.19895503
179	0xbe4908e9	-0.19632305
180	0x3e6c8fda	0.2310175
181	0x3dee16cc	0.11625442
182	0x3e12082c	0.1426093
183	0x3db6baf0	0.08922374
184	0xbe8e8455	-0.27835336
185	0xbe9b98e2	-0.30390078
186	0xbe381c74	-0.17979604
187	0x3e092f96	0.13397059
188	0xbe997120	-0.2996912
189	0xbd568e30	-0.052381694
190	0x3e8ebf0b	0.2788013
191	0xbc8a3c50	-0.016874462
192	0xbe29e25e	-0.16590258
193	0x3e8d3f8b	0.27587542
194	0xbe99729b	-0.2997025
195	0xbe95527d	-0.29164496
196	0x3e905cd1	0.28195813
197	0xbe094f05	-0.1340905
198	0xbc883940	-0.016628861
199	0x3da84fcc	0.08218345
200	0xbde144d6	-0.109994575
201	0xbe0cf295	-0.13764413
202	0xbe511ffe	-0.2042236
203	0x3e90e895	0.28302446
204	0x3e96afed	0.29431096
205	0xbe9c97f9	-0.30584696
206	0x3e94ac57	0.29037735
207	0x3e8a6c8b	0.27035937
208	0x3e34e2f2	0.17664698
209	0xbe96a271	-0.29420808
210	0xbe2abb79	-0.16673078
211	0x3e9b04ef	0.30277202
212	0xbe8fdb26	-0.28096884
213	0x3b945580	0.004526794
214	0x3df6208c	0.120179266
215	0xbcc17510	-0.02361539
216	0xbe1fe6f5	-0.15615447
217	0xbe513c49	-0.20433153
218	0xbd8dd8b2	-0.06926097
219	0xbe6e627a	-0.23279753
220	0x3e631332	0.22175291
221	0xbe6ac256	-0.22925696
222	0x3d916470	0.07099235
223	0x3e9a77cf	0.30169532
224	0xbe9205c6	-0.2852003
225	0xbc614360	-0.013748974
226	0xbe4d4024	-0.20043999
227	0x3d6d37d8	0.057914585
228	0x3e51662a	0.20449129
229	0xbe8fab7b	-0.28060517
230	0xbdeaf450	-0.1147238
231	0xbe5f6602	-0.21816257
232	0x3d2896a8	0.041159302
233	0x3d8437dc	0.06455967
234	0xbe404dd2	-0.18779686
235	0x3e5ea0ca	0.21741024
236	0xbe0e7516	-0.13911852
237	0xbe63fbc2	-0.22264007
238	0xbdbea560	-0.093088865
239	0x3e078248	0.13233292
240	0xbe7ff041	-0.24993993
241	0x3c0063c0	0.007836282
242	0x3e942f71	0.28942445
243	0x3e695822	0.22787526
244	0xbe697f8a	-0.22802559
245	0xbd323778	-0.04350993
246	0xbe5d7556	-0.21626791
247	0xbdfca14a	-0.12335451
248	0xbe103219	-0.1408161
249	0xbe9bac37	-0.30404827
250	0xbd2219a8	-0.03957525
251	0xbddab932	-0.106798545
252	0xbd9445a8	-0.072398484
253	0x3ddbd8c4	0.10734704
254	0x3e28b73a	0.16476145
255	0x3d2b4260	0.041811347

tokenTuringMachineUnit.transformerBlock.self_attn.in_proj_bias f4 [48]
0	0x00000000	0.0
1	0x00000000	0.0
2	0x00000000	0.0
3	0x00000000	0.0
4	0x00000000	0.0
5	0x00000000	0.0
6	0x00000000	0.0
7	0x00000000	0.0
8	0x00000000	0.0
9	0x00000000	0.0
10	0x00000000	0.0
11	0x00000000	0.0
12	0x00000000	0.0
13	0x00000000	0.0
14	0x00000000	0.0
15	0x00000000	0.0
16	0x00000000	0.0
17	0x00000000	0.0
18	0x00000000	0.0
19	0x00000000	0.0
20	0x00000000	0.0
21	0x00000000	0.0
22	0x00000000	0.0
23	0x00000000	0.0
24	0x00000000	0.0
25	0x00000000	0.0
26	0x00000000	0.0
27	0x00000000	0.0
28	0x00000000	0.0
29	0x00000000	0.0
30	0x00000000	0.0
31	0x00000000	0.0
32	0x00000000	0.0
33	0x00000000	0.0
34	0x00000000	0.0
35	0x00000000	0.0
36	0x00000000	0.0
37	0x00000000	0.0
38	0x00000000	0.0
39	0x00000000	0.0
40	0x00000000	0.0
41	0x00000000	0.0
42	0x00000000	0.0
43	0x00000000	0.0
44	0x00000000	0.0
45	0x00000000	0.0
46	0x00000000	0.0
47	0x00000000	0.0
