check_point/lapalce_noise_ttm_epoch_1.pth (torch, 973453 bytes, 72 tensors)

tokenTuringMachineUnit.tokenLearner1.norm.weight f4 [16]
1.0014864 0.9845822 1.0083427 0.98807836 0.9921749 0.99567187 0.98559064 0.9866596
1.003696 0.99553436 1.006518 1.00332 1.0033182 0.9857353 0.996842 0.99473244
00000000: b530 803f 940d 7c3f 6011 813f b4f2 7c3f
00000010: 2dff 7d3f 5ae4 7e3f ab4f 7c3f b995 7c3f
00000020: 1c79 803f 57db 7e3f 95d5 803f ca6c 803f
00000030: bb6c 803f 2659 7c3f 0a31 7f3f c9a6 7e3f

tokenTuringMachineUnit.tokenLearner1.norm.bias f4 [16]
1.6534306e-05 -9.373026e-07 -6.9634043e-06 1.5407102e-05 -1.527276e-05 1.9094807e-06 1.2315192e-05 -1.0971127e-05
2.7981393e-06 -3.370127e-06 -3.354188e-07 -9.593857e-06 4.4465654e-07 3.6841416e-06 3.9037654e-06 3.9346605e-06
00000000: 27b3 8a37 f29a 7bb5 30a7 e9b6 803e 8137
00000010: 011e 80b7 a124 0036 599d 4e37 a210 38b7
00000020: abc7 3b36 572a 62b6 9c13 b4b4 4df5 20b7
00000030: 21b9 ee34 123d 7736 17fd 8236 7a06 8436

tokenTuringMachineUnit.tokenLearner1.attention_maps.0.weight f4 [16, 16, 1]
0.23797609 0.14255968 -0.2087821 0.24648705 -0.16254133 -0.13014331 0.019142875 -0.105986044
0.21247555 -0.12551577 -0.0034109785 0.2473692 -0.08886768 0.079659835 -0.090679705 -0.032345746
0.043622192 0.088643745 -0.21533328 0.15308632 -0.17693202 -0.018998407 -0.1557212 0.18599758
-0.25668868 0.19519988 0.2016473 -0.049219098 0.24000111 0.19962296 0.07258183 0.16979206
-0.13803537 -0.1887612 0.008381684 -0.13374251 0.14475492 -0.22641575 -0.15797482 -0.14964797
0.05937074 -0.1103959 0.22418897 -0.14382662 -0.003189621 -0.19964361 0.1751916 -0.1817776
0.109553106 -0.047293995 -0.14729924 -0.07763847 -0.0016390587 0.1949653 -0.07396219 -0.25348467
-0.03708321 -0.1070653 0.22251198 0.04483104 -0.21418822 0.17860334 0.01481201 0.11950114
-0.077222124 -0.037104998 -0.19937982 -0.12722541 -0.03236784 0.051300313 -0.11031989 0.09209664
-0.12242142 0.2174671 -0.111470126 -0.17126487 -0.108609505 -0.04451556 -0.14544736 0.17463738
-0.04776654 -0.0046290867 0.17060333 -0.20843142 0.18199833 -0.088196054 -0.21981198 0.05174618
0.019641401 -0.21194339 0.04245621 0.21635506 0.15063098 -0.051697224 -0.13201295 -0.09274509
-0.2443798 0.074440755 0.09932436 -0.06247871 0.08168706 -0.02148404 -0.136881 -0.06128919
-0.23413417 0.24154119 0.139557 -0.09909295 -0.09980243 0.16056629 0.20600854 0.22713917
0.1831508 0.014254472 0.061256792 -0.1981885 -0.056402646 0.12551428 -0.08383079 -0.057176407
-0.050607115 -0.104861304 0.20471884 -0.077263206 0.25166968 0.036678404 0.124456614 -0.14536089
0.114365384 -0.20723212 0.2329043 -0.075191 -0.1286966 0.23842594 -0.017320976 -0.07994499
-0.12108904 0.13175558 0.06060572 0.23021704 0.23151834 0.09086395 -0.13372652 0.20283408
0.11569947 -0.066807985 -0.23636948 -0.17565705 -0.1413908 0.24143943 -0.05356476 0.13622808
-0.12040386 0.061157778 -0.1264698 -0.12571219 0.10050202 0.039877433 -0.019569157 0.1863558
0.015278822 0.22142917 -0.017839465 -0.23515987 -0.23057987 0.20725232 0.031408697 -0.041291963
-0.06377437 0.15849417 0.16823578 0.093396604 0.09244527 -0.12925148 -0.11904504 -0.10934808
0.069058985 0.1835258 0.13381703 0.12242771 0.24489857 0.024867883 -0.24325508 0.15958421
0.23139483 0.18062314 -0.12433407 0.024920305 -0.13986978 -0.045709826 -0.1532758 -0.13430963
-0.119391225 0.16060777 -0.23141465 0.20887159 0.01918743 0.030875433 0.18268055 -0.09106647
0.2439206 0.00550941 -0.021662444 4.8793376e-05 -0.065297805 -0.10570085 -0.1964608 -0.041848112
-0.01739041 -0.1225636 0.23677391 0.1746312 -0.10202816 0.10256675 -0.16752747 -0.20584068
0.06635777 0.052320115 -0.047753252 -0.18185697 -0.22332102 0.19911216 0.04670854 -0.12332
0.20350717 -0.10987386 -0.045571946 0.21500266 -0.16440928 -0.15175788 0.067394994 -0.096623205
-0.08935946 0.22843842 -0.23431742 -0.1268943 0.08871412 0.08753427 -0.25322893 0.13116612
-0.24070808 0.028871082 0.0018267297 0.0067736637 0.077519566 -0.022361666 -0.113888115 0.18187316
0.022189263 0.21651128 -0.1601186 -0.030278929 -0.19285448 -0.13310657 0.13106953 -0.16845626
00000000: 01b0 733e 2afb 113e faca 55be 1a67 7c3e
00000010: 3c71 26be 4a44 05be 85d1 9c3c 360f d9bd
00000020: 3193 593e 3587 00be b98a 5fbb 5a4e 7d3e
00000030: 4200 b6bd b224 a33d 48b6 b9bd f97c 04bd
00000040: 2fad 323d da8a b53d 5480 5cbe a9c2 1c3e
00000050: ab2d 35be 8ca2 9bbc 6175 1fbe 2676 3e3e
00000060: b36c 83be 7ae2 473e a17c 4e3e f799 49bd
00000070: dac2 753e f669 4c3e c8a5 943d f8dd 2d3e
00000080: 2559 0dbe 9e4a 41be 5553 093c ccf3 08be
00000090: a23a 143e 88d9 67be 27c4 21be 513d 19be
000000a0: bc2e 733d 3f17 e2bd cb91 653e 4947 13be
000000b0: f608 51bb 606f 4cbe 6d65 333e e823 3abe
000000c0: 615d e03d 59b7 41bd 9dd5 16be eb00 9fbd
000000d0: afd5 d6ba fca4 473e 7d79 97bd bec8 81be
000000e0: 90e4 17bd 0d45 dbbd 2eda 633e c1a0 373d
000000f0: 2854 5bbe cbe3 363e 13ae 723c 04bd f43d
00000100: a226 9ebd 69fb 17bd 392a 4cbe 6147 02be
00000110: 2494 04bd 4720 523d 65ef e1bd 2a9d bc3d
00000120: 15b8 fabd b2af 5e3e 734a e4bd 0f60 2fbe
00000130: a96e debd f355 36bd 27f0 14be 24d4 323e
00000140: d9a6 43bd 98af 97bb a4b2 2e3e 0c6f 55be
00000150: c55d 3a3e 22a0 b4bd 6416 61be cdf3 533d
00000160: 01e7 a03c b007 59be 90e6 2d3d 2e8c 5d3e
00000170: 023f 1a3e 78c0 53bd 672e 07be 23f1 bdbd
00000180: b33e 7abe 6574 983d 926a cb3d ade9 7fbd
00000190: 8c4b a73d 4cff afbc 882a 0cbe 600a 7bbd
000001a0: dec0 6fbe 9356 773e 08e8 0e3e 3ff1 cabd
000001b0: 3765 ccbd 7d6b 243e e7f3 523e 2c97 683e
000001c0: e28b 3b3e 978b 693c 67e8 7a3d edf1 4abe
000001d0: 7606 67bd d186 003e 7aaf abbd cf31 6abd
000001e0: 6849 4fbd 86c1 d6bd d1a1 513e 2c3c 9ebd
000001f0: d9da 803e 183c 163d 1ce3 fe3d 7cd9 14be
00000200: 6638 ea3d a834 54be 777e 6e3e bdfd 99bd
00000210: 0bc9 03be ee25 743e b8e4 8dbc 33ba a3bd
00000220: 88fd f7bd efea 063e b43d 783d 04be 6b3e
00000230: 2513 6d3e e116 ba3d 9bef 08be bdb3 4f3e
00000240: d8f3 ec3d a0d2 88bd d70a 72be 71df 33be
00000250: c0c8 10be e63b 773e b966 5bbd 607f 0b3e
00000260: 4d96 f6bd 9480 7a3d 4d81 01be b2ba 00be
00000270: 01d4 cd3d 8556 233d 7f4f a0bc 0ed4 3e3e
00000280: 0654 7a3c 54be 623e 1224 92bc c0cd 70be
00000290: 211d 6cbe f439 543e 68a6 003d c321 29bd
000002a0: 239c 82bd 4c4c 223e 0046 2c3e b846 bf3d
000002b0: f253 bd3d 805a 04be e3cd f3bd e3f1 dfbd
000002c0: cc6e 8d3d 30ee 3b3e 5507 093e 61bb fa3d
000002d0: b1c6 7a3e bbb7 cb3c dc17 79be 0b6a 233e
000002e0: c4f2 6c3e 46f5 383e dca2 febd ab25 cc3c
000002f0: 063a 0fbe 3a3a 3bbd 55f4 1cbe 7788 09be
00000300: 6383 f4bd 5d76 243e f6f7 6cbe 6fe2 553e
00000310: f52e 9d3c 7aee fc3c 9c10 3b3e 0f81 babd
00000320: 52c6 793e 4888 b43b 7075 b1bc 7da7 4c38
00000330: dbba 85bd b079 d8bd 052d 49be ed68 2bbd
00000340: 5576 8ebc a002 fbbd dc74 723e 85d2 323e
00000350: 24f4 d0bd 840e d23d 528c 2bbe e6c7 52be
00000360: 95e6 873d 9e4d 563d ea98 43bd b738 3abe
00000370: 44ae 64be 0fe4 4b3e 7451 3f3d 328f fcbd
00000380: 2f64 503e 8c05 e1bd a6a9 3abd a829 5c3e
00000390: e85a 28be 6b66 1bbe 6306 8a3d 63e2 c5bd
000003a0: 1802 b7bd c3eb 693e e8f0 6fbe 94f0 01be
000003b0: c0af b53d 2b45 b33d 39a7 81be 6950 063e
000003c0: 2e7c 76be 0c83 ec3c e16e ef3a 9cf5 dd3b
000003d0: 94c2 9e3d d02f b7bc 2c3e e9bd f53c 3a3e
000003e0: 42c6 b53c 22b5 5d3e 21f6 23be 840b f8bc
000003f0: a57b 45be 174d 08be 1737 063e cc7f 2cbe

tokenTuringMachineUnit.tokenLearner1.attention_maps.1.weight f4 [8, 16, 1]
0.22233279 0.14076178 0.007247067 -0.1992996 0.09214342 0.22060235 -0.07397194 0.18563505
-0.23196179 -0.06941985 0.20157681 -0.03878751 0.05387326 0.12092955 0.11653083 -0.050155483
-0.16583383 0.0971552 -0.23411871 0.027729016 0.18808489 0.18306619 -0.033099715 0.05348802
-0.14702657 -0.18366952 0.07918124 -0.24469115 -0.08394636 -0.22417365 -0.19859952 -0.019270934
0.081155874 0.0101372935 0.05905987 -0.18793204 0.14192759 -0.15644087 0.15599851 0.048287045
-0.2268558 0.0025270474 0.23503043 0.0612423 -0.18139336 0.16190432 -0.12602143 0.05230733
0.23909736 0.0009852757 -0.14480348 0.2460236 -0.026484972 0.23875296 0.030180138 0.09349031
-0.07042045 -0.08360269 -0.091172755 0.16319959 -0.036959276 -0.10645287 0.06958662 0.1682228
0.21049641 0.042592946 -0.099026516 -0.04101187 -0.027644541 -0.09301792 -0.10747305 0.052417878
0.06603549 0.21285671 0.16945416 -0.082587264 0.01052638 -0.22769497 0.05152261 -0.114346035
-0.132233 0.07122681 0.169758 -0.16516724 0.18329732 -0.10155819 0.20847455 0.05306206
-0.023039345 -0.078968406 0.17186086 0.058741357 0.17817801 0.043188058 0.09323007 -0.23129979
0.22219393 0.16234311 0.074896805 0.19489954 0.06606087 -0.09037144 0.095862724 0.24610071
0.1573357 -0.0028979087 0.15294534 0.12141717 -0.22774123 -0.1669345 -0.24397707 0.16646367
0.15884586 -0.0114329 0.15689786 0.17193645 -0.21053052 -0.03983916 0.17117918 -0.1412358
-0.17414987 0.23154409 -0.18238065 -0.12637602 -0.059057932 -0.03837331 -0.050256286 0.061924484
00000000: 35ab 633e db23 103e ce78 ed3b 3215 4cbe
00000010: b0b5 bc3d 95e5 613e 9a7e 97bd 1d17 3e3e
00000020: 6487 6dbe ff2b 8ebd 276a 4e3e a7df 1ebd
00000030: 35aa 5c3d e9a9 f73d b7a7 ee3d d66f 4dbd
00000040: 58d0 29be 4ef9 c63d d1bc 6fbe f627 e33c
00000050: 5399 403e b475 3b3e 9193 07bd 4116 5b3d
00000060: 228e 16be dd13 3cbe c629 a23d 5190 7abe
00000070: 12ec abbd c78d 65be ac5d 4bbe 14de 9dbc
00000080: 0d35 a63d e416 263c c3e8 713d 4271 40be
00000090: 7755 113e 0932 20be 13be 1f3e a3c8 453d
000000a0: e34c 68be d29c 253b d1ab 703e 35d9 7a3d
000000b0: 2ebf 39be 3fca 253e c30b 01be 3640 563d
000000c0: f0d5 743e 5e24 813a 5d47 14be 9ced 7b3e
000000d0: 03f7 d8bc a87b 743e 563c f73c d977 bf3d
000000e0: 9938 90bd e337 abbd c8b8 babd cb1d 273e
000000f0: 9c62 17bd f603 dabd 6e83 8e3d 9942 2c3e
00000100: 5f8c 573e f175 2e3d 6ace cabd 10fc 27bd
00000110: ce76 e2bc 2e80 bebd d51a dcbd 21b4 563d
00000120: 9d3d 873d 1cf7 593e 6485 2d3e 8323 a9bd
00000130: d676 2c3c df28 69be 5f09 533d 412e eabd
00000140: 1668 07be 5ddf 913d 0bd5 2d3e 9a21 29be
00000150: 4bb2 3b3e befd cfbd 5a7a 553e 9a57 593d
00000160: 02bd bcbc 30ba a1bd 4bfc 2f3e c79a 703d
00000170: 4c74 363e f6e5 303d 68ef be3d dad9 6cbe
00000180: ce86 633e 463d 263e 7f63 993d bf93 473e
00000190: ec4a 873d a914 b9bd ad53 c43d d301 7c3e
000001a0: 9c1c 213e d7ea 3dbb b49d 1c3e 91a9 f83d
000001b0: ff34 69be e1f0 2abe 20d5 79be 7475 2a3e
000001c0: 7da8 223e 0f51 3bbc d5a9 203e 1c10 303e
000001d0: 5095 57be 632e 23bd 9849 2f3e 1ea0 10be
000001e0: 5854 32be e519 6d3e fec1 3abe b768 01be
000001f0: bbe6 71bd 552d 1dbd 89d9 4dbd 87a4 7d3d

tokenTuringMachineUnit.tokenLearner1.feat_conv.weight f4 [16, 16, 1]
-0.0040716524 0.07639827 0.08418831 0.23740268 -0.06411611 0.015180606 -0.2027005 -0.18590827
-0.05321028 0.06944473 -0.057759486 -0.07181744 0.054995682 0.110219985 0.08435648 -0.120799735
-0.123736806 -0.1472011 0.1941243 0.13602448 -0.20861042 -0.099917 -0.0019243878 0.206966
-0.23633505 0.07225615 0.11645485 0.04571736 0.17630126 -0.12037255 0.23419909 0.052574836
0.16206896 -0.13426337 -0.084247954 -0.14602403 -0.24305996 -0.1816018 0.005392812 0.1076507
-0.18138663 -0.17562592 -0.1701687 0.102515444 0.17827584 -0.1213548 -0.013459457 -0.20901299
-0.11639995 0.13899511 -0.05277467 0.116941966 0.14755583 -0.066814296 -0.22238146 0.2140367
0.23436709 -0.008285351 -0.073057964 -0.18012442 -0.067030154 -0.035538543 0.16746719 -0.18509407
-0.10532056 -0.05095605 0.22612813 -0.1802721 0.21045217 -0.037861675 0.038813002 -0.13577542
0.087949544 -0.051276345 -0.16034934 -0.093650736 0.21431775 0.17778756 0.20329969 0.12814353
-0.024619462 0.20075978 -0.17352888 0.22653346 -0.23070037 -0.227065 0.05293745 0.18822454
-0.23642206 0.13498142 0.065801635 0.043812454 0.013582832 -0.06347031 0.1791969 0.13269229
-0.25012013 -0.17011051 0.2328641 -0.10685182 -0.2030785 -0.0031271153 0.040111523 0.16822414
-0.24684915 -0.052106254 0.06655011 -0.06570918 -0.0898136 -0.054580566 -0.1552075 0.14711149
0.06666547 0.15088001 -0.0032107495 -0.24167809 0.1329051 0.211339 -0.20223777 0.23954517
-0.21287394 0.049414612 0.064411804 -0.17551453 -0.17895769 -0.05523941 0.23735149 -0.115442745
-0.023473673 -0.04484318 0.0092696855 -0.18201005 -0.089909494 -0.020729564 -0.17493406 0.26048735
-0.12337024 -0.1649986 0.045290936 0.121781535 -0.19093908 -0.15057535 0.06595086 -0.118185095
0.02117604 0.19508363 0.12074568 -0.16775371 0.06938696 -0.054041974 -0.017708112 -0.13483456
-0.003764168 0.016455822 0.17961662 0.021151138 -0.06244048 0.13486882 0.109093755 0.13594325
-0.014465535 0.016981587 -0.10166802 -0.22347613 0.10196567 -0.0067978227 -0.10244736 0.17614219
-0.058419187 -0.126801 -0.15879421 -0.08731503 0.21361393 0.23351373 -0.13975696 0.25487998
-0.09560981 -0.2217934 -0.12133844 0.069196515 -0.12821189 0.0650821 0.16390236 0.18019089
0.04932086 0.07486877 -0.18389374 -0.22930051 0.090697 -0.20698744 -0.025226582 0.09861515
0.12978806 -0.074369654 0.1636873 0.06788977 0.15847933 -0.091731064 0.12642643 -0.110931545
0.10507879 0.0004818716 0.048736017 0.052130293 0.1594169 -0.21679643 -0.1419192 -0.16863933
-0.16672328 -0.23706925 -0.038542096 -0.16029012 -0.097706474 -0.069026716 0.10988878 -0.17698355
-0.18173154 -0.08374723 -0.24161476 -0.04011414 -0.23058483 0.0818867 0.005122042 -0.112188004
-0.2390548 -0.08441305 0.22808625 -0.046134066 0.14458682 -0.047736578 0.20727082 0.023650324
-0.059613135 0.23671715 -0.19703339 -0.15451725 0.012703681 -0.054661676 -0.20249373 0.17550167
-0.08272934 -0.0059027746 -0.23282328 0.1595681 -0.18287529 0.16397297 0.11613338 0.12417394
-0.23420206 0.055053387 -0.015412302 0.08746237 0.22475153 -0.21298082 0.004363679 -0.18025796
00000000: 7f6b 85bb b276 9c3d ec6a ac3d b019 733e
00000010: 4f4f 83bd 14b8 783c b890 4fbe bd5e 3ebe
00000020: 06f3 59bd 0a39 8e3d 3695 6cbd 0615 93bd
00000030: 2743 613d 04bb e13d 17c3 ac3d da65 f7bd
00000040: b969 fdbd e3bb 16be 85c8 463e 004a 0b3e
00000050: f89d 55be 49a1 ccbd bd3b fcba e5ee 533e
00000060: d101 72be 08fb 933d e17f ee3d 2042 3b3d
00000070: 5188 343e e285 f6bd e3d1 6f3e b658 573d
00000080: 68f5 253e 567c 09be 318a acbd 5387 15be
00000090: b6e4 78be d2f5 39be 30b6 b03b f877 dc3d
000000a0: 6bbd 39be 48d7 33be b440 2ebe 9ef3 d13d
000000b0: f18d 363e de88 f8bd 0e85 5cbc 8007 56be
000000c0: 1963 eebd bc54 0e3e 412a 58bd 457f ef3d
000000d0: e018 173e efd5 88bd f7b7 63be 702c 5b3e
000000e0: edfd 6f3e 48bf 07bc 6a9f 95bd 8972 38be
000000f0: 1b47 89bd dd90 11bd 857c 2b3e 4d89 3dbe
00000100: 4eb2 d7bd 4bb7 50bd 228e 673e 4099 38be
00000110: c680 573e d814 1bbd 62fa 1e3d b608 0bbe
00000120: e41e b43d 2507 52bd 9e32 24be f5cb bfbd
00000130: 1d76 5b3e f10d 363e cb2d 503e 0f38 033e
00000140: c1ae c9bc f993 4d3e 8eb1 31be 63f8 673e
00000150: b83c 6cbe ba83 68be f1d4 583d efbd 403e
00000160: a018 72be 9238 0a3e 02c3 863d b074 333d
00000170: 878a 5e3c b9fc 81bd 647f 373e 7de0 073e
00000180: bf0f 80be 7331 2ebe ed73 6e3e 21d5 dabd
00000190: cff3 4fbe 4af0 4cbb fb4b 243d f342 2c3e
000001a0: 06c6 7cbe 5e6d 55bd 6d4b 883d 8992 86bd
000001b0: 31f0 b7bd df8f 5fbd b7ee 1ebe 65a4 163e
000001c0: e887 883d 4a80 1a3e 706b 52bb 767a 77be
000001d0: 4618 083e 4069 583e 6b17 4fbe 544b 753e
000001e0: a0fb 59be fa66 4a3d 56ea 833d 15ba 33be
000001f0: af40 37be b842 62bd 450c 733e 3f6d ecbd
00000200: dc4b c0bc 7bad 37bd e1df 173c d860 3abe
00000210: 7822 b8bd 0cd1 a9bc ea21 33be 995e 853e
00000220: 89a9 fcbd 65f5 28be fd82 393d 9968 f93d
00000230: 8985 43be 6d30 1abe 3f11 873d 070b f2bd
00000240: 6079 ad3c 01c4 473e 8349 f73d a1c7 2bbe
00000250: c01a 8e3d 1e5b 5dbd 9a10 91bc 1212 0abe
00000260: 42b0 76bb 5cce 863c 6bed 373e 2745 ad3c
00000270: 97c1 7fbd 0d1b 0a3e 8c6c df3d b534 0b3e
00000280: da00 6dbc f81c 8b3c 5337 d0bd edd6 64be
00000290: 61d3 d03d 45c0 debb eccf d1bd 9e5e 343e
000002a0: f548 6fbd 1fd8 01be f39a 22be 39d2 b2bd
000002b0: 9cbd 5a3e 391e 6f3e 731c 0fbe a17f 823e
000002c0: 13cf c3bd cf1d 63be 4a80 f8bd e7b6 8d3d
000002d0: fa49 03be c449 853d 05d6 273e f683 383e
000002e0: ac04 4a3d cc54 993d a44e 3cbe c1cd 6abe
000002f0: 59bf b93d 84f4 53be faa7 cebc bdf6 c93d
00000300: 29e7 043e 1e4f 98bd a59d 273e cb09 8b3d
00000310: 6848 223e 7fdd bbbd ee75 013e 1430 e3bd
00000320: 8c33 d73d b6a3 fc39 6b9f 473d 9386 553d
00000330: 2f3e 233e e2ff 5dbe 4453 11be caaf 2cbe
00000340: 82b9 2abe 48c2 72be 51de 1dbd 1823 24be
00000350: 551a c8bd e15d 8dbd 5e0d e13d 2d3b 35be
00000360: d517 3abe ab83 abbd dc69 77be b94e 24bd
00000370: 6e1e 6cbe 37b4 a73d cdd6 a73b d3c2 e5bd
00000380: c8ca 74be c0e0 acbd 718f 693e 13f7 3cbd
00000390: 910e 143e 6e87 43bd cd3e 543e 53be c13c
000003a0: e72c 74bd fb65 723e 1fc3 49be c539 1ebe
000003b0: 1a23 503c ece4 5fbd 845a 4fbe b6b6 333e
000003c0: 006e a9bd 106c c1bb 3a69 6ebe d265 233e
000003d0: a943 3bbe 88e8 273e 56d7 ed3d e84e fe3d
000003e0: aad2 6fbe a97f 613d e183 7cbc 791f b33d
000003f0: 4425 663e a517 5abe 31fd 8e3b 8b95 38be

tokenTuringMachineUnit.tokenLearner2.norm.weight f4 [16]
0.9833779 0.9871608 0.9825166 0.9842148 0.98241067 0.98313206 0.98236495 0.9822573
0.9826214 0.9842161 0.9853509 0.98352474 0.98392904 0.98207486 0.9846058 0.98987424
00000000: a7be 7b3f 92b6 7c3f 3586 7b3f 80f5 7b3f
00000010: 447f 7b3f 8bae 7b3f 457c 7b3f 3775 7b3f
00000020: 138d 7b3f 96f5 7b3f f53f 7c3f 47c8 7b3f
00000030: c6e2 7b3f 4269 7b3f 200f 7c3f 6668 7d3f

tokenTuringMachineUnit.tokenLearner2.norm.bias f4 [16]
3.9323058e-07 -3.6812971e-06 -1.2067995e-06 1.038724e-06 -1.3139462e-06 1.5297837e-06 -1.9092695e-06 6.870657e-08
-1.2447882e-06 7.0098e-07 -2.2834195e-06 -1.7873134e-06 -1.8756856e-07 -1.1332285e-06 -6.710178e-07 1.460872e-07
00000000: 331d d334 340c 77b6 51f9 a1b5 496a 8b35
00000010: d95a b0b5 f852 cd35 0021 00b6 d68b 9333
00000020: 9912 a7b5 fb2a 3c35 d93c 19b6 9fe3 efb5
00000030: 7466 49b4 6f19 98b5 fe1f 34b5 25dc 1c34

tokenTuringMachineUnit.tokenLearner2.attention_maps.0.weight f4 [16, 16, 1]
0.14652477 0.10963339 0.12485234 0.23464985 -0.118014984 -0.21134658 0.06992046 0.03702858
0.03661301 -0.1733307 -0.022401271 0.004568718 -0.09125522 -0.17033586 -0.16592315 -0.22435193
-0.15958834 0.079292804 -0.011615062 0.08385197 0.1522613 -0.2094942 0.19084544 -0.041905798
-0.05533172 0.12447351 -0.17921136 -0.019034715 -0.07481749 -0.104336105 -0.09467276 0.14917424
0.23689455 0.22055076 -0.08440326 -0.06435677 -0.13643299 -0.233305 0.015498638 -0.06485191
-0.22633128 0.15423104 0.13755865 -0.1500106 0.05752836 0.09367901 0.24553709 -0.17402513
-0.08773142 0.10596511 0.1911759 -0.13169669 0.22689787 0.2199644 -0.047756787 -0.12863123
-0.0084755495 -0.010860614 -0.020742979 -0.18597896 0.11648248 -0.08807032 -0.13410878 0.23074393
-0.013670096 0.038196217 -0.10588556 -0.09262798 -0.23936239 0.08581523 0.017317537 -0.20171595
0.05769655 0.24114689 0.16958539 0.21999116 -0.2003694 -0.11792903 -0.20414533 0.05405855
-0.11929245 -0.24082297 0.050824903 0.1624419 -0.08209876 0.011071238 0.03784972 0.11237813
0.17701592 0.011536016 -0.1311732 -0.21389638 -0.10482389 0.060043234 -0.029758206 0.23857884
0.0537054 -0.14809513 -0.21484442 -0.16554032 -0.051402584 0.051108338 0.20289823 -0.14188367
-0.0782342 0.13748325 -0.018757468 -0.05955646 -0.07996179 -0.15897158 0.16292298 0.16912644
0.08037301 -0.02879282 0.20906496 -0.08310562 -0.19508214 -0.024545196 0.07709545 -0.021938665
0.06394826 0.04029741 0.11088332 0.024343982 -0.03497103 0.22701606 0.12793127 0.116376474
-0.1179331 0.22758524 -0.21159409 0.20764938 -0.21122707 0.09513645 -0.072664134 -0.16818932
-0.19521803 -0.2055539 -0.15281962 0.10580085 -0.2096293 0.006611495 0.082465716 -0.10727245
-0.014734222 0.1944542 -0.1676904 0.22141987 0.16081034 0.13629095 0.16677094 -0.13043933
0.030318221 0.04307623 -0.23554218 -0.20871954 0.21385428 0.02886904 -0.06899441 0.16612571
-0.10064818 -0.020105422 0.0882221 0.2038508 0.13156928 0.00959434 0.09003158 0.13059585
-0.14606863 -0.12372824 -0.17453045 0.10901149 -0.111373715 -0.19031376 -0.22015266 0.101099245
-0.087624416 0.16145669 0.18018271 -0.22195661 -0.04708691 -0.16648583 -0.14434643 -0.07599791
-0.040991668 -0.07374554 -0.117404826 0.17528403 0.16286501 0.024560694 -0.012296284 0.085387796
-0.06279286 0.11777464 0.20323856 -0.008949633 0.12543339 -0.0055269264 0.16002688 -0.13930248
0.10870242 -0.038075276 0.19351992 0.02137356 -0.23431334 0.14574584 -0.08365737 -0.0057771984
0.22269034 0.14841665 0.16908455 0.06976122 0.18569316 0.073351726 -0.19668567 0.005583223
0.15295169 -0.2347062 -0.10613038 -0.13511443 -0.04293518 0.20496239 0.15661103 0.13692196
-0.062411584 0.13245286 0.031298313 -0.24533512 0.22587278 -0.20054102 0.01961257 -0.21545804
0.18793267 -0.07990796 -0.04519269 0.16011669 -0.20365086 -0.12707642 -0.18176381 -0.034317218
-0.18473841 0.18841532 -0.13943236 0.12600705 0.1518065 0.07040048 -0.056369532 -0.22433813
0.0843572 0.029205298 0.2341603 -0.07128929 -0.092384845 0.24851514 -0.10945488 0.07206186
00000000: 970a 163e 7987 e03d 95b2 ff3d 0d48 703e
00000010: d7b1 f1bd 3d6b 58be 7532 8f3d 48ab 173d
00000020: 86f7 153d 9a7d 31be df82 b7bc 2fb5 953b
00000030: 04e4 babd 866c 2ebe c2e7 29be 83bc 65be
00000040: 206b 23be 4464 a23d 1a4d 3ebc 95ba ab3d
00000050: 63ea 1b3e a685 56be fd6c 433e 6aa5 2bbd
00000060: 83a3 62bd f8eb fe3d 2f83 37be b1ee 9bbc
00000070: ea39 99bd 2bae d5bd cbe3 c1bd 22c1 183e
00000080: 7c94 723e 0fd8 613e 9edb acbd 7bcd 83bd
00000090: 17b5 0bbe 82e7 6ebe 00ee 7d3c 14d1 84bd
000000a0: 63c3 67be beee 1d3e 2ddc 0c3e 619c 19be
000000b0: dca2 6b3d c8da bf3d 136e 7b3e a533 32be
000000c0: 88ac b3bd 3c04 d93d 9dc3 433e 7fdb 06be
000000d0: ea57 683e 593e 613e 9f9c 43bd e8b7 03be
000000e0: 08dd 0abc b7f0 31bc 2eed a9bc 4571 3ebe
000000f0: 5e8e ee3d 365e b4bd d053 09be 2348 6c3e
00000100: 8af8 5fbc a373 1c3d 87da d8bd bdb3 bdbd
00000110: 6a1b 75be e5bf af3d 82dd 8d3c a08e 4ebe
00000120: 3853 6c3d 36ef 763e cba7 2d3e 5d45 613e
00000130: a32d 4dbe c684 f1bd 790b 51be 806c 5d3d
00000140: 9a4f f4bd 4c9a 76be c62d 503d 2b57 263e
00000150: 6523 a8bd 2364 353c 4f08 1b3d 8126 e63d
00000160: a943 353e 8f01 3d3c 4452 06be a707 5bbe
00000170: e8ad d6bd e5ef 753d 7bc7 f3bc 034e 743e
00000180: 32fa 5b3d 40a6 17be 2d00 5cbe 6783 29be
00000190: 848b 52bd fa56 513d 8ec4 4f3e f449 11be
000001a0: 4139 a0bd 69c8 0c3e 43a9 99bc 79f1 73bd
000001b0: 02c3 a3bd 72c9 22be 48d5 263e 7b2f 2d3e
000001c0: 9b9a a43d ecde ebbc 2015 563e 4833 aabd
000001d0: 9dc3 47be 0213 c9bc 38e4 9d3d b7b8 b3bc
000001e0: 4ef7 823d e60e 253d cb16 e33d 086d c73c
000001f0: c83d 0fbd e676 683e 6a00 033e ca56 ee3d
00000200: e986 f1bd 1b0c 693e 1fac 58be 0aa2 543e
00000210: e94b 58be e6d6 c23d efd0 94bd d239 2cbe
00000220: 3ce7 47be b97c 52be bf7c 1cbe 1eae d83d
00000230: 10a9 56be 3da5 d83b c9e3 a83d a9b1 dbbd
00000240: ce67 71bc 001f 473e 08b7 2bbe e4bb 623e
00000250: 77ab 243e db8f 0b3e 00c6 2a3e e391 05be
00000260: eb5d f83c b370 303d f831 71be 93ba 55be
00000270: 9efc 5a3e c47e ec3c f14c 8dbd dc1c 2a3e
00000280: a220 cebd 20b4 a4bc caad b43d 44be 503e
00000290: 19ba 063e 9431 1d3c 7a62 b83d ebba 053e
000002a0: 0493 15be 3b65 fdbd 1cb8 32be 6b41 df3d
000002b0: e717 e4bd 9ce1 42be b36f 61be 1f0d cf3d
000002c0: 6e74 b3bd e754 253e d181 383e 9848 63be
000002d0: 34de 40bd 437b 2abe 8dcf 13be cba4 9bbd
000002e0: e1e6 27bd e707 97bd f171 f0bd a87d 333e
000002f0: 16c6 263e 8233 c93c 5a76 49bc ccdf ae3d
00000300: 8b99 80bd d533 f13d c51d 503e 7ba1 12bc
00000310: 9c71 003e 381b b5bb 16de 233e 4fa5 0ebe
00000320: 609f de3d d2f4 1bbd 162a 463e 9b17 af3c
00000330: d6ef 6fbe 663e 153e 8e54 abbd a74e bdbb
00000340: f008 643e 89fa 173e 8024 2d3e f8de 8e3d
00000350: 5926 3e3e 6e39 963d f867 49be 78f3 b63b
00000360: 5e9f 1c3e d256 70be e25a d9bd 705b 0abe
00000370: cddc 2fbd a9e1 513e a45e 203e 4535 0c3e
00000380: 4aa3 7fbd b9a1 073e a932 003d 2139 7bbe
00000390: 324b 673e a05a 4dbe 8aaa a03c 08a1 5cbe
000003a0: 6c71 403e c9a6 a3bd f81b 39bd a1f5 233e
000003b0: da89 50be 5220 02be 4b20 3abe 3690 0cbd
000003c0: 112c 3dbe f2ef 403e 5bc7 0ebe fe07 013e
000003d0: 2a73 1b3e 202e 903d bde3 66bd e5b8 65be
000003e0: 78c3 ac3d f33f ef3c b8c7 6f3e 1f00 92bd
000003f0: 4434 bdbd c17a 7e3e e129 e0bd 2b95 933d

tokenTuringMachineUnit.tokenLearner2.attention_maps.1.weight f4 [128, 16, 1]
-0.18630354 0.058884457 0.13527612 -0.19144712 -0.10816655 -0.07887835 0.09729183 -0.048706643
-0.102620915 0.033241723 -0.17823744 0.16057527 -0.1710159 -0.06620645 0.110565536 0.018658215
-0.21809675 0.0032342058 -0.1051365 0.11364567 -0.044859234 -0.00047999516 -0.027448906 -0.028922688
0.19704638 0.06940317 -0.17878312 -0.13306138 -0.046236347 0.07732094 0.22618285 -0.09848953
-0.12636794 -0.23456371 0.22231327 -0.056117162 -0.20554605 -0.22970344 0.11688427 0.015826479
0.21136147 -0.0036207768 -0.10120619 0.16789186 -0.08185461 -0.020204794 0.04071414 0.029203849
-0.23719893 0.042909324 -0.028225891 0.06832883 0.13537213 -0.14715615 0.047139805 -0.037584025
-0.114630334 -0.17895356 -0.0014797051 0.029066902 -0.054226525 -0.17968227 -0.19474725 -0.00936637
0.22452278 0.024451992 0.23244356 0.038311187 -0.08375889 0.079041004 -0.17211103 -0.031659555
0.22396992 -0.0034999724 0.058301073 0.13247573 -0.027980532 -0.14152391 0.1307516 -0.122491874
-0.10219233 -0.20174214 -0.21391033 0.20265092 0.1683672 -0.028520366 -0.0054479516 0.14068037
-0.21486478 0.16551264 0.085934944 -0.027984584 -0.12192982 0.17938332 -0.07786606 0.23467831
0.11183602 -0.12022156 0.21426906 0.10098715 -0.04721899 0.029967993 -0.030291693 0.17649974
0.0045744474 0.031705398 0.15753867 0.22703865 -0.21265207 0.14003333 0.013457466 -0.106202155
-0.15011357 0.21523912 0.19698371 0.19021611 0.21464117 -0.13725871 -0.18315747 -0.10620524
-0.19598965 -0.13204281 -0.16835107 0.03425718 -0.12226906 0.028230596 0.08627274 -0.149157
0.09947935 0.21601671 0.18301317 -0.15804873 0.2223428 -0.056145757 -0.13168629 0.13313784
-0.20744024 -0.066439085 -0.07725636 -0.14406356 0.04464526 -0.015770104 -0.13860627 0.15728073
-0.13184024 -0.023486901 -0.006902325 -0.16577141 0.13792917 -0.038465336 0.1056649 0.15142529
0.17638002 -0.12709038 0.050284382 0.09423728 0.1491758 0.0063710427 0.14230962 -0.13024105
-0.18343416 -0.04919165 -0.19575961 -0.23180372 0.16270544 -0.064296946 0.11670117 -0.19907378
0.11155828 -0.20961832 -0.12705328 -0.235482 0.046636697 -0.07596746 -0.026250808 0.078910396
-0.18863091 0.01168813 0.20954114 -0.13769485 0.06426505 -0.13623776 -0.21048808 0.0012616063
0.15169325 -0.1602745 0.08316433 -0.06294744 -0.14965549 0.19446795 0.18270268 -0.15342315
0.23339307 -0.17747793 -0.14391796 0.040059347 0.145128 0.11296229 0.18816563 -0.093593925
0.16800565 0.17758928 0.08158164 -0.2078602 0.19411145 -0.051183652 -0.070781596 -0.12606302
-0.23784317 0.089851074 0.010300978 -0.13786095 -0.124821015 0.09984781 -0.16464595 0.08143698
-0.06147882 0.12479581 0.106628604 -0.18798363 -0.1574745 -0.029828493 0.11229372 -0.104029365
0.017675448 0.05732877 -0.1492626 0.20778894 -0.23860438 0.066824384 -0.16563919 0.23174162
0.19460554 -0.1771238 -0.16009915 0.049924295 -0.107071824 0.013301553 0.22617404 -0.046858978
-0.014668565 0.22106299 -0.020004146 -0.2253392 0.2040915 -0.23348875 0.058029786 -0.014967268
-0.2206611 -0.22998574 -0.21502227 0.13053648 0.099652044 0.09910412 0.22341573 0.06780865
00000000: 5bc6 3ebe d430 713d d385 0a3e b70a 44be
00000010: 6d86 ddbd f98a a1bd f040 c73d 9e80 47bd
00000020: ea2a d2bd 7928 083d e083 36be d86d 243e
00000030: cb1e 2fbe 3f97 87bd 2f70 e23d 1dd9 983c
00000040: c154 5fbe f8f4 533b ce51 d7bd 10bf e83d
00000050: 51be 37bd dca7 fbb9 87dc e0bc 46ef ecbc
00000060: 87c6 493e 4023 8e3d ec12 37be 3e41 08be
00000070: 5362 3dbd 715a 9e3d 7a9c 673e e1b4 c9bd
00000080: 9966 01be 7831 70be 17a6 633e 1cdb 65bd
00000090: aa7a 52be 6137 6bbe 0561 ef3d 88a6 813c
000000a0: 246f 583e 8e4a 6dbb 3145 cfbd d8eb 2b3e
000000b0: 64a3 a7bd 8684 a5bc dfc3 263d e93c ef3c
000000c0: 47e4 72be b0c1 2f3d fc39 e7bc fcef 8b3d
000000d0: fe9e 0a3e 1ab0 16be ab15 413d b5f1 19bd
000000e0: 4fc3 eabd 9a3f 37be aaf2 c1ba b61d ee3c
000000f0: a21c 5ebd a1fe 37be d36b 47be 6775 19bc
00000100: 4de9 653e 8b4f c83c af05 6e3e 31ec 1c3d
00000110: c889 abbd 40e0 a13d e03d 30be 73ad 01bd
00000120: 5f58 653e cb5f 65bb 1bcd 6e3d b8a7 073e
00000130: 6e37 e5bc a5eb 10be bfe3 053e 05dd fabd
00000140: 364a d1bd 7e95 4ebe 4f0b 5bbe b983 4f3e
00000150: 7468 2c3e 8ba3 e9bc bb84 b2bb 840e 103e
00000160: 8305 5cbe 257c 293e a9fe af3d ed3f e5bc
00000170: 57b6 f9bd 43b0 373e 3e78 9fbd 834f 703e
00000180: 490a e53d b936 f6bd 5969 5b3e 5ad2 ce3d
00000190: b368 41bd 707f f53c 4926 f8bc 59bc 343e
000001a0: 3fe5 953b 85dd 013d d151 213e d27c 683e
000001b0: 77c1 59be e664 0f3e b47c 5c3c 8480 d9bd
000001c0: 5fb7 19be a567 5c3e 19b6 493e 03c8 423e
000001d0: e5ca 5b3e 8c8d 0cbe a28d 3bbe 2282 d9bd
000001e0: 83b1 48be 3b36 07be 3964 2cbe 4251 0c3d
000001f0: 3368 fabd da43 e73c c3af b03d 9dbc 18be
00000200: d4bb cb3d 7c33 5d3e ce67 3b3e 87d7 21be
00000210: d5ad 633e 18f9 65bd c5d8 06be 4955 083e
00000220: 376b 54be 3711 88bd 9538 9ebd 6685 13be
00000230: f3dd 363d 4e30 81bc cdee 0dbe 330e 213e
00000240: 2101 07be 9a67 c0bc e62c e2bb fbbf 29be
00000250: 4e3d 0d3e d48d 1dbd d766 d83d 3b0f 1b3e
00000260: f79c 343e fb23 02be fff6 4d3d 7aff c03d
00000270: 8ac1 183e 2ec4 d03b 9db9 113e e95d 05be
00000280: 2ad6 3bbe 2f7d 49bd 3575 48be f45d 6dbe
00000290: 419c 263e 1eae 83bd 0601 ef3d ffd9 4bbe
000002a0: ab78 e43d 2fa6 56be 411a 02be 3222 71be
000002b0: 1f06 3f3d d494 9bbd ef0b d7bc c69b a13d
000002c0: 7628 41be 927f 3f3c f491 563e e1ff 0cbe
000002d0: 659d 833d e981 0bbe 308a 57be 7c5c a53a
000002e0: 7a55 1b3e 001f 24be 0f52 aa3d 96ea 80bd
000002f0: 4a3f 19be 9b22 473e 6916 3b3e f51a 1dbe
00000300: 98fe 6e3e c6bc 35be 3b5f 13be 4515 243d
00000310: 6f9c 143e c658 e73d 7eae 403e 2cae bfbd
00000320: ac09 2c3e f7d9 353e 4614 a73d 4ed9 54be
00000330: 27c5 463e f3a5 51bd f1f5 90bd aa16 01be
00000340: 298d 73be d703 b83d 6fc5 283c 6c2b 0dbe
00000350: 29a2 ffbd 027d cc3d f398 28be 6ec8 a63d
00000360: 37d1 7bbd f294 ff3d 1960 da3d c87e 40be
00000370: ff40 21be e25a f4bc 40fa e53d 590d d5bd
00000380: 1acc 903c 93d1 6a3d 4cd8 18be a0c6 543e
00000390: b554 74be 39db 883d 529d 29be ad4d 6d3e
000003a0: ad46 473e f15f 35be 08f1 23be 6b7d 4c3d
000003b0: 7948 dbbd c2ee 593c 2b9a 673e 33ef 3fbd
000003c0: 6c54 70bc 565e 623e bcdf a3bc 52bf 66be
000003d0: 5dfd 503e ad17 6fbe a4b0 6d3d 4639 75bc
000003e0: fcf4 61be 6281 6bbe cc2e 5cbe 5bab 053e
000003f0: 5f16 cc3d 1af7 ca3d 18c7 643e 43df 8a3d

tokenTuringMachineUnit.tokenLearner2.feat_conv.weight f4 [16, 16, 1]
-0.18552026 -0.22430484 0.030960774 -0.03464374 -0.22779116 0.12345534 0.015446884 0.24006763
-0.21207382 -0.054976583 -0.041704886 -0.15580028 -0.011984902 0.21539357 0.0520117 -0.024542585
0.1807294 0.12353203 -0.22246188 0.059614953 0.20579726 0.11863958 0.06061002 0.17268139
-0.08309692 0.106960855 0.05792491 0.015806876 0.004293946 -0.19981387 -0.21668285 0.081559785
0.24339841 0.12818176 -0.052799646 0.21806546 0.16421261 0.15984501 0.21944106 -0.07407674
-0.09784491 -0.18366385 -0.0812705 -0.1343107 0.02031124 -0.21265621 0.028132606 0.22773845
0.1400911 -0.07868616 -0.22048146 0.15229125 0.1892889 -0.17073074 -0.058890156 -0.23022613
0.21149024 -0.07958809 0.062437616 -0.11996337 0.07179934 -0.08285823 0.038382575 0.0893013
0.15610427 -0.077685684 0.077640265 0.17956853 -0.037686825 0.0051946286 0.024758482 0.044710513
0.056313038 0.04870287 0.23749809 -0.1855596 0.14758652 -0.21626773 0.030508922 0.11615503
0.22171056 0.2202622 -0.11498976 -0.076175354 0.2468077 -0.027270349 -0.0921556 0.0052924077
0.19241597 0.20202453 0.2124144 0.23418218 -0.13222656 -0.241111 0.052646734 0.025247049
-0.08247368 0.07530502 0.063022494 -0.12635975 0.21916144 -0.20423114 -0.088756785 -0.18613349
0.20124997 -0.075795926 -0.0820542 -0.12048504 -0.22328809 0.16924354 0.17754349 -0.009081811
0.16200827 0.1933614 0.079455525 -0.1803539 0.1328802 -0.11887781 0.099241495 -0.19581261
0.19888227 -0.14035633 -0.21606943 -0.22004847 0.21744762 0.15904656 -0.109350845 0.1106124
-0.079314075 -0.1395121 -0.17309546 -0.094325125 0.08993538 0.24340975 -0.22369806 -0.029731087
-0.006060901 0.12277119 -0.15344086 -0.048167888 0.03379166 0.053378265 0.16029647 -0.16644707
0.18821055 -0.08287308 -0.12727326 -0.1255192 0.17550454 0.088202015 0.026518162 -0.05396712
-0.06286994 0.19774209 -0.08024626 -0.18167613 -0.016369414 0.10534681 0.2372683 -0.084828116
0.11345722 0.12529433 -0.16184154 0.11998488 -0.25321698 0.15971549 0.1081796 -0.076812394
-0.05990739 -0.13292223 0.22921626 0.05747447 -0.078192286 0.24967043 0.17295389 0.14383703
0.027288882 -0.14184144 0.07102976 0.14162746 0.22354926 -0.21586978 -0.10507117 -0.10322239
0.10109385 -0.22495402 -0.061446402 0.013277264 -0.008334242 -0.07814569 -0.16605279 0.21141554
0.18476179 -0.23918681 -0.05700197 0.03453968 0.19008161 0.12832287 0.15462555 -0.14104915
-0.21896009 0.14244215 -0.23858774 0.09209938 -0.07669996 -0.15917933 -0.12029598 0.24392691
-0.044394985 -0.025688592 0.119570665 -0.12648134 0.1591423 0.066868156 0.075781465 -0.1216974
-0.057481457 -0.1858725 -0.13373353 0.19939555 -0.21928704 0.094724 -0.14912324 0.10298555
0.049490206 -0.04016569 0.12843035 0.05613245 -0.16414216 0.23399262 0.041357975 -0.2137034
-0.20692524 -0.16489604 0.057567704 0.15391117 -0.23001596 -0.12806036 -7.755507e-05 0.16082193
0.23381883 0.059708096 -0.15167724 0.22794119 -0.038836893 -0.12633313 -0.14785242 -0.14931096
0.22967063 -0.17897527 -0.038186405 0.09336818 -0.062122595 -0.034700423 -0.17978837 -0.0826492
00000000: 06f9 3dbe 2bb0 65be 73a1 fd3c 98e6 0dbd
00000010: 1642 69be 27d6 fc3d ed14 7d3c 4ad4 753e
00000020: e129 59be 202f 61bd bed2 2abd 1c8a 1fbe
00000030: 535c 44bc 2290 5c3e 380a 553d 880d c9bc
00000040: 2111 393e 5cfe fc3d 0ccd 63be cf2e 743d
00000050: 84bc 523e 4ff9 f23d 3642 783d 64d3 303e
00000060: b82e aabd 4b0e db3d ac42 6d3d 6c7d 813c
00000070: 3bb4 8c3b 029c 4cbe 1ce2 5dbe d108 a73d
00000080: 6f3d 793e 1442 033e 7144 58bd 8d4c 5f3e
00000090: 5a27 283e 69ae 233e 28b5 603e 8cb5 97bd
000000a0: ea62 c8bd 6012 3cbe 2671 a6bd bf88 09be
000000b0: c263 a63c 8dc2 59be 5a76 e63c 4534 693e
000000c0: 0b74 0f3e 3626 a1bd e4c5 61be 3df2 1b3e
000000d0: f3d4 413e 0ad4 2ebe ce36 71bd 66c0 6bbe
000000e0: e690 583e 15ff a2bd 96be 7f3d 5baf f5bd
000000f0: 880b 933d 93b1 a9bd 0c37 1d3d 9ae3 b63d
00000100: ccd9 1f3e ac19 9fbd dc01 9f3d d0e0 373e
00000110: 805d 1abd b437 aa3b 4dd2 ca3c 5f22 373d
00000120: 80a8 663d a97c 473d b332 733e 5603 3ebe
00000130: ec20 173e 4a75 5dbe d9ed f93c b0e2 ed3d
00000140: 1808 633e 6a8c 613e c07f ebbd d301 9cbd
00000150: 28bb 7c3e 1166 dfbc 13bc bcbd ef6b ad3b
00000160: b108 453e 85df 4e3e 2983 593e 74cd 6f3e
00000170: 6666 07be cde5 76be 1aa4 573d e6d2 ce3c
00000180: f6e7 a8bd 8539 9a3d f011 813d 7364 01be
00000190: db6b 603e f821 51be 1ec6 b5bd c799 3ebe
000001a0: 7914 4e3e e53a 9bbd 080c a8bd dcc0 f6bd
000001b0: a2a5 64be 2e4e 2d3e f6cd 353e e0cb 14bc
000001c0: 7fe5 253e 8800 463e 94b9 a23d b1ae 38be
000001d0: bf11 083e 3676 f3bd 203f cb3d 1a83 48be
000001e0: cba7 4b3e 92b9 0fbe 4e41 5dbe 6354 61be
000001f0: 97aa 5e3e 1add 223e 56f3 dfbd c188 e23d
00000200: 6b6f a2bd 43dc 0ebe f03f 31be 882d c1bd
00000210: 0a30 b83d 6840 793e 1b11 65be 9c8e f3bc
00000220: 869a c6bb 766f fb3d 9a1f 1dbe b14b 45bd
00000230: 2069 0a3d 2ba3 5a3d c224 243e 1a71 2abe
00000240: 44ba 403e 5db9 a9bd ec53 02be 1b88 00be
00000250: 76b7 333e 42a3 b43d 9e3c d93c a00c 5dbd
00000260: f5c1 80bd e77c 4a3e 2758 a4bd 4f09 3abe
00000270: 2619 86bc 11c0 d73d 76f6 723e 5dba adbd
00000280: 425c e83d 284d 003e cab9 25be a2ba f53d
00000290: a8a5 81be 758c 233e 448d dd3d d14f 9dbd
000002a0: 7461 75bd c41c 08be abb7 6a3e 5a6a 6b3d
000002b0: 4723 a0bd 9ba9 7f3e d31a 313e 044a 133e
000002c0: ef8c df3c e23e 11be 0d78 913d ca06 113e
000002d0: 19ea 643e f80c 5dbe 8e2f d7bd 4366 d3bd
000002e0: 4b0a cf3d 595a 66be 39af 7bbd e288 593c
000002f0: 588c 08bc d90a a0bd be09 2abe 517d 583e
00000300: 3232 3d3e 63ed 74be e67a 69bd 7b79 0d3d
00000310: c1a4 423e 1267 033e 2956 1e3e 306f 10be
00000320: 1337 60be 5bdc 113e 5850 74be 9a9e bc3d
00000330: de14 9dbd e8ff 22be bd5d f6bd fac7 793e
00000340: 84d7 35bd e270 d2bc 77e1 f43d 5384 01be
00000350: 33f6 223e 2cf2 883d 5033 9b3d 7d3c f9bd
00000360: ad71 6bbd 5c55 3ebe 71f1 08be 592e 4c3e
00000370: c88c 60be a8fe c13d c3b3 18be 17ea d23d
00000380: 3eb6 4a3d c784 24bd 3f83 033e 24eb 653d
00000390: e214 28be c39b 6f3e fb66 293d 10d5 5abe
000003a0: 36e4 53be 82da 28be 1dcc 6b3d e49a 1d3e
000003b0: 4e89 6bbe 4122 03be 10a5 a2b8 81ae 243e
000003c0: 346e 6f3e 7a90 743d 4751 1bbe 6a69 693e
000003d0: 6f13 1fbd 795d 01be a066 17be f9e4 18be
000003e0: c72e 6b3e 4b45 37be 5969 1cbd d137 bf3d
000003f0: 4374 7ebd 0822 0ebd 711a 38be fc43 a9bd

tokenTuringMachineUnit.transformerBlock.self_attn.in_proj_weight f4 [48, 16]
0.25695112 -0.017782778 -0.23997355 -0.17272769 -0.03351468 -0.18325165 0.27234843 -0.27593443
0.20514116 -0.009038329 0.0183855 0.28373107 0.017128587 -0.20949775 0.29584876 -0.19392547
0.28285852 -0.106833726 -0.2411991 0.15207753 0.1267525 0.13759422 0.15891004 0.1988577
0.033854663 0.2764856 0.06003949 -0.21259822 -0.10436453 0.24803832 0.28146365 0.1503832
-0.24150689 0.16494226 0.19789478 -0.27596653 -0.121933326 0.12631729 0.123686105 -0.18284595
0.19868347 0.122042716 0.04507494 0.14591515 -0.11185415 0.2501932 0.22422692 -0.2933682
-0.22825453 -0.032071143 -0.08198626 -0.063722596 -0.10953149 -0.023644388 -0.28554207 0.23568359
-0.23160371 -0.15273687 -0.051655084 -0.11497843 -0.21100827 0.1309832 0.05737433 -0.29440644
0.16412517 -0.011649936 0.3053725 0.2862464 0.066578716 -0.2839991 -0.24429637 0.2814664
-0.11914468 0.08452982 0.1919651 -0.29478946 -0.17672476 0.0658496 0.1946005 0.26046392
0.2236925 -0.17167798 0.026718944 -0.087743476 0.06653008 -0.16625135 0.2648385 -0.09639013
-0.28926402 -0.29756257 0.21282116 -0.17083286 0.12922671 0.144447 -0.14974685 -0.106929615
-0.05666265 0.15959245 -0.27581814 0.08619061 -0.1638543 -0.18013045 -0.1773441 0.018930972
0.22444734 0.28902397 -0.11141312 -0.29951212 -0.09664877 -0.28777903 -0.23606306 -0.06720944
-0.032774985 -0.10717358 -0.057564393 0.22839239 -0.11886947 -0.1754328 -0.037636817 0.10852963
0.18903899 -0.068527386 -0.13441357 0.28196386 0.061204255 -0.257317 -0.27530384 0.13047409
0.25893512 -0.22207984 0.15089563 0.19286251 -0.029079676 0.23202941 0.2962642 0.07395768
0.20143798 -0.10446921 -0.2571007 -0.13600574 0.14497948 0.2837104 0.17778385 0.033361077
0.052669704 0.26115426 -0.15763389 -0.18393038 -0.19304562 0.04250765 0.047795027 0.1300396
0.15744409 -0.25496012 -0.19171381 0.053188264 0.05255294 -0.01810518 -0.07524741 0.26734272
0.22044829 0.13471773 -0.2676338 0.0614264 0.2437261 -0.24127986 -0.14202759 0.28956512
0.20626137 -0.12260085 -0.14567295 -0.02415368 0.2895209 -0.119678274 0.03847763 0.045673013
-0.18468726 -0.09001373 0.19895503 -0.19632305 0.2310175 0.11625442 0.1426093 0.08922374
-0.27835336 -0.30390078 -0.17979604 0.13397059 -0.2996912 -0.052381694 0.2788013 -0.016874462
-0.16590258 0.27587542 -0.2997025 -0.29164496 0.28195813 -0.1340905 -0.016628861 0.08218345
-0.109994575 -0.13764413 -0.2042236 0.28302446 0.29431096 -0.30584696 0.29037735 0.27035937
0.17664698 -0.29420808 -0.16673078 0.30277202 -0.28096884 0.004526794 0.120179266 -0.02361539
-0.15615447 -0.20433153 -0.06926097 -0.23279753 0.22175291 -0.22925696 0.07099235 0.30169532
-0.2852003 -0.013748974 -0.20043999 0.057914585 0.20449129 -0.28060517 -0.1147238 -0.21816257
0.041159302 0.06455967 -0.18779686 0.21741024 -0.13911852 -0.22264007 -0.093088865 0.13233292
-0.24993993 0.007836282 0.28942445 0.22787526 -0.22802559 -0.04350993 -0.21626791 -0.12335451
-0.1408161 -0.30404827 -0.03957525 -0.106798545 -0.072398484 0.10734704 0.16476145 0.041811347
00000000: 198f 833e 30ad 91bc a0bb 75be 87df 30be
00000010: b046 09bd 52a6 3bbe 4171 8b3e 4747 8dbe
00000020: 8610 523e 8015 14bc 309d 963c 3345 913e
00000030: 4051 8c3c 9486 56be 7d79 973e 6694 46be
00000040: d5d2 903e a4cb dabd e6fc 76be 36ba 1b3e
00000050: 68cb 013e 80e5 0c3e 50b9 223e 5aa1 4b3e
00000060: 30ab 0a3d 858f 8d3e f8eb 753d 59b3 59be
00000070: 12bd d5bd c2fd 7d3e 011c 903e 0efe 193e
00000080: 954d 77be a0e6 283e eea4 4a3e 7c4b 8dbe
00000090: 2eb8 f9bd 5259 013e 244f fd3d f83b 3bbe
000000a0: ae73 4b3e 88f1 f93d 80a0 383d c86a 153e
000000b0: ca13 e5bd 5319 803e be9b 653e 5b34 96be
000000c0: 8ebb 69be 085d 03bd 6ae8 a7bd fe80 82bd
000000d0: 0c52 e0bd e0b1 c1bc 9232 92be 0a57 713e
000000e0: 8629 6dbe 0e67 1cbe 4894 53bd d079 ebbd
000000f0: 8d12 58be 7620 063e 5801 6b3d 71bc 96be
00000100: 6e10 283e 60df 3ebc c959 9c3e e38e 923e
00000110: 6c5a 883d 5468 91be d428 7abe 5d1c 903e
00000120: 2002 f4bd f81d ad3d 8092 443e a5ee 96be
00000130: 56f7 34be 28dc 863d 5a45 473e 875b 853e
00000140: a60f 653e 5acc 2fbe b0e1 da3c dab2 b3bd
00000150: ec40 883d cb3d 2abe e998 873e 3068 c5bd
00000160: 6a1a 94be 1f5a 98be caed 593e cfee 2ebe
00000170: 0254 043e eae9 133e 3d57 19be eafd dabd
00000180: 1817 68bd 346c 233e 0938 8dbe b484 b03d
00000190: 6cc9 27be 1e74 38be b199 35be 2015 9b3c
000001a0: 86d5 653e f3fa 933e 902c e4bd a759 99be
000001b0: caef c5bd c657 93be 84ba 71be 1aa5 89bd
000001c0: 103f 06bd d27d dbbd a4c8 6bbd b2df 693e
000001d0: d671 f3bd a8a4 33be 1029 1abd c844 de3d
000001e0: 7093 413e 1658 8cbd b6a3 09be 915d 903e
000001f0: 50b1 7a3d 0ebf 83be a0f4 8cbe 009b 053e
00000200: 2593 843e e668 63be 6284 1a3e c07d 453e
00000210: 8038 eebc 1e99 6d3e f1af 973e 2077 973d
00000220: c245 4e3e f4f3 d5bd b4a2 83be 1745 0bbe
00000230: 8075 143e 7d42 913e f80c 363e a0a5 083d
00000240: 30bc 573d 03b6 853e c76a 21be 3f58 3cbe
00000250: c0ad 45be 801c 2e3d b8c4 433d 1a29 053e
00000260: 0639 213e 228a 82be a050 44be f0db 593d
00000270: c041 573d 5051 94bc 501b 9abd 25e1 883e
00000280: 32bd 613e 72f3 093e 4c07 89be 409a 7b3d
00000290: 5693 793e 1112 77be ae6f 11be e141 943e
000002a0: 2e36 533e 2816 fbbd 4a2b 15be f0dd c5bc
000002b0: 153c 943e e219 f5bd b89a 1d3d a013 3b3d
000002c0: a81e 3dbe 1e59 b8bd deba 4b3e e908 49be
000002d0: da8f 6c3e cc16 ee3d 2c08 123e f0ba b63d
000002e0: 5584 8ebe e298 9bbe 741c 38be 962f 093e
000002f0: 2071 99be 308e 56bd 0bbf 8e3e 503c 8abc
00000300: 5ee2 29be 8b3f 8d3e 9b72 99be 7d52 95be
00000310: d15c 903e 054f 09be 4039 88bc cc4f a83d
00000320: d644 e1bd 95f2 0cbe fe1f 51be 95e8 903e
00000330: edaf 963e f997 9cbe 57ac 943e 8b6c 8a3e
00000340: f2e2 343e 71a2 96be 79bb 2abe ef04 9b3e
00000350: 26db 8fbe 8055 943b 8c20 f63d 1075 c1bc
00000360: f5e6 1fbe 493c 51be b2d8 8dbd 7a62 6ebe
00000370: 3213 633e 56c2 6abe 7064 913d cf77 9a3e
00000380: c605 92be 6043 61bc 2440 4dbe d837 6d3d
00000390: 2a66 513e 7bab 8fbe 50f4 eabd 0266 5fbe
000003a0: a896 283d dc37 843d d24d 40be caa0 5e3e
000003b0: 1675 0ebe c2fb 63be 60a5 bebd 4882 073e
000003c0: 41f0 7fbe c063 003c 712f 943e 2258 693e
000003d0: 8a7f 69be 7837 32bd 5675 5dbe 4aa1 fcbd
000003e0: 1932 10be 37ac 9bbe a819 22bd 32b9 dabd
000003f0: a845 94bd c4d8 db3d 3ab7 283e 6042 2b3d

tokenTuringMachineUnit.transformerBlock.self_attn.in_proj_bias f4 [48]
0.0 0.0 0.0 0.0 0.0 0.0 0.0 0.0
0.0 0.0 0.0 0.0 0.0 0.0 0.0 0.0
0.0 0.0 0.0 0.0 0.0 0.0 0.0 0.0
0.0 0.0 0.0 0.0 0.0 0.0 0.0 0.0
0.0 0.0 0.0 0.0 0.0 0.0 0.0 0.0
0.0 0.0 0.0 0.0 0.0 0.0 0.0 0.0
00000000: 0000 0000 0000 0000 0000 0000 0000 0000
00000010: 0000 0000 0000 0000 0000 0000 0000 0000
00000020: 0000 0000 0000 0000 0000 0000 0000 0000
00000030: 0000 0000 0000 0000 0000 0000 0000 0000
00000040: 0000 0000 0000 0000 0000 0000 0000 0000
00000050: 0000 0000 0000 0000 0000 0000 0000 0000
00000060: 0000 0000 0000 0000 0000 0000 0000 0000
00000070: 0000 0000 0000 0000 0000 0000 0000 0000
00000080: 0000 0000 0000 0000 0000 0000 0000 0000
00000090: 0000 0000 0000 0000 0000 0000 0000 0000
000000a0: 0000 0000 0000 0000 0000 0000 0000 0000
000000b0: 0000 0000 0000 0000 0000 0000 0000 0000

tokenTuringMachineUnit.transformerBlock.self_attn.out_proj.weight f4 [16, 16]
0.23943612 0.1766496 0.18626761 -0.24270979 0.06410217 0.24603677 -0.22477677 -0.117064685
0.2150347 0.0052109957 0.049319267 0.05946082 -0.069525 0.00812307 0.24467897 0.13018522
0.22889787 0.23775265 0.10241997 0.11236665 0.12200034 -0.021820635 -0.18631816 0.16437098
-0.030433744 0.030007094 0.119389325 0.03055209 -0.0014755726 0.079250276 -0.1900934 -0.15403673
-0.02486968 -0.18770066 0.172723 0.04818836 -0.10031313 -0.022403508 -0.19039908 0.14079979
-0.24908009 -0.07635188 -0.17820221 0.09125525 0.084462166 -0.040005118 0.15941694 0.1278151
-0.17074835 0.16779146 -0.1587739 0.21934217 -0.048152447 0.027347237 -0.060756147 0.21776026
-0.05333662 0.1377534 0.17403048 -0.03148091 0.110202014 0.16687164 0.062396675 -0.04533404
-0.16268957 -0.18823087 -0.23272002 -0.19075605 0.19315454 0.18131125 -0.15445176 0.0540134
-0.19481826 0.03522852 0.06443715 0.010573804 0.046668768 -0.16950428 -0.2441386 -0.083878845
-0.1243878 -0.20188102 0.11544436 -0.0075309277 0.13907471 -0.07700983 -0.22347876 -0.06523645
-0.026746124 -0.031482965 0.096663386 0.05136785 -0.21638599 -0.04726839 -0.2191391 0.12943566
-0.057031244 0.098691225 0.12639907 -0.17578995 0.008856088 -0.23421487 0.2150644 0.03883019
0.1583361 0.042685837 0.16878882 0.1324397 0.03293395 -0.24326444 -0.18922058 -0.13680625
-0.06513417 -0.10883531 -0.23895654 0.03125629 0.013441086 0.17917296 0.1960463 0.10514918
0.043842405 -0.060711533 0.067927 -0.11017135 0.0051801205 -0.12183544 0.07090551 -0.039251566
-0.073912024 -0.057689756 0.21622556 0.024410963 0.06644693 -0.23999634 0.08270359 0.1820974
-0.2443735 -0.05391878 0.012275934 -0.019589543 -0.013081789 0.008016944 0.030121058 0.14515695
0.17420089 0.2443285 0.1417565 0.19691423 0.19384098 0.047882617 0.21440575 0.09085232
0.009964377 -0.068588614 -0.017512858 -0.015422046 -0.17835408 -0.0022563636 0.052708417 0.1553399
-0.06336805 -0.091502756 -0.09398064 -0.036010176 0.14832646 0.23499069 -0.22739622 -0.0634014
0.2306638 -0.20583472 -0.23136473 0.027179658 -0.074911654 0.061599582 0.19828025 0.11254722
-0.12634793 -0.053961486 0.17097992 0.1020751 0.110543996 0.21457896 -0.14118114 -0.2277449
-0.09875691 -0.00934571 0.11380282 -0.1654146 -0.124019116 -0.15328902 0.106550545 0.19341716
-0.10358268 -0.23952574 -0.05074781 0.025167793 -0.12177706 0.064563125 -0.0062919855 0.24780712
0.019248039 -0.039896786 0.0025152266 -0.12778047 -0.18418178 -0.15187079 -0.14288163 -0.033643454
0.2186437 -0.10993871 -0.13624042 0.09007001 0.022216976 0.124993175 -0.11358088 0.21059439
-0.18881649 0.20831415 0.07536319 -0.13695204 0.037814766 0.1484108 -0.11323401 0.16308334
-0.17009705 0.03995323 0.018118054 -0.07899651 0.01729694 -0.13662511 0.10115433 0.2153619
0.18450582 -0.031055301 -0.06114939 0.24506035 0.2084339 0.13200518 -0.03435272 0.0027816892
-0.064603 -0.23050469 0.18454036 0.0046367943 0.077135265 -0.051979423 0.11052692 0.013226777
0.05763939 -0.18596467 -0.23741335 0.22862467 -0.19705066 -0.14010274 -0.08337909 -0.1941278
00000000: be2e 753e a2e3 343e f0bc 3e3e ea88 78be
00000010: 0048 833d 10f1 7b3e e22b 66be 9cbf efbd
00000020: 0e32 5c3e 00c1 aa3b 0003 4a3d 308d 733d
00000030: 2063 8ebd a016 053c 208d 7a3e 464f 053e
00000040: 3464 6a3e 6e75 733e 90c1 d13d 7c20 e63d
00000050: 50db f93d 30c1 b2bc 30ca 3ebe de50 283e
00000060: 3050 f9bc 70d1 f53c 6482 f43d 6048 fa3c
00000070: 0068 c1ba f84d a23d d8a7 42be cebb 1dbe
00000080: 80bb cbbc 9a34 40be 4cde 303e 2861 453d
00000090: f870 cdbd 9087 b7bc faf7 42be d22d 103e
000000a0: da0e 7fbe 605e 9cbd a47a 36be 08e4 ba3d
000000b0: 80fa ac3d 68dc 23bd 323e 233e f6e1 023e
000000c0: a8d8 2ebe 86d1 2b3e a095 22be 3c9b 603e
000000d0: 803b 45bd 5007 e03c 70db 78bd 8cfc 5e3e
000000e0: 8077 5abd 3a0f 0d3e 0c35 323e 20f2 00bd
000000f0: 98b1 e13d 66e0 2a3e a893 7f3d 30b0 39bd
00000100: 1898 26be 98bf 40be 284e 6ebe 8e55 43be
00000110: 4eca 453e a8a9 393e 9a28 1ebe 283d 5d3d
00000120: 707e 47be c84b 103d a0f7 833d c03d 2d3c
00000130: c027 3f3d 8892 2dbe 78ff 79be acc8 abbd
00000140: 08bf febd e6b9 4ebe 186e ec3d 00c6 f6bb
00000150: 9a69 0e3e 54b7 9dbd 9ed7 64be b09a 85bd
00000160: b01a dbbc 48f4 00bd 74f7 c53d 1867 523d
00000170: 4a94 5dbe 809c 41bd 0066 60be c88a 043e
00000180: 9899 69bd a01e ca3d c26e 013e 4802 34be
00000190: 2019 113c 06d6 6fbe d839 5c3e 680c 1f3d
000001a0: dc22 223e 58d7 2e3d fad6 2c3e 469e 073e
000001b0: c0e5 063d 501a 79be 0ac3 41be f016 0cbe
000001c0: 1065 85bd 0ce5 debd 06b1 74be 9806 003d
000001d0: 0038 5c3c 1e79 373e 5cc0 483e 7458 d73d
000001e0: 1894 333d a8ac 78bd 501d 8b3d 84a1 e1bd
000001f0: 00be a93b dc84 f9bd e836 913d 40c6 20bd
00000200: 305f 97bd 184c 6cbd 3c6a 5d3e 80f9 c73c
00000210: 5415 883d 9ac1 75be 8060 a93d be77 3a3e
00000220: 0c3d 7abe f0d9 5cbd 0021 493c 407a a0bc
00000230: 0055 56bc 8059 033c 70c0 f63c 06a4 143e
00000240: b861 323e 4031 7a3e 9e28 113e e2a3 493e
00000250: 407e 463e 9020 443d 2e8d 5b3e c810 ba3d
00000260: a041 233c 3078 8cbd 2077 8fbc c0ac 7cbc
00000270: 74a2 36be 80df 13bb c8e4 573d 6c11 1f3e
00000280: 1cc7 81bd cc65 bbbd ec78 c0bd 687f 13bd
00000290: e4e2 173e 66a1 703e 8eda 68be 98d8 81bd
000002a0: 2233 6c3e 56c6 52be e0ea 6cbe e0a7 de3c
000002b0: 486b 99bd d84f 7c3d fa09 4b3e 287f e63d
000002c0: 5a61 01be b806 5dbd 5c15 2f3e c00c d13d
000002d0: e464 e23d 96ba 5b3e ca91 10be f635 69be
000002e0: 1041 cabd c01e 19bc 7411 e93d 7262 29be
000002f0: bcfd fdbd ccf7 1cbe 2c37 da3d 260f 463e
00000300: 2823 d4bd 3c46 75be f0dc 4fbd b02c ce3c
00000310: 4066 f9bd ac39 843d 002d cebb 26c1 7d3e
00000320: 10ae 9d3c d06a 23bd 80d6 243b e2d8 02be
00000330: 269a 3cbe 0484 1bbe 904f 12be b8cd 09bd
00000340: 22e4 5f3e 8c27 e1bd 9c82 0bbe a076 b83d
00000350: 6000 b63c 6cfc ff3d 189d e8bd 0ea6 573e
00000360: 1c59 41be 4e50 553e 0458 9a3d 283d 0cbe
00000370: a8e3 1a3d 00f9 173e 3ce7 e7bd 52ff 263e
00000380: ec2d 2ebe 00a6 233d 506c 943c ecc8 a1bd
00000390: 50b2 8d3c 74e7 0bbe 002a cf3d d487 5c3e
000003a0: 18ef 3c3e b067 febc c877 7abd 1af1 7a3e
000003b0: b26f 553e 5e2c 073e 70b5 0cbd 004d 363b
000003c0: 944e 84bd 6c09 6cbe 26f8 3c3e 40f0 973b
000003d0: 18f9 9d3d 60e8 54bd f05b e23d 20b5 583c
000003e0: 4817 6c3d 866d 3ebe 7c1c 73be 961c 6a3e
000003f0: a6c7 49be 1877 0fbe a8c2 aabd 70c9 46be

tokenTuringMachineUnit.transformerBlock.self_attn.out_proj.bias f4 [16]
0.0 0.0 0.0 0.0 0.0 0.0 0.0 0.0
0.0 0.0 0.0 0.0 0.0 0.0 0.0 0.0
00000000: 0000 0000 0000 0000 0000 0000 0000 0000
00000010: 0000 0000 0000 0000 0000 0000 0000 0000
00000020: 0000 0000 0000 0000 0000 0000 0000 0000
00000030: 0000 0000 0000 0000 0000 0000 0000 0000
