check_point/lapalce_noise_ttm_epoch_9.pth (torch, 973453 bytes, 72 tensors)

tokenTuringMachineUnit.tokenLearner1.norm.weight f4 [16]
000000 8d a3 7e 3f 48 81 70 3f 37 a2 72 3f f8 70 82 3f
       0.9946831 0.9394727 0.9477877 1.0190725
000010 19 0a 80 3f 14 c1 7a 3f a6 d8 74 3f 1b f5 77 3f
       1.0003082 0.97950864 0.9564308 0.96858376
000020 1b a8 85 3f ae 54 83 3f b8 b2 84 3f 44 b5 86 3f
       1.0441927 1.0260217 1.0367041 1.0524068
000030 53 c4 78 3f 52 e2 81 3f d5 e8 80 3f f4 a4 7c 3f
       0.97174567 1.0147192 1.0071055 0.986892

tokenTuringMachineUnit.tokenLearner1.norm.bias f4 [16]
000000 c8 73 b9 35 33 6c cb 35 fe 81 a1 b4 78 b2 da b6
       1.3817271e-06 1.5156169e-06 -3.008317e-07 -6.517683e-06
000010 0f d3 39 b6 ac f8 4a 36 44 32 03 b6 7a 43 16 b6
       -2.769e-06 3.0245092e-06 -1.954978e-06 -2.2391018e-06
000020 93 0c 17 37 80 d5 ac b6 11 31 bf b7 21 15 62 36
       9.003229e-06 -5.150854e-06 -2.2791823e-05 3.3688923e-06
000030 18 47 1d 35 68 79 dc b6 3e f8 0b 36 bc 5d 8f b5
       5.859051e-07 -6.5706445e-06 2.085711e-06 -1.068161e-06

tokenTuringMachineUnit.tokenLearner1.attention_maps.0.weight f4 [16, 16, 1]
000000 26 9c 84 3e 38 26 e3 3d ce 23 2c be bf 3f 4c 3e
       0.25900382 0.11091274 -0.16810533 0.19946192
000010 fd 30 2d be ea ef 1e be 4e e5 f7 3c cb 9d d9 bd
       -0.16913219 -0.15521207 0.030260708 -0.106258
000020 76 fb 28 3e bd 29 fc bd 72 32 d7 3c 61 7a 98 3e
       0.16502175 -0.123126484 0.026269171 0.29780868
000030 11 ad d2 bd c8 e6 03 3e c6 62 96 bd 13 17 d3 bc
       -0.10286916 0.12881005 -0.07343058 -0.025767839
000040 c4 8e 8f 3d c3 98 52 3d b6 72 31 be b4 32 d1 3d
       0.07009652 0.051415216 -0.17328915 0.10214749
000050 9c be 3f be ec ca 35 bd 7e f9 19 be 26 c0 3f 3e
       -0.18725055 -0.044382975 -0.1503658 0.18725643
000060 ad 50 9d be 18 fc 48 3e d7 e3 70 3e 7c a0 ad 3b
       -0.30725613 0.19627416 0.23524414 0.0052986722
000070 d8 a5 64 3e 3a 26 80 3e 6d 82 b6 3d a3 ab 36 3e
       0.2232889 0.25029165 0.089115955 0.17838912
000080 ad 69 1e be f7 32 1a be c7 8e 04 bd ab 85 ab bd
       -0.1547 -0.15058504 -0.032362726 -0.083751045
000090 0d 6d 23 3e d1 39 44 be 9d 91 28 be a3 b7 2d be
       0.15959568 -0.1916268 -0.16461797 -0.16964583
0000a0 02 5f da 3d a2 b4 ef bd a4 30 58 3e 52 06 42 be
       0.106626526 -0.11704375 0.21112305 -0.18947724
0000b0 33 a4 88 3c c6 29 79 be 4c cb 2e 3e fb 3c 47 be
       0.016679859 -0.24332342 0.17069739 -0.19456856
0000c0 d0 fd 0b 3e 00 84 5c bd 89 de db bd 5c 5d f5 bd
       0.1367104 -0.053836823 -0.107358046 -0.119806975
0000d0 de 51 aa ba 63 26 2c 3e 66 87 96 bd 33 14 6d be
       -0.0012994369 0.16811518 -0.07350044 -0.23152237
0000e0 60 5a a5 bd 2c 13 02 be 9c f4 7c 3e aa 98 c9 3d
       -0.08073878 -0.12702626 0.24702686 0.098435715
0000f0 a4 86 56 be 31 59 5f 3e 73 f5 08 3d 52 9d ef 3d
       -0.20949799 0.21811368 0.033437204 0.11699928
000100 65 02 8c bd bd a8 a3 bd f6 93 3a be 8f e1 15 be
       -0.06836394 -0.07991169 -0.18220505 -0.14636825
000110 4f 32 62 bd 13 db cf 3c 36 3d d1 bd b9 6c dc 3d
       -0.05522376 0.025373017 -0.10216753 0.10762925
000120 e9 fc 29 be fb 7e 74 3e fc b2 c0 bd 7d 67 10 be
       -0.16600384 0.23876564 -0.094091386 -0.14101978
000130 d9 cd 08 be 2d b9 c0 bc ad 88 13 be 77 9f 41 3e
       -0.13359775 -0.023525799 -0.14407606 0.18908487
000140 39 ef e1 bc 04 aa 41 bc 8e eb 53 3e 37 e4 85 be
       -0.02757989 -0.01182032 0.20695326 -0.26150677
000150 b5 39 3b 3e 78 f3 dc bd b2 a5 61 be e7 93 7b 3d
       0.18283732 -0.107886255 -0.22035864 0.061420348
000160 68 6c 9b bc 2f 6e 6b be 08 e6 7f 3d f8 eb 83 3e
       -0.01897259 -0.2299125 0.062475234 0.25765967
000170 a1 99 1a 3e b9 6a 64 ba 73 82 fa bd 5d 33 b7 bd
       0.15097667 -0.00087134127 -0.122319125 -0.08945344
000180 ae 04 58 be ef e9 77 3d ab be 00 3e d2 82 de bd
       -0.21095535 0.06052583 0.12572734 -0.10864796
000190 cd f6 ae 3d d7 46 11 bd ba 44 10 be 7c a8 81 bd
       0.08543167 -0.03546795 -0.14088717 -0.06330964
0001a0 0a 0b 8a be 18 fd 60 3e 67 83 38 3e 6d 20 2d bd
       -0.26961547 0.21971548 0.18018876 -0.04226725
0001b0 5f 19 c3 bd 9f 57 5b 3e 10 c0 68 3e b2 ea 65 3e
       -0.095263235 0.21420144 0.22729516 0.2245281
0001c0 99 dc 49 3e 88 24 13 bd 79 ca b9 3d ff 8f 61 be
       0.19713058 -0.03592351 0.09071822 -0.22027586
0001d0 51 70 a9 bd 65 bd bb 3d 3d a0 8c bd 70 98 0f bd
       -0.08273376 0.091669835 -0.068665005 -0.035057485
0001e0 c1 c6 dc bd 16 67 a4 bd e7 c0 6c 3e 35 3a e4 bc
       -0.10780097 -0.080274746 0.23120461 -0.027859787
0001f0 17 d8 60 3e cf 11 81 3d bd d2 07 3e 96 f3 02 be
       0.21957432 0.06302225 0.13263984 -0.12788233
000200 f4 ee ae 3d 34 9c 46 be 2d 43 46 3e a6 29 8f bc
       0.085416704 -0.19395524 0.19361563 -0.017475914
000210 e8 3d 0b be e2 d9 81 3e f1 d4 48 bc 95 71 87 bd
       -0.13597834 0.25361544 -0.0122578 -0.06613461
000220 c8 74 af bd 58 b0 1c 3e 2d 1d e1 3c 6f 6d 36 3e
       -0.08567196 0.15301645 0.027479732 0.17815183
000230 32 ef 6a 3e 66 35 e7 3c 07 cc 1a be d6 9f 4e 3e
       0.22942808 0.028223705 -0.15116893 0.2017816
000240 c9 f8 f0 3d d5 40 69 bd 15 ff 6c be 4a 7d 26 be
       0.11766202 -0.056946594 -0.23144181 -0.16258731
000250 55 1c 02 be df b1 80 3e 51 57 55 bd 45 1b da 3d
       -0.1270612 0.25135705 -0.052085225 0.106497325
000260 91 d0 cb bd f0 ee 5c 3d 9b c9 fe bd 4f 36 0c be
       -0.0995189 0.053938806 -0.12440797 -0.13692592
000270 d7 1d df 3d 45 89 0b 3d 4e 9e b9 bb 37 1c 35 3e
       0.108943634 0.034066457 -0.0056646233 0.17686544
000280 10 71 8b 3c d7 73 34 3e 9e 2d 8a bc 50 e1 5e be
       0.017021686 0.17622314 -0.016867455 -0.21765637
000290 b5 6a 84 be be f1 38 3e 62 2f 65 3d 49 6f 1a bd
       -0.2586266 0.18060967 0.05595339 -0.037703786
0002a0 ff cb da bd 18 a7 49 3e 3f 7e 3b 3e b9 11 dd 3d
       -0.106834404 0.19692647 0.18309878 0.10794396
0002b0 95 19 6f 3d bf fb 0a be 38 67 f0 bd 2d 1d be bd
       0.058374006 -0.13572596 -0.117384374 -0.092829086
0002c0 62 ef 23 3d 71 a1 3d 3e 64 43 c1 3d b8 95 3b 3e
       0.040023215 0.18518616 0.09436682 0.18318832
0002d0 a7 75 6e 3e 49 79 23 3d e3 24 6f be 2e 86 2f 3e
       0.23287068 0.03991059 -0.23353915 0.17141029
0002e0 ef 0b 84 3e d9 da 53 3e 7c 90 19 be 33 7b b0 bc
       0.25790355 0.20688953 -0.14996523 -0.021543121
0002f0 8c eb 16 be 14 42 db bd 03 cd 2d be 3c 5e 07 be
       -0.14738292 -0.10705963 -0.16972737 -0.13219541
000300 dc 4d 1a be 65 68 4b 3e c8 22 88 be 62 76 7e 3e
       -0.15068763 0.19864042 -0.26589036 0.24849847
000310 67 a5 e9 3c 65 ec 81 3d 93 db 36 3e c8 bc d1 bd
       0.028521253 0.06343917 0.17857198 -0.10241085
000320 73 ca 98 3e 74 ab 92 3b 9e 9b 65 bd ff 6a 7a bd
       0.29841956 0.004476005 -0.05605661 -0.061137196
000330 83 8c 44 bd a7 3e 1f be 80 cd 5c be 2a bd 4b bd
       -0.047985565 -0.15551244 -0.21562767 -0.049740948
000340 72 d3 48 bd 69 14 b8 bd 3a 74 45 3e af 51 66 3e
       -0.049029775 -0.08988268 0.19282618 0.22492097
000350 07 ab be bd f4 21 06 3e 33 b2 2e be 15 4e 5c be
       -0.093099646 0.1309889 -0.17060165 -0.21514161
000360 2c 2a f0 3d 0b a7 6c 3d b4 12 a2 bd f3 b7 76 be
       0.11726794 0.057776492 -0.079137236 -0.24093609
000370 93 47 58 be 6e bd 15 3e 46 80 e5 3c 65 0c 05 be
       -0.21121053 0.14623043 0.028015267 -0.1299301
000380 59 df 34 3e 91 09 a8 bd 2a 26 90 bd e1 7a 7d 3e
       0.17663325 -0.0820495 -0.07038529 0.24753906
000390 6b 98 20 be ce 6b 02 be 02 21 8e 3d e3 85 e3 bd
       -0.15683143 -0.12736437 0.069398895 -0.11109521
0003a0 9b 82 2b bd 06 5b 6e 3e 3e 81 83 be 2b de 32 be
       -0.041872602 0.2327691 -0.2568454 -0.17467563
0003b0 6d bb c6 3d ea 74 3c 3d bf a5 87 be 8b 8b 00 3e
       0.097037174 0.046009935 -0.26493642 0.12553231
0003c0 28 40 69 be ff 32 7f 3c a1 73 14 3c 07 86 b9 3c
       -0.2277838 0.015576123 0.009060771 0.022646917
0003d0 61 eb 81 3d 99 40 0a bd cd 3f d0 bd cd d3 59 3e
       0.06343723 -0.03375301 -0.10168419 0.21272202
0003e0 b6 fd e8 3a 11 87 65 3e 29 63 22 be 90 f4 89 bb
       0.0017775807 0.22414805 -0.15858139 -0.0042100623
0003f0 19 4d 4f be 05 dc 15 be 79 f2 f9 3d 3e 5e 27 be
       -0.20244254 -0.14634712 0.12204451 -0.16344544

tokenTuringMachineUnit.tokenLearner1.attention_maps.1.weight f4 [8, 16, 1]
000000 0e 6f 68 3e c9 00 13 3e 7f 79 1d 3c 9e db 1e be
       0.22698614 0.14355768 0.009611486 -0.15513465
000010 95 0f b4 3d 8f 32 69 3e fa 30 89 bd da ef 42 3e
       0.087920345 0.22773193 -0.06698795 0.19036809
000020 84 cf 63 be 96 82 94 bd c0 43 33 3e 45 81 a1 bd
       -0.2224713 -0.0725147 0.17506313 -0.07885984
000030 5d 5c 48 3b 64 23 d7 3d 9d 88 e5 3d 0c ef 94 bd
       0.003057263 0.10504797 0.112076975 -0.07272157
000040 dd d1 06 be 1d 74 dc 3d 86 dd 6e be e5 1f 9f 3d
       -0.13165994 0.10764334 -0.23326692 0.07769755
000050 ad bc 36 3e 59 eb 4c 3e 2b ca b9 bc f0 69 84 3d
       0.17845412 0.20011653 -0.022679409 0.064655185
000060 db 60 05 be 38 12 43 be 7e 07 5e 3d b3 13 9a be
       -0.13025229 -0.19049919 0.054206364 -0.30093154
000070 50 06 17 be a4 7c 81 be c6 80 53 be 88 40 7c bd
       -0.14748502 -0.25290406 -0.20654592 -0.06158498
000080 d0 56 a3 3d 9d 82 e4 3c 97 57 5f 3d 20 1c 24 be
       0.079755425 0.027894313 0.05452689 -0.16026354
000090 c0 53 1b 3e b3 df 2b be 42 eb 30 3e 2e 02 24 3d
       0.15168667 -0.16784553 0.17277244 0.04004114
0000a0 38 e9 54 be bf 50 c6 3b a7 e2 63 3e 73 bd 16 3d
       -0.20792091 0.006052106 0.2225443 0.036801767
0000b0 a1 df 5e be bd 13 2e 3e 48 fd e9 bd 91 8e 79 3d
       -0.21764995 0.16999717 -0.11425263 0.060926978
0000c0 ac ef 86 3e 8d d9 aa 3c 76 fd 19 be 73 0b 96 3e
       0.2635473 0.02085569 -0.15038094 0.2930561
0000d0 33 92 f2 bc be 88 7e 3e f3 64 4c 3d 3a 33 ca 3d
       -0.029610729 0.2485685 0.04990096 0.09873052
0000e0 77 4e 40 bd 47 1e b5 bd 0c 64 ef bd 91 4b d8 3d
       -0.04694983 -0.088436656 -0.11689004 0.10561288
0000f0 75 27 db bd 36 c8 11 be 51 b5 8b 3d dc da 09 3e
       -0.10700885 -0.1423653 0.06821693 0.13462394
000100 39 21 56 3e b5 6c 7c 3d ea 4c d3 bd c0 1e c5 ba
       0.20911111 0.06162711 -0.103174046 -0.0015039071
000110 f6 d5 a5 bc fd a4 cb bd bd 43 b4 bd 75 14 3e 3d
       -0.020243626 -0.099435784 -0.088019826 0.046406228
000120 93 9d b7 3d 2c fc 56 3e 89 b5 1a 3e ff d9 01 be
       0.08965602 0.20994633 0.15108313 -0.12680815
000130 97 b5 31 bd 8c ad 65 be 98 d0 7c 3d 6e bf ea bd
       -0.04338607 -0.22429484 0.061722368 -0.114622936
000140 6e 6f d9 bd 69 05 a5 3d 07 d1 31 3e ff 8a eb bd
       -0.10616957 0.080576725 0.17364894 -0.11501121
000150 e0 a8 33 3e 62 7b ba bd 00 2f 5d 3e 14 9a 7f 3d
       0.1754489 -0.09105565 0.2159996 0.0624028
000160 e3 68 5c bc 10 9e ab bd 04 52 18 3e 4f 1d db 3b
       -0.013452741 -0.083797574 0.14875036 0.0066868435
000170 fe 28 f5 3d 95 48 a2 3c 35 98 b0 3d 49 f3 85 be
       0.11970709 0.01981 0.08622781 -0.26162174
000180 a7 67 60 3e a9 68 44 3e 39 9a 85 3d 6b 8d 49 3e
       0.2191454 0.1918055 0.06523556 0.19682853
000190 a1 8f a2 3d b4 3c d6 bd 87 91 f5 3d 22 27 71 3e
       0.07937551 -0.10460797 0.11990648 0.23550084
0001a0 7e 61 3b 3e 5f 72 a2 3a b1 1d 30 3e 7a e4 c7 3d
       0.18298909 0.0012393704 0.17198826 0.09760375
0001b0 93 ac 89 be 14 eb 2e be 11 68 6c be e7 97 44 3e
       -0.26889476 -0.17081863 -0.23086573 0.19198571
0001c0 ab 5b 51 3e b1 70 b5 bc ea 0d 2f 3e f1 97 6d 3e
       0.20445125 -0.022148462 0.17095152 0.23202492
0001d0 8a 0a 74 be 44 8f b3 bb 75 af 22 3e 89 d2 e8 bd
       -0.23832145 -0.005479725 0.15887244 -0.113682814
0001e0 91 b1 36 be 0f b4 56 3e 10 87 66 be d6 f7 3d be
       -0.17841174 0.20967124 -0.2251246 -0.18551573
0001f0 78 de f4 bd ec 5f aa bd ec e0 98 bd cd c1 80 3b
       -0.11956495 -0.08319077 -0.074647754 0.003929353

tokenTuringMachineUnit.tokenLearner1.feat_conv.weight f4 [16, 16, 1]
000000 39 bf 59 bd 8d f2 a5 3d 0e 7c 19 3d ae 95 7f 3e
       -0.05316088 0.081029035 0.037471823 0.24959442
000010 79 cb 6d bd 7e 0b 5c 3d b8 0e 82 be a8 8a 5e be
       -0.058055375 0.053721897 -0.25401855 -0.2173258
000020 ef b3 9e 3b ac 46 d4 3d e2 80 ee bd 50 1a 04 be
       0.004843227 0.10365042 -0.11645676 -0.12900662
000030 10 7b 7f 3d fb ae 7c 3d 2d 6d fc 3c b2 69 ce bd
       0.06237322 0.061690312 0.030813778 -0.100787535
000040 92 d4 16 be 22 72 1d be d0 30 3c 3e 7b ec 1c 3e
       -0.14729527 -0.1537557 0.18377995 0.15324585
000050 19 89 69 be fd 6b d3 bd 6b e1 3f bc d1 5c 58 3e
       -0.22806205 -0.103233315 -0.011711459 0.21129157
000060 04 5a 5e be 6d 52 73 3d 69 ce e6 3d 0c cc 07 3d
       -0.21714026 0.05940478 0.11269838 0.03315358
000070 0e 1f 20 3e 37 6e 0f be 05 85 68 3e fc 94 42 3d
       0.15636846 -0.14006887 0.22706993 0.047505364
000080 eb f6 3f 3e 0d 8e 01 be e3 6f 97 bd 34 6c 2b be
       0.18746535 -0.12651844 -0.073943876 -0.16740495
000090 b0 fd 70 be 24 ac 42 be 6c cc 37 3b b0 59 e4 3d
       -0.23534274 -0.19010979 0.002804543 0.11149919
0000a0 48 35 4d be 60 6c 3d be 79 2d 14 be 0d dd 02 3e
       -0.20039856 -0.18498373 -0.14470471 0.12779637
0000b0 d4 f3 3b 3e 2c d2 b5 bd dd 1e 00 3c 52 93 55 be
       0.18354732 -0.08877978 0.007819858 -0.2085698
0000c0 e1 af c3 bd b6 f3 00 3e b6 b6 60 bd 4c ea c4 3d
       -0.095550306 0.12592968 -0.054861747 0.09615001
0000d0 ab c9 10 3e 6d b1 b9 bd 87 80 83 be f7 97 43 3e
       0.1413943 -0.090670444 -0.25683996 0.19100939
0000e0 6a d0 58 3e 4f 64 f2 bc fd 63 4d bd 0d aa 24 be
       0.21173254 -0.029588846 -0.050144184 -0.16080494
0000f0 52 cf 8a bd b1 56 e8 bc ee e2 63 3e cb 9c 4b be
       -0.067778245 -0.02836165 0.22254536 -0.1988403
000100 a6 bf 8a bd 0d a3 1d bd ec ee 7d 3e 69 f2 4c be
       -0.06774835 -0.038485575 0.24798173 -0.20014347
000110 40 03 61 3e 79 35 3c bd d4 44 93 3d 27 72 f4 bd
       0.21973896 -0.045949433 0.07190862 -0.11935835
000120 fb 28 83 3d d7 cf 8d bd c1 78 06 be 3f 1f 4e bd
       0.06404301 -0.06924408 -0.13132001 -0.050322767
000130 ec 08 63 3e c6 bb 6d 3e 1a ee 71 3e 8a 5f fe 3d
       0.22171372 0.23216161 0.23625985 0.124205664
000140 08 48 4e bd eb ef 44 3e af 3a 34 be 8e d1 7c 3e
       -0.050361663 0.19232146 -0.17600511 0.24689314
000150 af d7 70 be b1 ca 60 be e1 0c 8a 3d 7c af 45 3e
       -0.23519777 -0.2195232 0.06740738 0.19305223
000160 b5 47 67 be 6e 3f 0f 3e 82 4e 1d 3d a2 99 1d 3c
       -0.22585948 0.1398904 0.03840495 0.009619148
000170 96 e2 c3 3b 7b 2d c1 bd eb a3 0e 3e 8d 18 03 3e
       0.005977939 -0.09432503 0.13929717 0.12802334
000180 9f da 5a be cc d9 26 be 14 3f 7f 3e 37 74 05 be
       -0.2137246 -0.1629402 0.24926406 -0.13032614
000190 68 78 46 be f9 fe 46 bc 38 4d 71 3d 44 fb 2f 3e
       -0.19381869 -0.012145751 0.058911532 0.17185694
0001a0 01 51 8c be 94 61 90 bd 30 e5 b0 3d 7b e9 06 bd
       -0.2740555 -0.070498616 0.08637464 -0.032937508
0001b0 81 eb 9f bd a1 e6 a6 bb f4 aa fb bd 33 04 14 3e
       -0.07808591 -0.005093411 -0.12288466 0.14454727
0001c0 30 ed 87 3d 95 cc 05 3e e4 8e e1 3c 2b 23 6a be
       0.06637037 0.13066323 0.027533956 -0.22864978
0001d0 71 a0 f7 3d 49 33 3c 3e d5 c7 33 be be 3d 87 3e
       0.12091149 0.18378939 -0.17556699 0.26414293
0001e0 42 a9 7b be 8b e0 09 3d db 0b ae 3d ce 77 1d be
       -0.24576285 0.033661406 0.08498355 -0.15377733
0001f0 ac 14 43 be e7 16 62 bd 39 c6 7b 3e 43 3a 00 be
       -0.19050854 -0.055197623 0.24587335 -0.12522225
000200 71 41 38 3b c2 a5 23 bd 68 45 53 3c 16 08 5a be
       0.0028115178 -0.039953 0.012894966 -0.21292147
000210 a9 7f 94 bd 32 8d ec bc be 44 2e be c8 fa 87 3e
       -0.07250912 -0.02887592 -0.1701841 0.26558518
000220 65 ec 18 be f2 30 25 be 3d bf 7b 3d 21 b5 08 3e
       -0.14933927 -0.16131952 0.061461676 0.13350345
000230 01 7a 2d be 6d ee e3 bd 77 a6 a3 3d 62 02 ed bd
       -0.16941072 -0.111294605 0.07990735 -0.1157272
000240 d7 f7 06 3d 7a ea 4b 3e 4f 86 df 3d bb f8 38 be
       0.032951202 0.19913664 0.10914289 -0.18063633
000250 97 02 a2 3d 5f ac 3d bd 6a 24 88 bc 88 57 0e be
       0.0791065 -0.046306964 -0.016618926 -0.13900578
000260 50 5f 21 3b a6 d6 d6 3c 63 9f 44 3e 07 a7 67 3c
       0.002462346 0.0262254 0.19201426 0.0141389435
000270 92 bc 5f bd 28 eb 1b 3e ba e6 e4 3d 20 58 0f 3e
       -0.054623194 0.15226424 0.1117682 0.13998461
000280 85 a2 3c 3c e8 0e 02 3d 9e ef d1 bd 90 29 79 be
       0.011513357 0.031752497 -0.102507815 -0.24332261
000290 ce 2c 01 3e ba 0c 26 3c e2 fe c5 bd bb 91 2f 3e
       0.12614748 0.01013487 -0.09667756 0.17145436
0002a0 0b 8c 7e bd 36 79 d5 bd 4c c5 25 be 7f 0c ac bd
       -0.062145274 -0.1042351 -0.16188544 -0.08400821
0002b0 18 25 6d 3e 4c 49 82 3e ca fb 0d be 0f 39 87 3e
       0.23158681 0.25446546 -0.13865581 0.2641072
0002c0 c6 37 04 be f1 ba 68 be 31 fc 20 be e1 0e a5 3d
       -0.12911901 -0.22727562 -0.15721203 0.080594786
0002d0 79 96 0e be ac ea a4 3d 08 cc e8 3d 78 80 1e 3e
       -0.13924588 0.080525726 0.11367041 0.15478694
0002e0 36 f2 9e 3d 91 f5 b4 3d 73 7a 5d be 13 d0 8b be
       0.07761042 0.088359006 -0.21628742 -0.27307186
0002f0 5c e7 a7 3d cc 86 7c be 2b fc 4b bd 2a 3c d7 3d
       0.08198425 -0.24660796 -0.049801033 0.10509522
000300 ca a7 2e 3e 09 18 73 bd 0d d7 39 3e cc 95 71 3d
       0.17056194 -0.059349094 0.18148442 0.058980748
000310 27 8b 2f 3e db 65 d3 bd d3 1d 3b 3e 49 a3 a7 bd
       0.17142926 -0.10322162 0.18273096 -0.08185441
000320 8f 13 90 3d 4a 5c 32 3c 52 73 a2 3d 2d 3c 85 3d
       0.070349805 0.010886261 0.07932152 0.06505618
000330 95 72 2f 3e 3b 91 31 be b2 0e 14 be 79 34 21 be
       0.17133553 -0.17340557 -0.14458731 -0.15742673
000340 c9 72 30 be ae c4 6f be d9 f8 30 bd 8b c3 1a be
       -0.17231287 -0.23414871 -0.04320607 -0.15113656
000350 e3 5c d1 bd c0 da 5e bd 66 8a c0 3d 39 9b 49 be
       -0.10222795 -0.054407835 0.094013974 -0.19688119
000360 c9 16 26 be bd d7 99 bd d2 05 81 be 53 a6 23 bd
       -0.1621963 -0.07511852 -0.25199753 -0.03995354
000370 9c 6b 6a be f9 6e 6f 3d cd f6 10 3c bf 0b d8 bd
       -0.22892612 0.05845544 0.008847904 -0.105491154
000380 cd a6 95 be 47 f0 e4 bd 82 c8 52 3e e9 b2 e9 bb
       -0.2922882 -0.11178642 0.205843 -0.0071319235
000390 c9 f3 e5 3d 23 fb 38 bd d9 34 34 3e fa 23 16 3c
       0.11228139 -0.045161378 0.17598285 0.009163851
0003a0 d6 a4 90 bc 53 7f 6c 3e 77 6b 70 be 1a 5e 42 be
       -0.017656725 0.23095445 -0.23478495 -0.1898121
0003b0 db 11 54 bc 07 a5 e8 bd b3 25 6a be 1b 68 29 3e
       -0.01294371 -0.113596015 -0.22865944 0.1654362
0003c0 ac 0c b9 bd 96 76 cb bb 47 ed 5f be 55 93 2b 3e
       -0.0903562 -0.006209205 -0.21867858 0.16755421
0003d0 b2 cf 3a be 06 b4 26 3e f7 59 0f 3e 47 a4 0e 3e
       -0.18243292 0.16279611 0.13999163 0.13929854
0003e0 36 29 73 be 43 03 6d 3d d5 d0 a9 bc cd 05 b4 3d
       -0.2374619 0.05786444 -0.020729462 0.08790169
0003f0 18 31 66 3e 5e 91 5f be 33 e7 76 bc ef 03 38 be
       0.22479665 -0.21832797 -0.015069771 -0.1797025

tokenTuringMachineUnit.tokenLearner2.norm.weight f4 [16]
000000 c8 6f 71 3f e9 a3 71 3f cb 68 7c 3f 7d c9 77 3f
       0.9431119 0.9439073 0.985974 0.9679182
000010 c4 ed 72 3f b8 50 6b 3f b8 de 70 3f fd 5d 71 3f
       0.9489405 0.9192004 0.9408984 0.9428404
000020 5c 6b 6b 3f c1 38 7d 3f 55 c4 77 3f 91 b9 78 3f
       0.9196069 0.98914725 0.96783954 0.9715815
000030 8b 77 78 3f ed 53 72 3f 13 95 73 3f b3 1c 71 3f
       0.9705741 0.9465931 0.95149344 0.94184417

tokenTuringMachineUnit.tokenLearner2.norm.bias f4 [16]
000000 78 57 95 37 c8 19 38 37 93 d0 e4 37 c7 7a 67 36
       1.7802915e-05 1.0973257e-05 2.7276843e-05 3.4493148e-06
000010 93 54 28 b7 1c e2 d2 b6 82 dc 43 b6 fd d2 39 b6
       -1.0033272e-05 -6.2848103e-06 -2.9185617e-06 -2.768996e-06
000020 5d 65 54 36 5e f6 e7 36 d0 ab a1 36 ff 78 2b 38
       3.1649463e-06 6.9130174e-06 4.8181755e-06 4.0882263e-05
000030 33 3b f8 36 c0 be 61 b7 2a e9 15 b7 55 59 21 b6
       7.3978676e-06 -1.34554575e-05 -8.93538e-06 -2.4042868e-06

tokenTuringMachineUnit.tokenLearner2.attention_maps.0.weight f4 [16, 16, 1]
000000 ba 94 ea 3d dc 2a 98 3d ae ed 21 3e b6 8b 81 3e
       0.114541486 0.0743005 0.15813324 0.25301903
000010 5c ce 0e be f4 32 5d be f6 ea c7 3d ca 42 7a 3d
       -0.13945907 -0.21601468 0.09761612 0.06109885
000020 c9 a1 05 3c 20 79 4c be 09 16 f5 ba 20 ad 01 3d
       0.008156248 -0.1996808 -0.0018698584 0.031659245
000030 05 a5 e8 bd 91 0c 3a be 31 9e 32 be 47 ca 3f be
       -0.113596 -0.18168856 -0.17443158 -0.18729506
000040 03 1e f5 bd 99 79 df 3d cd 4b 25 bd 1f 0b 35 3d
       -0.11968615 0.10911865 -0.040355492 0.04420006
000050 85 f8 27 3e 85 f4 3a be 91 e1 14 3e d2 c3 80 bd
       0.16403396 -0.1825734 0.14539172 -0.0628735
000060 bb 5c 03 bd 55 f8 0e 3e 70 f0 41 be bb 14 15 bd
       -0.032070857 0.13961919 -0.18939376 -0.036396723
000070 31 28 24 bd 54 5b 87 bd 97 1a 80 bd 41 10 e1 3d
       -0.040077392 -0.06609216 -0.062550716 0.10989428
000080 8f b0 80 3e ee c6 82 3e 91 f4 fc bd fb 73 c5 bd
       0.25134704 0.25542396 -0.12351335 -0.09641262
000090 75 a4 d6 bd 01 12 58 be 25 bb aa bc 3c db c7 bd
       -0.104805864 -0.21100618 -0.02084119 -0.097586125
0000a0 11 59 40 be db 5b 42 3e 69 ed cb 3d de de 2d be
       -0.18783976 0.18980353 0.09957392 -0.16979548
0000b0 45 f1 af 3d 52 40 f9 3d 45 ca 7e 3e ee 88 56 be
       0.085909404 0.12170471 0.24881847 -0.20950672
0000c0 f4 4a ac bd fe 55 8d 3d bf 4c 5f 3e 41 32 e6 bd
       -0.08412734 0.06901167 0.2180662 -0.11240054
0000d0 35 32 45 3e c0 b3 58 3e d8 5e 43 bc 1a 57 b8 bd
       0.19257434 0.21162319 -0.011924468 -0.09000988
0000e0 40 c0 b9 bc 3a a7 31 bd 90 e7 7b 3b 37 b2 22 be
       -0.02267468 -0.04337237 0.0038437583 -0.15888296
0000f0 ac 46 b5 3d 2f bc f5 bd e0 04 0b be 3c a7 77 3e
       0.0885137 -0.11998784 -0.13576078 0.24184889
000100 49 3e a6 b9 37 3f ac 3c 58 f4 78 bd 1d 4c bd bd
       -0.00031708393 0.021026237 -0.0607799 -0.09243033
000110 b3 81 6f be 14 c7 98 3d d5 dd 05 3d 69 d6 2f be
       -0.2338932 0.07459846 0.03268226 -0.17171635
000120 2d 9b 7e 3c 64 fc 4e 3e c0 c5 50 3e 74 f2 80 3e
       0.0155399265 0.20213467 0.20387936 0.25184977
000130 3e b1 48 be c8 f9 b6 bd 2a 15 41 be 13 66 69 3d
       -0.19598863 -0.08934361 -0.1885573 0.05698211
000140 6e a2 d4 bd 78 f7 6a be 90 db 60 3d e7 f7 11 3e
       -0.103825435 -0.22945964 0.05489689 0.14254723
000150 02 8a 8a bd c3 4c 1e 3d 74 43 f3 3c 47 37 f0 3d
       -0.06764604 0.038647424 0.02969525 0.11729293
000160 2d e6 3c 3e db e2 e0 38 49 9d f1 bd 6e ba 5f be
       0.1844718 0.000107234075 -0.11797578 -0.21848461
000170 ac e3 b4 bd 2a 2b da 3c 30 a9 b5 bc 37 d0 65 3e
       -0.088324875 0.02663191 -0.022175401 0.22442709
000180 35 cd a7 3d 80 9e e7 bd 88 f8 71 be 91 11 38 be
       0.08193437 -0.11309528 -0.23629963 -0.17975451
000190 84 29 8e bc e2 1d 64 3d 46 1e 2a 3e 23 ec 21 be
       -0.01735378 0.05569256 0.16613111 -0.15812735
0001a0 6a 1a 5d bd 91 36 1f 3e e1 01 10 bd de fb 99 bd
       -0.05398027 0.15548159 -0.035158042 -0.07518743
0001b0 4e 3c 5a bd 93 c3 f3 bd e4 a9 2b 3e 83 4f 05 3e
       -0.053280167 -0.11902537 0.16764027 0.13018613
0001c0 ae bf 85 3d a5 f3 64 bd 37 4f 66 3e e1 66 86 bd
       0.065307006 -0.05589642 0.22491156 -0.06562591
0001d0 b2 46 44 be 4a fd e9 bc 9d b4 ae 3d df c3 bd ba
       -0.19167593 -0.02856316 0.08530543 -0.001447793
0001e0 6d 3f 00 3d 8a 47 99 3c c2 ea fd 3d d7 6e 40 3d
       0.031310488 0.01871087 0.12398292 0.046980705
0001f0 8f 7b 5e bd ce d5 47 3e b6 de da 3d 52 c1 10 3e
       -0.054317053 0.19515154 0.1068701 0.14136246
000200 7a 96 12 be ad fd 3b 3e cd 65 2c be df 36 6e 3e
       -0.14315215 0.18358488 -0.16835709 0.23263119
000210 37 d7 6a be 4d 2f 8e 3d 7f 40 13 bd d2 30 08 be
       -0.2293366 0.06942616 -0.03595018 -0.13299873
000220 8a 71 5e be f1 6e 6d be a9 32 f8 bd 4c ce 05 3e
       -0.21722999 -0.23186852 -0.12119038 0.13066977
000230 38 f1 6c be c6 56 48 bc fa ae 6d 3d cd f2 8c bd
       -0.23138893 -0.01222772 0.0580282 -0.06882248
000240 49 65 0b 3c dd 42 54 3e 73 b8 32 be 7f 25 46 3e
       0.008508035 0.20728631 -0.17453174 0.19350241
000250 ca c6 31 3e 76 8d 09 3e c5 12 1a 3e cb 95 09 be
       0.17360988 0.1343287 0.15046223 -0.13436048
000260 51 00 16 3d 11 2f 18 3d 86 bb 71 be 24 27 50 be
       0.036621395 0.03715426 -0.23606691 -0.20327431
000270 d3 79 64 3e 21 43 52 3d d4 be 54 bd 6f 5e 0d 3e
       0.22312097 0.05133355 -0.0519398 0.13805555
000280 d7 f8 d0 bd 65 39 eb bc 7c 5b c6 3d 07 59 55 3e
       -0.102037124 -0.028713891 0.09685418 0.20834742
000290 af a6 f1 3d 5a 79 9c 3c 59 2b c8 3d 65 37 0a 3e
       0.117993705 0.019100834 0.09773893 0.13497694
0002a0 c4 a4 09 be 62 3b 0a be be 6b 22 be 95 df d1 3d
       -0.1344176 -0.13499215 -0.15861413 0.10247723
0002b0 b0 7d e4 bd a4 38 51 be 41 50 58 be f1 87 d4 3d
       -0.111567855 -0.20431763 -0.21124364 0.10377491
0002c0 ff 3e d3 bd ef 55 fc 3d c0 b2 52 3e 38 e9 41 be
       -0.1031475 0.12321078 0.20576 -0.18936622
0002d0 23 ac ac bd 1a 26 35 be 33 3e d4 bd e1 a5 4a bd
       -0.0843127 -0.17690316 -0.10363426 -0.0494746
0002e0 b2 99 7c bd 58 31 bc bd 5e 09 c1 bd 8a 82 41 3e
       -0.061670013 -0.09189099 -0.09425615 0.18897453
0002f0 6e ab f7 3d 7e f2 42 bb 77 d0 09 bd b4 01 f6 3d
       0.120932445 -0.0029746587 -0.033646073 0.120120436
000300 86 55 b0 bd 6c 6c a6 3d 48 42 6d 3e 29 08 7b 3c
       -0.08610062 0.081261486 0.23169816 0.01532177
000310 58 6f c3 3d 4d a1 ab bc be 31 3c 3e 5a 51 e1 bd
       0.095427215 -0.020950938 0.1837835 -0.11001845
000320 e5 be a0 3d 30 02 7c bd 9a a4 57 3e 4c 0d 53 3d
       0.0784891 -0.061525524 0.21058884 0.051526353
000330 48 5a 83 be 4b c0 fb 3d ed 87 bc bd 96 5e f6 3c
       -0.25654817 0.12292536 -0.09205613 0.030074399
000340 a3 bf 35 3e 3a e5 16 3e 7e 59 04 3e 13 76 79 3d
       0.17748885 0.1473588 0.12924764 0.06090362
000350 88 a1 35 3e 89 d6 46 3d 3d e5 32 be 6e df c4 bb
       0.177374 0.04854444 -0.1747026 -0.00600808
000360 4a 56 22 3e fc 4e 4a be 0b 1e 00 be 17 4e 16 be
       0.15853229 -0.19756693 -0.1251146 -0.14678226
000370 5b a3 2e bd cb 30 35 3e 50 16 08 3e 46 d0 01 3e
       -0.042636257 0.17694394 0.13289762 0.12677106
000380 82 9f 89 bd 8e 59 c4 3d b1 21 59 3d 9e 1b 59 be
       -0.06719877 0.09587394 0.053010646 -0.21201941
000390 66 7e 37 3e a9 1b 4a be d9 dd 35 3d 40 20 3d be
       0.17919311 -0.19737114 0.044401024 -0.18469334
0003a0 0e a9 20 3e f2 93 ac bd 64 fc fc bc 77 c3 21 3e
       0.15689489 -0.08426656 -0.030882068 0.1579722
0003b0 60 82 5c be 63 60 fd bd a7 0a 35 be ce 66 e8 bb
       -0.21534109 -0.123719 -0.17679845 -0.0070923334
0003c0 16 e5 1c be 29 50 3e 3e 38 fd 0b be 7e 5b d6 3d
       -0.15321764 0.18585266 -0.13670814 0.104666695
0003d0 10 75 22 3e 08 8e 7f 3d 17 19 76 bd c5 95 58 be
       0.15864968 0.06239131 -0.06008252 -0.21150883
0003e0 02 64 92 3d ca bc bd 3c c1 9a 68 3e 5b 70 76 bd
       0.07147981 0.02316131 0.22715284 -0.060165744
0003f0 0e ba a5 bd 4e 65 80 3e 6a f3 bb bd 4a 0b 7b 3d
       -0.08092128 0.2507729 -0.09177287 0.061290063

tokenTuringMachineUnit.tokenLearner2.attention_maps.1.weight f4 [128, 16, 1]
000000 9a 1b 13 be 82 f7 2b 3d e4 e0 b5 3d be f5 21 be
       -0.14365998 0.04198409 0.08880785 -0.158164
000010 2b 80 da bd 0f 50 7b bd 90 50 92 3d 35 70 a0 3b
       -0.10668977 -0.061355647 0.07144272 0.0048961886
000020 94 c0 8e bd bc 36 04 bc bd e9 fe bd b1 73 14 3e
       -0.06970325 -0.00806969 -0.12446926 0.14497258
000030 c3 d0 e4 bd ee 2b 35 bd 65 c2 9d 3d 66 d4 44 bc
       -0.11172631 -0.044231348 0.077030934 -0.01201353
000040 7b 6f 34 be 6b 5d ea ba dd 26 00 be 87 d4 b7 3d
       -0.17620651 -0.0017880624 -0.12514825 0.08976083
000050 5a 3a 50 bd 54 d1 b8 3c 3b ea 05 bd c6 19 c6 3b
       -0.0508369 0.022560753 -0.032694083 0.006045553
000060 9f 22 2c 3e b6 ef 03 3d df f4 05 be 33 13 b9 bd
       0.16810082 0.032211028 -0.13081692 -0.09036865
000070 02 a4 cc bb 94 af 80 3d 2d e1 33 3e fb c7 c9 bd
       -0.006245137 0.06283489 0.17566366 -0.09852596
000080 5f ed bd bd d7 57 50 be b2 76 31 3e 36 31 41 bd
       -0.092737906 -0.20346008 0.17330435 -0.04716607
000090 b1 f2 2f be fd 86 30 be bb 9f c4 3d 62 9d 51 3d
       -0.17182423 -0.17238994 0.09600779 0.051175483
0000a0 45 b2 33 3e 31 9b f8 bc 73 39 5d bd f5 ef 08 3e
       0.17548473 -0.030347439 -0.054009866 0.13372786
0000b0 ce 36 11 bd 9a 9a cb bc f4 83 9f 3c c5 64 d7 b9
       -0.035452656 -0.024853993 0.0194721 -0.00041083075
0000c0 b3 d4 49 be 70 7e eb 3c a3 c3 61 bd 89 ce 66 3d
       -0.19710045 0.028746814 -0.055118214 0.05634931
0000d0 ee d4 df 3d 93 d2 f0 bd 8e d0 f0 3c fe 2c 8b 3b
       0.10929285 -0.11758914 0.029396322 0.004247307
0000e0 ff a3 b1 bd 4b 51 45 be 6b c3 00 3d 72 b3 62 3d
       -0.08673858 -0.19269292 0.031436365 0.055346914
0000f0 3a fa 5c bc 40 2c 14 be c7 f7 18 be 3f 7a fb bc
       -0.013487393 -0.14470005 -0.1493827 -0.03069794
000100 df 7b 61 3e 51 1d ad 3c db 70 41 3e d4 90 0e 3d
       0.2201991 0.021132143 0.18890707 0.034806088
000110 ee 24 a6 bd ae d3 c1 3d 8a 1b 23 be b2 15 e9 ba
       -0.081125125 0.09464203 -0.15928474 -0.0017782955
000120 d9 74 4b 3e 46 24 bd bc 3d 45 a7 3d 98 80 f0 3d
       0.19868793 -0.023088586 0.08167503 0.11743277
000130 38 ec 9d ba f4 25 e7 bd bf e3 bc 3d 01 d2 fd bd
       -0.0012048548 -0.11286536 0.092231266 -0.12393571
000140 d3 bc 84 bd e5 49 49 be ef 5b 6b be 2d db 32 3e
       -0.06481328 -0.19657095 -0.22984289 0.17466421
000150 32 85 09 3e 74 a7 ee ba 05 71 b5 bc 03 f9 1c 3e
       0.13429716 -0.0018207864 -0.022148618 0.15329365
000160 cd be 36 be 89 f0 f0 3d 31 5f eb 3d 80 98 87 3a
       -0.17846222 0.117646284 0.11492766 0.0010345131
000170 6c b6 8f bd c7 49 23 3e 8e a4 5f bd cd 52 3a 3e
       -0.07017216 0.15946113 -0.05460029 0.18195648
000180 d3 97 f4 3d d8 da df bd 20 2e 2b 3e c2 07 ae 3d
       0.11943021 -0.10930413 0.16716814 0.084975734
000190 71 46 55 bd d1 55 5a 3d ea 4f 18 bd 9e 99 35 3e
       -0.05206913 0.053304497 -0.037185587 0.17734382
0001a0 20 3c 1a 3c 67 bd 6c 3b d5 f6 33 3e 42 5f 45 3e
       0.009413749 0.0036123635 0.17574628 0.19274619
0001b0 35 ab 27 be f2 af e6 3d 21 ae 7d 3b fc dc e7 bd
       -0.16373904 0.11264028 0.0038708525 -0.11321446
0001c0 8b 04 ed bd bd c9 3e 3e bb ef 18 3e b6 e2 1c 3e
       -0.11573132 0.18631645 0.149352 0.15320858
0001d0 0f 47 3d 3e b4 0d da bd ae 2f 2c be 8b 79 33 bd
       0.18484138 -0.10647145 -0.16815063 -0.043817084
0001e0 42 16 22 be 3c e8 1d be 4d a3 ee bd bd 25 73 3d
       -0.15828803 -0.15420622 -0.11652241 0.059362162
0001f0 bf 6c 8e bd 81 5f d2 3c 56 3b 62 3d 64 de 0d be
       -0.069543354 0.025680305 0.05523237 -0.13854367
000200 aa 61 d5 3d e2 3e 3f 3e d9 30 0c 3e fb fd 0a be
       0.104190186 0.18676332 0.13690509 -0.13573448
000210 23 43 41 3e 1f 6f 23 bd 17 0f 04 be 3b 72 14 3e
       0.18873267 -0.039900895 -0.12896381 0.144967
000220 8a 41 2c be 2b 6b b3 bd 26 00 11 bd 72 2b c8 bd
       -0.16821876 -0.08760675 -0.035400532 -0.097739115
000230 15 91 81 3d 61 9d 32 bb 8f f4 d0 bd f6 9b e4 3d
       0.063265 -0.002725445 -0.10202896 0.1116256
000240 2d 13 cd bd 5f e0 ee bc f2 98 25 bd bc a0 16 be
       -0.10013423 -0.029159723 -0.040429063 -0.14709753
000250 8a 92 ee 3d 57 fa 2d bc b4 de a9 3d dd f0 2e 3e
       0.11649044 -0.010618768 0.082944304 0.1708407
000260 44 41 21 3e 7f 9a 1b be 01 31 a6 3d ae d7 c7 3d
       0.15747553 -0.15195654 0.081148155 0.097579345
000270 2d 9f 23 3e d3 27 f3 3b 86 79 d4 3d 1f 4d 11 be
       0.1597869 0.007420519 0.10374741 -0.14189576
000280 f6 5b 16 be 63 0d 4c bd 14 53 55 be 0b 0f 4d be
       -0.14683518 -0.049817454 -0.20832473 -0.2002527
000290 6d f6 06 3e 59 13 f2 bc 1b 64 b7 3d b4 09 11 be
       0.13179941 -0.029550241 0.089546405 -0.14163858
0002a0 19 e3 d1 3d 6c cf 61 be 6c 44 a3 bd e3 f2 3d be
       0.102483936 -0.22051781 -0.07972035 -0.18549685
0002b0 37 c9 8f 3d 29 1c 68 bd dc a0 98 bc fd 69 22 3d
       0.070208006 -0.05666748 -0.018631391 0.03965186
0002c0 e3 4d 18 be 72 f4 ff 3b 23 99 25 3e 96 e5 e8 bd
       -0.14873461 0.0078111226 0.16171698 -0.11371915
0002d0 a0 f1 39 3d 33 d9 c0 bd f5 12 46 be c0 1a 22 3d
       0.045396447 -0.094164275 -0.19343169 0.039576292
0002e0 d7 58 08 3e b2 90 31 be 76 3b e1 3d ba c4 cd bc
       0.1331514 -0.17340353 0.109976694 -0.02511822
0002f0 33 43 ce bd 3e 38 24 3e f5 71 0c 3e 24 19 17 be
       -0.10071411 0.1603708 0.13715346 -0.14755684
000300 d3 ec 75 3e 5b f5 30 be 2f ca 2d be e6 ec 2c 3d
       0.24016123 -0.17281096 -0.16971658 0.04221811
000310 09 32 e7 3d d2 01 05 3e bd 44 1e 3e fe d1 5a bd
       0.1128884 0.12988976 0.15455909 -0.05342292
000320 ce f1 24 3e 48 79 0b 3e 08 3f e4 3d b6 f0 29 be
       0.16107866 0.13620484 0.11144835 -0.1659573
000330 37 f7 4d 3e 8d 86 e8 bc d3 ef 6b bd 8e 0f 0f be
       0.20113836 -0.028384471 -0.05760176 -0.13970777
000340 4f 68 48 be 57 4b 93 3d 07 21 d7 bc 9c 52 e6 bd
       -0.1957104 0.07192104 -0.026260866 -0.11246225
000350 68 b6 04 be 0d 7d d7 3d 4a 63 24 be 44 22 ca 3d
       -0.12960207 0.105218984 -0.16053501 0.09869817
000360 f1 76 1e bd 7e e7 a8 3d b5 19 07 3e fa d0 0b be
       -0.03868765 0.08247279 0.131934 -0.13653937
000370 8e 68 dd bd 69 5a 4d bc 94 86 9e 3d 5e 2c e5 bd
       -0.10810958 -0.0125337625 0.077405125 -0.11190103
000380 e9 3e 1b 3d f0 a1 50 3d 6e 01 34 be be 2f 3a 3e
       0.037901793 0.050935686 -0.1757867 0.18182275
000390 c8 99 62 be a6 86 c3 3d 73 50 22 be c2 9b 6f 3e
       -0.22128975 0.095471665 -0.15851001 0.2339926
0003a0 23 b6 2f 3e 49 63 44 be 35 ab eb bd 6d 01 39 3d
       0.17159323 -0.191785 -0.115072645 0.045167375
0003b0 90 4e 8d bd 07 93 3c 3b 0d 98 39 3e e3 e8 8e bd
       -0.0689975 0.0028774159 0.18124409 -0.06978013
0003c0 4c 17 9e 3b c1 b8 45 3e 67 89 55 bd 67 e8 44 be
       0.0048245545 0.1930876 -0.05213299 -0.1922928
0003d0 32 f4 32 3e f7 c2 40 be 55 47 27 3d 0b 2a dd 3c
       0.17475966 -0.18824373 0.040839512 0.026997587
0003e0 0e 33 36 be 45 9f 73 be 80 12 27 be 09 be 01 3e
       -0.17792913 -0.23791225 -0.16315651 0.12670149
0003f0 47 d2 e6 3d f4 b0 ac 3d 89 32 38 3e 30 ea 02 3d
       0.11270576 0.08432189 0.17988028 0.03196162

tokenTuringMachineUnit.tokenLearner2.feat_conv.weight f4 [16, 16, 1]
000000 0a ef 14 be d6 8b 70 be 6a e2 4a 3d c4 dc 33 bd
       -0.14544311 -0.23490843 0.04953233 -0.04391171
000010 6b 08 59 be d3 e2 d0 3d 38 c6 7f 3d fa 61 8d 3e
       -0.21194617 0.10199513 0.062444896 0.27613813
000020 3f 82 76 be e3 d7 76 bd 44 0b 82 bc 91 3d 18 be
       -0.24073122 -0.06026448 -0.015874512 -0.14867236
000030 79 5d 9c 3b 49 11 8d 3e ea c5 66 3d c5 75 c8 bc
       0.004771885 0.2755225 0.05634109 -0.02447022
000040 73 d6 3f 3e ad ba 03 3e a1 25 5e be 9d 7f 8b 3d
       0.1873415 0.1286418 -0.21694042 0.0681145
000050 9b a9 4e 3e 00 60 a9 3d 8c 9a c5 3d 07 b5 32 3e
       0.20181887 0.08270264 0.09648618 0.17451869
000060 c7 72 b6 bd 5f 6f b2 3d 37 17 60 3d a6 b0 77 3c
       -0.08908611 0.087126486 0.05470964 0.0151178
000070 a5 02 02 bb ce 4a 39 be 3a 84 48 be ed c3 88 3d
       -0.0019838002 -0.18094942 -0.1958169 0.06677995
000080 c2 42 86 3e 53 07 d2 3d 01 f9 13 bd ed d8 52 3e
       0.26222807 0.10255303 -0.03612614 0.20590563
000090 bf a8 38 3e 84 bf 2c 3e c2 da 56 3e 1e 1d 59 bd
       0.18033122 0.16869932 0.20981887 -0.053006284
0000a0 aa d7 f3 bd a0 94 48 be 4f 42 70 bd f7 61 d5 bd
       -0.11906369 -0.19587946 -0.058656987 -0.10419076
0000b0 8d 3f 00 3d 93 ce 35 be 50 a5 5a 3c 5b 65 6f 3e
       0.031310607 -0.17754583 0.013345078 0.23378508
0000c0 45 0f dd 3d e3 47 55 bd 54 fa 80 be b4 cc 1a 3e
       0.10793928 -0.05207051 -0.25190985 0.1511715
0000d0 f1 92 29 3e 35 81 1b be 66 05 af bd d7 8e 87 be
       0.1655996 -0.15186007 -0.085459515 -0.26476166
0000e0 aa 35 81 3e 0e f4 53 bd c4 87 fd 3c d5 04 1d be
       0.25236255 -0.05174642 0.030948527 -0.15333875
0000f0 0b 3b 87 3d 08 71 10 be 33 6c 24 3d 21 98 b2 3d
       0.066030584 -0.14105618 0.04014225 0.087204225
000100 d8 1a 33 3e 33 47 ca bd d9 3e be 3d e1 8f 2d 3e
       0.17490709 -0.098768614 0.09289331 0.16949417
000110 17 7a 1e bd fd 3f 08 3c 1e 31 b3 3c 90 24 3d 3d
       -0.038690653 0.008316037 0.021874007 0.046177447
000120 ba 16 4b 3d d0 18 33 3d 7a 3e 82 3e 67 3d 2a be
       0.04958222 0.043724835 0.2543829 -0.16624986
000130 29 60 1f 3e a2 51 50 be fd 4f a1 3c e5 97 f4 3d
       0.15564026 -0.2034364 0.019691462 0.11943034
000140 8c 40 48 3e a3 aa 6f 3e e6 20 08 be 2a 20 8c bd
       0.19555873 0.23404936 -0.132938 -0.06842072
000150 cd fe 69 3e a5 ad e8 bc b8 9f e1 bd 39 b1 a5 bc
       0.22851105 -0.028403113 -0.11016792 -0.020226108
000160 1c a1 5b 3e 07 e1 46 3e 85 50 45 3e 2f e8 60 3e
       0.21448177 0.19421779 0.19268997 0.21963571
000170 65 b7 0f be 84 7d 89 be 8d f5 75 3d fe 9c 68 3c
       -0.14034803 -0.26853573 0.06004863 0.014197586
000180 e7 ab d2 bd b1 90 d0 3d 1d 69 52 3d d3 6a c4 bd
       -0.10286694 0.10183848 0.051369775 -0.095906876
000190 a7 6c 6b 3e 09 c7 5e be ea 43 8c bd 91 00 40 be
       0.22990666 -0.21755613 -0.06848891 -0.18750216
0001a0 be ed 4f 3e f2 a3 ae bd 99 df c6 bd 66 f3 dd bd
       0.20305535 -0.08527364 -0.097106166 -0.1083744
0001b0 6e 22 6b be 54 c8 30 3e dc 3c 41 3e 1c cf 90 bc
       -0.22962353 0.17263919 0.18870872 -0.017676882
0001c0 39 af 1d 3e ce c8 40 3e 0a bb bb 3d db b0 14 be
       0.15398873 0.18826601 0.09166534 -0.1452059
0001d0 92 7c 10 3e 50 ef 21 be c1 4c 1c 3e b6 fe 3b be
       0.1411002 -0.15813947 0.15263654 -0.18358883
0001e0 d4 0c 2d 3e 00 c9 33 be a4 8f 68 be ca 1a 49 be
       0.16899425 -0.17557144 -0.22711045 -0.19639125
0001f0 52 99 48 3e 45 b5 3e 3e 3e f4 b1 bd 7e 96 c2 3d
       0.19589737 0.18623836 -0.086891636 0.0950136
000200 bc 6f 9c bd 43 3f 23 be dd 1c 2f be 21 38 f7 bd
       -0.07638499 -0.15942101 -0.17100854 -0.120712526
000210 f4 eb a2 3d 57 14 89 3e 61 4d 8d be 2c d6 22 bd
       0.07955161 0.2677333 -0.27598098 -0.03975503
000220 31 10 48 bb 26 d2 0d 3e 03 f1 14 be 09 9b 7a bd
       -0.003052723 0.13849697 -0.14545064 -0.06118301
000230 55 ab fc 3c 96 ad a1 3c fd 69 13 3e 93 a0 1c be
       0.030843416 0.019736093 0.143959 -0.15295629
000240 bd c0 0f 3e fd 5a 27 bd f7 db 32 be 73 62 e0 bd
       0.14038368 -0.040858258 -0.17466722 -0.10956278
000250 e5 f6 09 3e 6d f9 b9 3d e1 7e b2 bc dc 3d e1 bd
       0.13473089 0.09080777 -0.021789016 -0.10998127
000260 62 ca 2b bc 96 da 57 3e ec ab 00 be 0a e9 65 be
       -0.010485264 0.21079478 -0.12565583 -0.22452179
000270 b6 c5 39 bd 2b 85 22 3d 99 20 85 3e 83 da d4 bd
       -0.045354567 0.03967778 0.26001433 -0.1039324
000280 e2 5b 0c 3e 8f 18 f6 3d 02 e6 1a be d3 d8 fe 3d
       0.13706926 0.12016403 -0.15126804 0.124437
000290 b9 cd 76 be a5 88 06 3e 8d ab 15 3e 19 35 42 bd
       -0.24101914 0.13138063 0.14616223 -0.04741392
0002a0 ba b7 a9 bd 1d 7e 1d be 33 cb 77 3e 32 75 91 3d
       -0.08286996 -0.1538014 0.24198608 0.07102431
0002b0 e4 08 89 bd 52 4a 9b 3e 94 93 38 3e 9b 29 0d 3e
       -0.06691149 0.3033014 0.18025047 0.13785402
0002c0 90 e5 8e 3d 21 91 23 be 7a a7 d2 3d e0 13 08 3e
       0.06977379 -0.15973331 0.1028585 0.13288832
0002d0 b2 a7 82 3e c6 d2 66 be 5c 95 3d bd 0a a4 5c bd
       0.25518566 -0.22541341 -0.04628502 -0.053867377
0002e0 54 62 79 3d a0 44 6d be db 80 ef bc e6 d7 32 3d
       0.06088479 -0.2317071 -0.029236248 0.043662928
0002f0 c4 e8 c6 3c 61 cd 42 bc 7b 7d 2e be a0 0c 60 3e
       0.024280913 -0.011889786 -0.17040055 0.21879816
000300 1e 09 3a 3e 33 97 68 be 37 2f 72 bd ef 72 e1 3c
       0.1816754 -0.22713928 -0.05912706 0.027520625
000310 50 63 3b 3e 58 da 04 3e 0d 05 29 3e 0c 7f 0f be
       0.18299603 0.12973917 0.16505833 -0.14013308
000320 11 1c 5a be 8d 10 1a 3e 35 b7 74 be 94 13 a5 3d
       -0.21299769 0.15045376 -0.23898013 0.08060375
000330 04 9e a3 bd 1e e2 1e be b8 12 f0 bd ca f6 79 3e
       -0.079891235 -0.15515944 -0.1172232 0.24410549
000340 a0 91 78 bc b9 f3 5a bd b7 9a 1a 3e 6f f2 18 be
       -0.015171438 -0.05345509 0.15098082 -0.14936231
000350 13 84 40 3e 85 ff a3 3d 87 54 ac 3d fb e8 ae bd
       0.18800382 0.08007721 0.0841456 -0.08540531
000360 ac 74 b6 bd 76 8c 39 be fe d3 d0 bd 58 8c 5e 3e
       -0.08908972 -0.18119988 -0.10196684 0.21733224
000370 b5 02 49 be 53 de 05 3e c8 1a 28 be cf a5 f1 3d
       -0.19629939 0.13073091 -0.16416466 0.117992036
000380 8f 62 63 3d 65 be 23 bd 84 6c ff 3d 7a 60 47 3d
       0.055513915 -0.039976496 0.124718696 0.04867599
000390 b8 91 34 be 03 0f 6e 3e 2a 1b 06 3d f0 0b 54 be
       -0.17633712 0.23247914 0.03274075 -0.20707679
0003a0 e1 05 44 be c9 2d 30 be 2f 11 77 3d 6c 24 1f 3e
       -0.19142868 -0.17204966 0.060319122 0.15541238
0003b0 17 e5 73 be 61 12 e4 bd 47 72 f0 bb 2f e3 23 3e
       -0.2381786 -0.11136318 -0.0073378417 0.16004632
0003c0 b4 21 85 3e 98 d9 2c 3d 06 63 04 be 87 f2 54 3e
       0.26002276 0.0421997 -0.129284 0.20795642
0003d0 c4 46 c4 bc bc 24 e7 bd 2e 80 09 be d6 0e 07 be
       -0.023959525 -0.112863034 -0.13427803 -0.13189253
0003e0 c3 eb 51 3e e5 d2 34 be 4f 33 42 bc 43 5e f3 3d
       0.20500092 -0.17658575 -0.011853053 0.11883213
0003f0 2b 09 45 bd 27 82 0b bb 3a 42 45 be 08 80 9d bd
       -0.048104446 -0.0021287294 -0.19263545 -0.07690436

tokenTuringMachineUnit.transformerBlock.self_attn.in_proj_weight f4 [48, 16]
000000 19 8f 83 3e 30 ad 91 bc a0 bb 75 be 87 df 30 be
       0.25695112 -0.017782778 -0.23997355 -0.17272769
000010 b0 46 09 bd 52 a6 3b be 41 71 8b 3e 47 47 8d be
       -0.03351468 -0.18325165 0.27234843 -0.27593443
000020 86 10 52 3e 80 15 14 bc 30 9d 96 3c 33 45 91 3e
       0.20514116 -0.009038329 0.0183855 0.28373107
000030 40 51 8c 3c 94 86 56 be 7d 79 97 3e 66 94 46 be
       0.017128587 -0.20949775 0.29584876 -0.19392547
000040 d5 d2 90 3e a4 cb da bd e6 fc 76 be 36 ba 1b 3e
       0.28285852 -0.106833726 -0.2411991 0.15207753
000050 68 cb 01 3e 80 e5 0c 3e 50 b9 22 3e 5a a1 4b 3e
       0.1267525 0.13759422 0.15891004 0.1988577
000060 30 ab 0a 3d 85 8f 8d 3e f8 eb 75 3d 59 b3 59 be
       0.033854663 0.2764856 0.06003949 -0.21259822
000070 12 bd d5 bd c2 fd 7d 3e 01 1c 90 3e 0e fe 19 3e
       -0.10436453 0.24803832 0.28146365 0.1503832
000080 95 4d 77 be a0 e6 28 3e ee a4 4a 3e 7c 4b 8d be
       -0.24150689 0.16494226 0.19789478 -0.27596653
000090 2e b8 f9 bd 52 59 01 3e 24 4f fd 3d f8 3b 3b be
       -0.121933326 0.12631729 0.123686105 -0.18284595
0000a0 ae 73 4b 3e 88 f1 f9 3d 80 a0 38 3d c8 6a 15 3e
       0.19868347 0.122042716 0.04507494 0.14591515
0000b0 ca 13 e5 bd 53 19 80 3e be 9b 65 3e 5b 34 96 be
       -0.11185415 0.2501932 0.22422692 -0.2933682
0000c0 8e bb 69 be 08 5d 03 bd 6a e8 a7 bd fe 80 82 bd
       -0.22825453 -0.032071143 -0.08198626 -0.063722596
0000d0 0c 52 e0 bd e0 b1 c1 bc 92 32 92 be 0a 57 71 3e
       -0.10953149 -0.023644388 -0.28554207 0.23568359
0000e0 86 29 6d be 0e 67 1c be 48 94 53 bd d0 79 eb bd
       -0.23160371 -0.15273687 -0.051655084 -0.11497843
0000f0 8d 12 58 be 76 20 06 3e 58 01 6b 3d 71 bc 96 be
       -0.21100827 0.1309832 0.05737433 -0.29440644
000100 6e 10 28 3e 60 df 3e bc c9 59 9c 3e e3 8e 92 3e
       0.16412517 -0.011649936 0.3053725 0.2862464
000110 6c 5a 88 3d 54 68 91 be d4 28 7a be 5d 1c 90 3e
       0.066578716 -0.2839991 -0.24429637 0.2814664
000120 20 02 f4 bd f8 1d ad 3d 80 92 44 3e a5 ee 96 be
       -0.11914468 0.08452982 0.1919651 -0.29478946
000130 56 f7 34 be 28 dc 86 3d 5a 45 47 3e 87 5b 85 3e
       -0.17672476 0.0658496 0.1946005 0.26046392
000140 a6 0f 65 3e 5a cc 2f be b0 e1 da 3c da b2 b3 bd
       0.2236925 -0.17167798 0.026718944 -0.087743476
000150 ec 40 88 3d cb 3d 2a be e9 98 87 3e 30 68 c5 bd
       0.06653008 -0.16625135 0.2648385 -0.09639013
000160 6a 1a 94 be 1f 5a 98 be ca ed 59 3e cf ee 2e be
       -0.28926402 -0.29756257 0.21282116 -0.17083286
000170 02 54 04 3e ea e9 13 3e 3d 57 19 be ea fd da bd
       0.12922671 0.144447 -0.14974685 -0.106929615
000180 18 17 68 bd 34 6c 23 3e 09 38 8d be b4 84 b0 3d
       -0.05666265 0.15959245 -0.27581814 0.08619061
000190 6c c9 27 be 1e 74 38 be b1 99 35 be 20 15 9b 3c
       -0.1638543 -0.18013045 -0.1773441 0.018930972
0001a0 86 d5 65 3e f3 fa 93 3e 90 2c e4 bd a7 59 99 be
       0.22444734 0.28902397 -0.11141312 -0.29951212
0001b0 ca ef c5 bd c6 57 93 be 84 ba 71 be 1a a5 89 bd
       -0.09664877 -0.28777903 -0.23606306 -0.06720944
0001c0 10 3f 06 bd d2 7d db bd a4 c8 6b bd b2 df 69 3e
       -0.032774985 -0.10717358 -0.057564393 0.22839239
0001d0 d6 71 f3 bd a8 a4 33 be 10 29 1a bd c8 44 de 3d
       -0.11886947 -0.1754328 -0.037636817 0.10852963
0001e0 70 93 41 3e 16 58 8c bd b6 a3 09 be 91 5d 90 3e
       0.18903899 -0.068527386 -0.13441357 0.28196386
0001f0 50 b1 7a 3d 0e bf 83 be a0 f4 8c be 00 9b 05 3e
       0.061204255 -0.257317 -0.27530384 0.13047409
000200 25 93 84 3e e6 68 63 be 62 84 1a 3e c0 7d 45 3e
       0.25893512 -0.22207984 0.15089563 0.19286251
000210 80 38 ee bc 1e 99 6d 3e f1 af 97 3e 20 77 97 3d
       -0.029079676 0.23202941 0.2962642 0.07395768
000220 c2 45 4e 3e f4 f3 d5 bd b4 a2 83 be 17 45 0b be
       0.20143798 -0.10446921 -0.2571007 -0.13600574
000230 80 75 14 3e 7d 42 91 3e f8 0c 36 3e a0 a5 08 3d
       0.14497948 0.2837104 0.17778385 0.033361077
000240 30 bc 57 3d 03 b6 85 3e c7 6a 21 be 3f 58 3c be
       0.052669704 0.26115426 -0.15763389 -0.18393038
000250 c0 ad 45 be 80 1c 2e 3d b8 c4 43 3d 1a 29 05 3e
       -0.19304562 0.04250765 0.047795027 0.1300396
000260 06 39 21 3e 22 8a 82 be a0 50 44 be f0 db 59 3d
       0.15744409 -0.25496012 -0.19171381 0.053188264
000270 c0 41 57 3d 50 51 94 bc 50 1b 9a bd 25 e1 88 3e
       0.05255294 -0.01810518 -0.07524741 0.26734272
000280 32 bd 61 3e 72 f3 09 3e 4c 07 89 be 40 9a 7b 3d
       0.22044829 0.13471773 -0.2676338 0.0614264
000290 56 93 79 3e 11 12 77 be ae 6f 11 be e1 41 94 3e
       0.2437261 -0.24127986 -0.14202759 0.28956512
0002a0 2e 36 53 3e 28 16 fb bd 4a 2b 15 be f0 dd c5 bc
       0.20626137 -0.12260085 -0.14567295 -0.02415368
0002b0 15 3c 94 3e e2 19 f5 bd b8 9a 1d 3d a0 13 3b 3d
       0.2895209 -0.119678274 0.03847763 0.045673013
0002c0 a8 1e 3d be 1e 59 b8 bd de ba 4b 3e e9 08 49 be
       -0.18468726 -0.09001373 0.19895503 -0.19632305
0002d0 da 8f 6c 3e cc 16 ee 3d 2c 08 12 3e f0 ba b6 3d
       0.2310175 0.11625442 0.1426093 0.08922374
0002e0 55 84 8e be e2 98 9b be 74 1c 38 be 96 2f 09 3e
       -0.27835336 -0.30390078 -0.17979604 0.13397059
0002f0 20 71 99 be 30 8e 56 bd 0b bf 8e 3e 50 3c 8a bc
       -0.2996912 -0.052381694 0.2788013 -0.016874462
000300 5e e2 29 be 8b 3f 8d 3e 9b 72 99 be 7d 52 95 be
       -0.16590258 0.27587542 -0.2997025 -0.29164496
000310 d1 5c 90 3e 05 4f 09 be 40 39 88 bc cc 4f a8 3d
       0.28195813 -0.1340905 -0.016628861 0.08218345
000320 d6 44 e1 bd 95 f2 0c be fe 1f 51 be 95 e8 90 3e
       -0.109994575 -0.13764413 -0.2042236 0.28302446
000330 ed af 96 3e f9 97 9c be 57 ac 94 3e 8b 6c 8a 3e
       0.29431096 -0.30584696 0.29037735 0.27035937
000340 f2 e2 34 3e 71 a2 96 be 79 bb 2a be ef 04 9b 3e
       0.17664698 -0.29420808 -0.16673078 0.30277202
000350 26 db 8f be 80 55 94 3b 8c 20 f6 3d 10 75 c1 bc
       -0.28096884 0.004526794 0.120179266 -0.02361539
000360 f5 e6 1f be 49 3c 51 be b2 d8 8d bd 7a 62 6e be
       -0.15615447 -0.20433153 -0.06926097 -0.23279753
000370 32 13 63 3e 56 c2 6a be 70 64 91 3d cf 77 9a 3e
       0.22175291 -0.22925696 0.07099235 0.30169532
000380 c6 05 92 be 60 43 61 bc 24 40 4d be d8 37 6d 3d
       -0.2852003 -0.013748974 -0.20043999 0.057914585
000390 2a 66 51 3e 7b ab 8f be 50 f4 ea bd 02 66 5f be
       0.20449129 -0.28060517 -0.1147238 -0.21816257
0003a0 a8 96 28 3d dc 37 84 3d d2 4d 40 be ca a0 5e 3e
       0.041159302 0.06455967 -0.18779686 0.21741024
0003b0 16 75 0e be c2 fb 63 be 60 a5 be bd 48 82 07 3e
       -0.13911852 -0.22264007 -0.093088865 0.13233292
0003c0 41 f0 7f be c0 63 00 3c 71 2f 94 3e 22 58 69 3e
       -0.24993993 0.007836282 0.28942445 0.22787526
0003d0 8a 7f 69 be 78 37 32 bd 56 75 5d be 4a a1 fc bd
       -0.22802559 -0.04350993 -0.21626791 -0.12335451
0003e0 19 32 10 be 37 ac 9b be a8 19 22 bd 32 b9 da bd
       -0.1408161 -0.30404827 -0.03957525 -0.106798545
0003f0 a8 45 94 bd c4 d8 db 3d 3a b7 28 3e 60 42 2b 3d
       -0.072398484 0.10734704 0.16476145 0.041811347

tokenTuringMachineUnit.transformerBlock.self_attn.in_proj_bias f4 [48]
000000 00 00 00 00 00 00 00 00 00 00 00 00 00 00 00 00
       0.0 0.0 0.0 0.0
000010 00 00 00 00 00 00 00 00 00 00 00 00 00 00 00 00
       0.0 0.0 0.0 0.0
000020 00 00 00 00 00 00 00 00 00 00 00 00 00 00 00 00
       0.0 0.0 0.0 0.0
000030 00 00 00 00 00 00 00 00 00 00 00 00 00 00 00 00
       0.0 0.0 0.0 0.0
000040 00 00 00 00 00 00 00 00 00 00 00 00 00 00 00 00
       0.0 0.0 0.0 0.0
000050 00 00 00 00 00 00 00 00 00 00 00 00 00 00 00 00
       0.0 0.0 0.0 0.0
000060 00 00 00 00 00 00 00 00 00 00 00 00 00 00 00 00
       0.0 0.0 0.0 0.0
000070 00 00 00 00 00 00 00 00 00 00 00 00 00 00 00 00
       0.0 0.0 0.0 0.0
000080 00 00 00 00 00 00 00 00 00 00 00 00 00 00 00 00
       0.0 0.0 0.0 0.0
000090 00 00 00 00 00 00 00 00 00 00 00 00 00 00 00 00
       0.0 0.0 0.0 0.0
0000a0 00 00 00 00 00 00 00 00 00 00 00 00 00 00 00 00
       0.0 0.0 0.0 0.0
0000b0 00 00 00 00 00 00 00 00 00 00 00 00 00 00 00 00
       0.0 0.0 0.0 0.0
