check_point/lapalce_noise_ttm_epoch_4.pth (torch, 973453 bytes, 72 tensors)

tokenTuringMachineUnit.tokenLearner1.norm.weight f4 [16]
0	0x3f7f807c	0.99805427
1	0x3f7688d9	0.9630256
2	0x3f7c62e1	0.9858838
3	0x3f7d9e49	0.9906965
4	0x3f7d3621	0.9891072
5	0x3f7e9e5b	0.9946038
6	0x3f78d32f	0.9719724
7	0x3f7807a0	0.96886635
8	0x3f81d483	1.0142978
9	0x3f7faaa7	0.9986977
10	0x3f8212bb	1.0161966
11	0x3f8160e0	1.0107689
12	0x3f7dc277	0.99124855
13	0x3f7a42f6	0.97758424
14	0x3f7f7b7c	0.997978
15	0x3f7dd70c	0.9915626

tokenTuringMachineUnit.tokenLearner1.norm.bias f4 [16]
0	0x3674d74a	3.6484148e-06
1	0x35fc7cf3	1.8811828e-06
2	0x365de22f	3.3063222e-06
3	0x3686ab6c	4.0134673e-06
4	0x365f6e45	3.3293775e-06
5	0x34bf3f51	3.562259e-07
6	0x35a3b73a	1.2197772e-06
7	0x3686789f	4.0075533e-06
8	0x35e1ec2a	1.6832539e-06
9	0xb5c71382	-1.4832333e-06
10	0x36a84813	5.0151807e-06
11	0x367b6089	3.7458105e-06
12	0x3634c395	2.6935934e-06
13	0xb5b5d3cb	-1.3547191e-06
14	0x352f754d	6.5363275e-07
15	0xb5e5c611	-1.7119474e-06

tokenTuringMachineUnit.tokenLearner1.attention_maps.0.weight f4 [16, 16, 1]
0	0x3e7afe7e	0.24511144
1	0x3e016dd3	0.12639551
2	0xbe49137d	-0.1963634
3	0x3e6e205f	0.23254536
4	0xbe2928c6	-0.1651946
5	0xbe0d3752	-0.13790634
6	0x3ccbdd8e	0.024885919
7	0xbddd87a1	-0.10816885
8	0x3e466638	0.19374931
9	0xbdfb4a0f	-0.12269985
10	0x3beef22d	0.007292053
11	0x3e859414	0.26089537
12	0xbdc3ebfc	-0.09566495
13	0x3dbd9ce3	0.092584394
14	0xbda76aed	-0.08174691
15	0xbcfe068c	-0.031008981
16	0x3d57debc	0.05270265
17	0x3d8a82b9	0.067632146
18	0xbe4fdcb1	-0.20299031
19	0x3e0acd79	0.13554944
20	0xbe3a8db1	-0.18218113
21	0xbcddc0b2	-0.027069423
22	0xbe19d1cb	-0.15021436
23	0x3e3e1c77	0.18565546
24	0xbe8dc6d2	-0.2769075
25	0x3e4b67ec	0.19863862
26	0x3e5bc9a3	0.21463637
27	0xbd052c0d	-0.032512713
28	0x3e6bb7a8	0.23019278
29	0x3e5b749c	0.21431202
30	0x3da66d1f	0.08126282
31	0x3e30e982	0.17276576
32	0xbe131b5c	-0.14365906
33	0xbe32a63b	-0.17446224
34	0xbaaec437	-0.0013333623
35	0xbdeb8823	-0.115005754
36	0x3e178929	0.14798416
37	0xbe5e61fb	-0.21717064
38	0xbe22b70c	-0.1589014
39	0xbe19916d	-0.14996882
40	0x3d927128	0.07150489
41	0xbde91996	-0.11381833
42	0x3e5e2f46	0.21697721
43	0xbe1c91e2	-0.15290025
44	0x3b792faf	0.0038022806
45	0xbe56dfa6	-0.20983753
46	0x3e2ef31d	0.17084928
47	0xbe3d0be3	-0.18461566
48	0x3df44d37	0.1192879
49	0xbd4a677c	-0.049415097
50	0xbe0b9f4b	-0.13634984
51	0xbdb53325	-0.08847646
52	0xbbc6b5a2	-0.006064133
53	0x3e3da433	0.18519668
54	0xbd882fa6	-0.06649713
55	0xbe7707f3	-0.24124126
56	0xbd3b131c	-0.04567252
57	0xbde0a7be	-0.10969494
58	0x3e6877ab	0.227019
59	0x3d6659ed	0.056238104
60	0xbe5c6116	-0.2152141
61	0x3e396bad	0.18107481
62	0x3caa4ddd	0.020789081
63	0x3df4933a	0.11942144
64	0xbd9bc71b	-0.07606336
65	0xbd61271f	-0.05496895
66	0xbe48a1a0	-0.19592905
67	0xbe070ec0	-0.1318922
68	0xbd159149	-0.036515508
69	0x3d3a8413	0.045536112
70	0xbde7d041	-0.11319018
71	0x3dbd18b9	0.09233231
72	0xbe0b9678	-0.13631618
73	0x3e63a982	0.22232631
74	0xbdd31cad	-0.10308204
75	0xbe25ca0b	-0.16190355
76	0xbdecc85e	-0.115616545
77	0xbd10e22d	-0.035371948
78	0xbe0e738b	-0.13911264
79	0x3e353b6c	0.17698449
80	0xbd361a05	-0.044458408
81	0xbc3eb9d1	-0.011640982
82	0x3e38a4ba	0.18031588
83	0xbe68fc61	-0.22752525
84	0x3e33eaa3	0.17569976
85	0xbdc80191	-0.09765924
86	0xbe5913f5	-0.21199019
87	0x3d71f5b4	0.05907221
88	0x3c2be5ef	0.010491832
89	0xbe58215a	-0.21106473
90	0x3d392318	0.045199484
91	0x3e6392a8	0.22223914
92	0x3e12b970	0.14328551
93	0xbd1d99ac	-0.03847663
94	0xbe087ed0	-0.13329625
95	0xbdb19531	-0.08671034
96	0xbe6f43a5	-0.23365648
97	0x3d80a7a5	0.06281976
98	0x3dd3d720	0.10343766
99	0xbd9c0263	-0.07617643
100	0x3da0d491	0.07853044
101	0xbce7c782	-0.028293375
102	0xbe065a6a	-0.13120428
103	0xbd6f6ec8	-0.05845526
104	0xbe7cea64	-0.24698788
105	0x3e71e5f1	0.23622872
106	0x3e1a05af	0.1504123
107	0xbda4b369	-0.08042032
108	0xbdd2f687	-0.103009276
109	0x3e36d7e7	0.17855798
110	0x3e5a2df9	0.213066
111	0x3e6ac7dd	0.22927804
112	0x3e406546	0.18788633
113	0xbc11e3b6	-0.008904388
114	0x3d8a1175	0.06741611
115	0xbe4d1f98	-0.20031583
116	0xbd8250a9	-0.06363041
117	0x3defd9ca	0.11711462
118	0xbda7194a	-0.081591204
119	0xbd533967	-0.051568415
120	0xbd93f192	-0.0722381
121	0xbdc2cb06	-0.0951138
122	0x3e5e96f1	0.21737267
123	0xbd809cc5	-0.062799014
124	0x3e75e0e9	0.24011578
125	0x3d1af806	0.03783419
126	0x3e0a6df1	0.13518502
127	0xbe128761	-0.14309455
128	0x3ddb9010	0.10720837
129	0xbe47018d	-0.19434185
130	0x3e6163fb	0.22010796
131	0xbd5b4da9	-0.05354086
132	0xbe00cbb0	-0.125777
133	0x3e7de1ae	0.24793121
134	0xbcb6e192	-0.022324357
135	0xbd9b2c5c	-0.0757682
136	0xbdda5985	-0.10661606
137	0x3e0a4687	0.13503467
138	0x3d52e7a7	0.051490452
139	0x3e5b9b4f	0.21445964
140	0x3e74894d	0.23880501
141	0x3d87f733	0.066389464
142	0xbe0ba1c5	-0.13635929
143	0x3e4967b0	0.1966846
144	0x3df40ea9	0.11916859
145	0xbd8a6fa8	-0.06759578
146	0xbe6bf4f3	-0.2304266
147	0xbe33d874	-0.17563039
148	0xbe0cd72f	-0.13753961
149	0x3e77a55a	0.2418417
150	0xbd4f81d4	-0.050660923
151	0x3dfee47d	0.124459244
152	0xbdf81a53	-0.12114396
153	0x3d6ddcb4	0.058071807
154	0xbdffe6d9	-0.124952026
155	0xbdfc6fc2	-0.123260036
156	0x3dd292a1	0.102818735
157	0x3d37da89	0.044886146
158	0xbc8e87f7	-0.017398817
159	0x3e3c7e6d	0.18407603
160	0x3c8a7d41	0.016905429
161	0x3e512e02	0.20427707
162	0xbc74dc9a	-0.014945174
163	0xbe706f4a	-0.23479953
164	0xbe6ed44f	-0.23323177
165	0x3e4e512f	0.20148157
166	0x3ce4e0f5	0.0279393
167	0xbd47832a	-0.048709072
168	0xbda9b655	-0.0828673
169	0x3e289cf9	0.1646613
170	0x3e373d0a	0.17894378
171	0x3dd527a3	0.10407951
172	0x3dae4d5c	0.08510849
173	0xbdf621b3	-0.12018146
174	0xbde01ed0	-0.10943377
175	0xbddce6fe	-0.10786246
176	0x3d755ca8	0.059902817
177	0x3e4268e8	0.18985331
178	0x3dfc14a3	0.12308624
179	0x3e174532	0.1477249
180	0x3e7bb2e6	0.24579963
181	0x3d0c4696	0.034247003
182	0xbe7c326a	-0.24628606
183	0x3e27c9e2	0.16385606
184	0x3e7525b9	0.23940171
185	0x3e3e1ac9	0.18564905
186	0xbe04888e	-0.12942716
187	0x3c6e9627	0.014562166
188	0xbe0b2ba9	-0.13590874
189	0xbd8b5bc7	-0.068046145
190	0xbe1d8a5f	-0.15384816
191	0xbe0eed7f	-0.13957785
192	0xbe0702ae	-0.13184616
193	0x3e36e0aa	0.1785914
194	0xbe7505cc	-0.23927993
195	0x3e60db59	0.21958674
196	0x3ca76505	0.020433912
197	0x3d22a408	0.039707214
198	0x3e3b7bf0	0.18308997
199	0xbdbc4043	-0.091919445
200	0x3e86c2e3	0.26320562
201	0x3ba78be7	0.005113113
202	0xbd134d75	-0.03596254
203	0xbc9eefd2	-0.019401465
204	0xbd710863	-0.05884589
205	0xbdf667d1	-0.1203152
206	0xbe55f06f	-0.208925
207	0xbd28d26f	-0.04121631
208	0xbd003c64	-0.031307593
209	0xbdd62acd	-0.10457382
210	0x3e6654a4	0.22493225
211	0x3e440e93	0.19146185
212	0xbdc5d32d	-0.09659419
213	0x3de53f96	0.11193769
214	0xbe32037f	-0.17384146
215	0xbe53575d	-0.20638795
216	0x3dabf8f0	0.083970904
217	0x3d4dcc0c	0.050243422
218	0xbd753f9a	-0.05987511
219	0xbe4c1be8	-0.1993252
220	0xbe5c8c97	-0.21538006
221	0x3e3d7fd8	0.185058
222	0x3d1b9459	0.037983272
223	0xbe0098d4	-0.125583
224	0x3e450100	0.19238663
225	0xbdc6d437	-0.097084455
226	0xbd4c85a9	-0.049932156
227	0x3e666541	0.22499563
228	0xbe264d9f	-0.16240548
229	0xbe14b8aa	-0.14523569
230	0x3d8e43fb	0.0694656
231	0xbdcd7e71	-0.100338824
232	0xbd98c557	-0.074595146
233	0x3e6a631e	0.22889373
234	0xbe79d347	-0.24397002
235	0xbe0f47f8	-0.13992298
236	0x3dbcc222	0.092167154
237	0x3d99c91b	0.07509061
238	0xbe85e732	-0.2615295
239	0x3e06253f	0.13100146
240	0xbe6dd975	-0.23227485
241	0x3ce81172	0.028328631
242	0x3bd79d1b	0.0065800077
243	0x3bc46890	0.00599391
244	0x3d9eca43	0.07753422
245	0xbcb4fd6d	-0.0220935
246	0xbde57a2b	-0.11204942
247	0x3e43ad4b	0.19109075
248	0x3c92b9ad	0.017910803
249	0x3e5c17b5	0.21493419
250	0xbe1f9621	-0.15584613
251	0xbcc5a98f	-0.024128703
252	0xbe4498c1	-0.19198896
253	0xbe10a9c9	-0.14127268
254	0x3e0a9da2	0.13536695
255	0xbe2f8b8a	-0.17143074

tokenTuringMachineUnit.tokenLearner1.attention_maps.1.weight f4 [8, 16, 1]
0	0x3e5eb869	0.21750034
1	0x3e146232	0.14490584
2	0x3ba2a4cd	0.0049634934
3	0xbe3cb6ea	-0.18429151
4	0x3dc2ae77	0.09505933
5	0x3e5ef6e5	0.2177387
6	0xbd8a9850	-0.067673326
7	0x3e3a96d2	0.18221596
8	0xbe6586d9	-0.22414722
9	0xbd88c23f	-0.066776745
10	0x3e42fd81	0.19042017
11	0xbd4e0b74	-0.05030389
12	0x3d1630b9	0.03666756
13	0x3dfe3993	0.12413325
14	0x3df44aef	0.11928355
15	0xbd5d603e	-0.05404686
16	0xbe22f481	-0.15913583
17	0x3dd37d7f	0.10326671
18	0xbe70341c	-0.23457378
19	0x3d3b7d1f	0.04577362
20	0x3e40e1c4	0.18836123
21	0x3e3b9a14	0.18320495
22	0xbcdd185e	-0.026989158
23	0x3d586600	0.05283165
24	0xbe0cd9df	-0.13754986
25	0xbe3a6513	-0.18202619
26	0x3d8a0e4d	0.06741009
27	0xbe8849b8	-0.26618743
28	0xbdda2b17	-0.1065275
29	0xbe680ea0	-0.22661829
30	0xbe49d6fa	-0.19710913
31	0xbd131b80	-0.035914898
32	0x3da4bf4a	0.08044298
33	0x3c5701ad	0.013122958
34	0x3d7e6a0c	0.062112853
35	0xbe2b8187	-0.1674863
36	0x3e1038c8	0.1408416
37	0xbe1f368b	-0.1554815
38	0x3e238156	0.15967306
39	0x3d48f08b	0.049057525
40	0xbe62fce7	-0.22166787
41	0x39a716f7	0.00031869832
42	0x3e63d926	0.22250804
43	0x3d43ccb9	0.04780266
44	0xbe4be9e2	-0.19913438
45	0x3e2e69be	0.17032525
46	0xbe01706e	-0.12640545
47	0x3d3f1fa8	0.04666105
48	0x3e76d686	0.24105272
49	0x3c07ef05	0.008296733
50	0xbe153c2a	-0.14573732
51	0x3e84e1d4	0.25953543
52	0xbccbfbfe	-0.024900433
53	0x3e719f64	0.23595959
54	0x3d1c1160	0.038102508
55	0x3dba2087	0.09088235
56	0xbd7a14a0	-0.061054826
57	0xbda95c99	-0.08269615
58	0xbdd16aaf	-0.102254264
59	0x3e15e42e	0.14637825
60	0xbd781007	-0.06056216
61	0xbdde0b73	-0.108420275
62	0x3d94db39	0.07268376
63	0x3e204ddf	0.15654705
64	0x3e54077a	0.20705977
65	0x3d44c8a0	0.048042893
66	0xbdc3ba0c	-0.0955697
67	0xbcc1da27	-0.023663593
68	0xbcde6620	-0.027148306
69	0xbdc20bbe	-0.09474896
70	0xbdd09c4f	-0.101860635
71	0x3d569874	0.052391484
72	0x3d97b209	0.074070044
73	0x3e570918	0.20999563
74	0x3e24a0a6	0.16076908
75	0xbdcb372d	-0.09922633
76	0xbc5aca83	-0.013353947
77	0xbe5ed937	-0.21762548
78	0x3d5b0091	0.053467337
79	0xbded5989	-0.11589343
80	0xbe0265b9	-0.12734117
81	0x3d9eb698	0.07749671
82	0x3e2c2ebb	0.16814701
83	0xbe18336b	-0.14863364
84	0x3e3ce6c8	0.18447411
85	0xbdd5c3a8	-0.10437709
86	0x3e5b05c0	0.21388912
87	0x3d505a2f	0.050867256
88	0xbc7e1d61	-0.015509934
89	0xbd9c6194	-0.07635799
90	0x3e23e1b8	0.16004074
91	0x3d26af60	0.040694594
92	0x3e2157cc	0.15756148
93	0x3d3121c5	0.043245096
94	0x3dc391d9	0.095493026
95	0xbe75b832	-0.23996046
96	0x3e59158d	0.21199627
97	0x3e2c5520	0.16829348
98	0x3da35283	0.07974722
99	0x3e43f44b	0.19136159
100	0x3d87f11a	0.06637783
101	0xbdc0445b	-0.09388038
102	0x3dcba37c	0.099432915
103	0x3e7ca711	0.24673106
104	0x3e240143	0.16016106
105	0xbbb13589	-0.005407993
106	0x3e24be5c	0.16088241
107	0x3deed1e9	0.11661131
108	0xbe77ffd2	-0.24218681
109	0xbe24c7cf	-0.16091846
110	0xbe79717a	-0.24359694
111	0x3e38f96b	0.18063895
112	0x3e309d42	0.17247489
113	0xbc2795ca	-0.010228584
114	0x3e1f7bd3	0.15574579
115	0x3e464f78	0.19366252
116	0xbe5b7cfc	-0.21434397
117	0xbd0ba241	-0.034090284
118	0x3e30a8dd	0.17251916
119	0xbe0e10ba	-0.13873568
120	0xbe2b80c7	-0.16748343
121	0x3e6c0c09	0.23051466
122	0xbe4c6f37	-0.199643
123	0xbe16f59e	-0.14742133
124	0xbda3047e	-0.07959841
125	0xbd43abb4	-0.04777117
126	0xbd525dab	-0.05135886
127	0x3d1e7ec1	0.0386951

tokenTuringMachineUnit.tokenLearner1.feat_conv.weight f4 [16, 16, 1]
0	0xbcde8ba7	-0.0271662
1	0x3daa6c19	0.08321399
2	0x3d885684	0.066571265
3	0x3e6eaace	0.23307344
4	0xbd6685de	-0.05628001
5	0x3d151ab5	0.036402423
6	0xbe669ee9	-0.22521557
7	0xbe4c1424	-0.19929558
8	0xbcec1476	-0.02881835
9	0x3db4d05e	0.088288054
10	0xbda95ab3	-0.08269253
11	0xbdc629d6	-0.09675948
12	0x3d843f43	0.06457379
13	0x3dbaaf25	0.091154374
14	0x3d753958	0.05986914
15	0xbde1302e	-0.10995518
16	0xbdf6eeb7	-0.1205725
17	0xbe187e29	-0.14891876
18	0x3e4697b8	0.19393814
19	0x3e0be3ec	0.13661164
20	0xbe5b76e2	-0.21432069
21	0xbdd3a6b8	-0.103345335
22	0x3b80508f	0.0039158533
23	0x3e5934db	0.21211569
24	0xbe72469d	-0.2365975
25	0x3d8878ed	0.0666369
26	0x3df213e6	0.118202016
27	0x3d3da6cb	0.046301644
28	0x3e2e595a	0.17026272
29	0xbdf64da6	-0.12026529
30	0x3e6fb574	0.23409063
31	0x3d4bcd79	0.0497565
32	0x3e3067c1	0.17227079
33	0xbe07998d	-0.13242169
34	0xbdaa676c	-0.083205074
35	0xbe1cd7e8	-0.15316737
36	0xbe7632ca	-0.24042812
37	0xbe3cb953	-0.1843007
38	0x3a24a8cc	0.0006281256
39	0x3ddc245c	0.107491225
40	0xbe3fae0b	-0.18718736
41	0xbe36d792	-0.17855671
42	0xbe27ff0e	-0.1640589
43	0x3ddb8a40	0.107197285
44	0x3e357545	0.17720516
45	0xbde9ef54	-0.11422601
46	0xbbdf814f	-0.0068208347
47	0xbe559c3f	-0.20860384
48	0xbdda15cf	-0.10648691
49	0x3e04d37c	0.129713
50	0xbd673ed7	-0.056456413
51	0x3de8c298	0.11365241
52	0x3e10c719	0.1413845
53	0xbda2aa0e	-0.079425916
54	0xbe6b3b0e	-0.22971746
55	0x3e545c45	0.20738323
56	0x3e65f959	0.224584
57	0xbca6a2a6	-0.020341229
58	0xbd897705	-0.06712154
59	0xbe2ee74e	-0.17080423
60	0xbd96546e	-0.073403224
61	0xbd278eda	-0.04090772
62	0x3e3b57d6	0.18295226
63	0xbe459228	-0.19294035
64	0xbdbc7048	-0.092011034
65	0xbd474433	-0.048649024
66	0x3e6cdece	0.23131868
67	0xbe3a4db5	-0.18193705
68	0x3e571288	0.21003163
69	0xbd320b55	-0.04346784
70	0x3d6128e4	0.054970637
71	0xbe003e83	-0.12523846
72	0x3d9d370e	0.076765165
73	0xbd7c7f3f	-0.06164479
74	0xbe1a5da6	-0.15074787
75	0xbdab6f5c	-0.083708495
76	0x3e58617b	0.21130936
77	0x3e4a08ed	0.19729967
78	0x3e5974c3	0.21235947
79	0x3e01956c	0.12654656
80	0xbd1a9d73	-0.03774781
81	0x3e4c289b	0.19937365
82	0xbe31af45	-0.17352016
83	0x3e70d0ef	0.23517202
84	0xbe6bc87c	-0.23025697
85	0xbe6181a1	-0.22022106
86	0x3d80e1f6	0.06293099
87	0x3e42459c	0.18971866
88	0xbe6a0c17	-0.22856174
89	0x3e0f3edd	0.13988824
90	0x3d721d68	0.059110075
91	0x3d0d217c	0.03445576
92	0x3c57edc9	0.013179251
93	0xbd8f2c1a	-0.069908336
94	0x3e2a19c7	0.16611396
95	0x3e09d58f	0.13460372
96	0xbe795709	-0.24349608
97	0xbe2e1215	-0.16999085
98	0x3e716c47	0.23576461
99	0xbdd5c84a	-0.10438593
100	0xbe527e37	-0.2055596
101	0xbc0901e2	-0.008362265
102	0x3d38a7f8	0.045082062
103	0x3e2f3388	0.17109501
104	0xbe8227ce	-0.25420994
105	0xbd80f78c	-0.06297216
106	0x3d965e6a	0.07342227
107	0xbd7245c5	-0.05914857
108	0xbdc4a645	-0.09602026
109	0xbd2e858d	-0.042607833
110	0xbe14dfbe	-0.14538476
111	0x3e155adc	0.14585441
112	0x3d80b9fb	0.06285473
113	0x3e107e0e	0.14110586
114	0x3be2fd78	0.0069271885
115	0xbe6ca69f	-0.23110436
116	0x3e017513	0.12642317
117	0x3e4ca7b9	0.19985856
118	0xbe40c863	-0.18826441
119	0x3e806d0c	0.25083196
120	0xbe61108a	-0.21978965
121	0x3d280017	0.04101571
122	0x3d956dc5	0.072963275
123	0xbe29e313	-0.16590528
124	0xbe3eaded	-0.18621035
125	0xbd667e14	-0.05627258
126	0x3e754843	0.23953347
127	0xbdf8eaa9	-0.12154133
128	0xbc17c1e4	-0.009262536
129	0xbd398971	-0.04529709
130	0x3bdf1dff	0.0068089957
131	0xbe488642	-0.19582465
132	0xbdad7b00	-0.08470726
133	0xbcbb4f38	-0.022864923
134	0xbe3536f8	-0.1769675
135	0x3e8431f5	0.25819364
136	0xbe0266b9	-0.12734498
137	0xbe25f6af	-0.16207384
138	0x3d3a7b4d	0.045527745
139	0x3df86cb6	0.1213011
140	0xbe3b3320	-0.18281221
141	0xbe0ec55d	-0.13942476
142	0x3d8f8a98	0.070088565
143	0xbdf565e4	-0.11982325
144	0x3d02634e	0.031832986
145	0x3e49aa33	0.19693832
146	0x3def0bcf	0.11672174
147	0xbe3d1a0b	-0.18466966
148	0x3d9eb011	0.07748426
149	0xbd51ab71	-0.05118889
150	0xbcfd791f	-0.030941544
151	0xbe1340f2	-0.14380243
152	0xbb6af0f3	-0.0035849183
153	0x3ccd2c89	0.02504565
154	0x3e3458e1	0.1761203
155	0x3c8d6384	0.017259367
156	0xbd520c8c	-0.051281497
157	0x3e11fada	0.14255849
158	0x3ddf7f46	0.10912947
159	0x3e0c0035	0.13671954
160	0xbbf73d8d	-0.007545179
161	0x3cce7e84	0.025206812
162	0xbdd266ca	-0.10273512
163	0xbe6f5c45	-0.23375042
164	0x3deb05d3	0.1147572
165	0x3a88c42a	0.0010434438
166	0xbdd44dbd	-0.1036639
167	0x3e30bcc1	0.17259504
168	0xbd6e1b4b	-0.058131497
169	0xbdec63a2	-0.11542441
170	0xbe25583c	-0.1614694
171	0xbdb3cbe0	-0.087791204
172	0x3e671758	0.22567499
173	0x3e7d7864	0.24752957
174	0xbe0f92fc	-0.14020914
175	0x3e8500cf	0.2597718
176	0xbddd03d5	-0.107917465
177	0xbe61eecd	-0.22063752
178	0xbe0409c4	-0.1289435
179	0x3d875ccc	0.066094965
180	0xbe033058	-0.1281141
181	0x3d944550	0.07239783
182	0x3e17a3f0	0.14808631
183	0x3e2d763b	0.16939633
184	0x3d64c0a9	0.055847798
185	0x3da532e9	0.08066351
186	0xbe46d310	-0.19416451
187	0xbe744c1b	-0.23857157
188	0x3dbbd74e	0.091719255
189	0xbe5c9a13	-0.2154315
190	0xbcef4c65	-0.029211232
191	0x3dd1bf99	0.102416225
192	0x3e19656d	0.14980097
193	0xbd9165a2	-0.07099463
194	0x3e290762	0.16506723
195	0x3d71b0bf	0.05900645
196	0x3e285707	0.16439448
197	0xbdc12c8d	-0.094323255
198	0x3e0f6356	0.14002737
199	0xbddaea83	-0.10689261
200	0x3dc30af4	0.095235735
201	0x3aba7b5b	0.0014227437
202	0x3d6add74	0.0573401
203	0x3d629fb4	0.055328086
204	0x3e29a78d	0.16567822
205	0xbe487b28	-0.1957823
206	0xbe0aa1e5	-0.1353832
207	0xbe2d60d5	-0.1693147
208	0xbe35f0a0	-0.17767572
209	0xbe71550f	-0.23567604
210	0xbd1581e8	-0.03650084
211	0xbe1e2172	-0.15442446
212	0xbdcc54bf	-0.099771015
213	0xbd824a35	-0.0636181
214	0x3dd57d8f	0.10424339
215	0xbe3baef3	-0.18328457
216	0xbe328843	-0.17434792
217	0xbda67653	-0.08128037
218	0xbe7c54da	-0.24641743
219	0xbd35a545	-0.044347066
220	0xbe6b2031	-0.22961499
221	0x3d868683	0.06568625
222	0x3b0f97f7	0.0021910646
223	0xbddfc671	-0.109265216
224	0xbe86da90	-0.26338625
225	0xbdbdb8d9	-0.092637725
226	0x3e65be5d	0.22435899
227	0xbce6fe95	-0.028197566
228	0x3e081ef7	0.13293062
229	0xbd38f788	-0.04515794
230	0x3e4ba7bc	0.19888204
231	0x3c908666	0.017642211
232	0xbd33736e	-0.043811254
233	0x3e722bfc	0.23649591
234	0xbe5364e4	-0.20643955
235	0xbe27d4b0	-0.16389728
236	0x3b8163aa	0.0039486485
237	0xbda1ce24	-0.07900646
238	0xbe5bec62	-0.21476892
239	0x3e3261d8	0.17420137
240	0xbdbc3b7e	-0.09191035
241	0xbbbc0e20	-0.0057389885
242	0xbe6a2af8	-0.22867954
243	0x3e2d48c5	0.1692229
244	0xbe3d813d	-0.18506332
245	0x3e299e17	0.16564213
246	0x3dffda8d	0.12492857
247	0x3e053b1d	0.13010831
248	0xbe6c480c	-0.23074359
249	0x3d64ccd7	0.055859413
250	0xbc61a136	-0.013771346
251	0x3db18972	0.08668794
252	0x3e642283	0.2227879
253	0xbe5ce51c	-0.21571773
254	0xbacb1a0f	-0.0015495437
255	0xbe36efda	-0.17864934

tokenTuringMachineUnit.tokenLearner2.norm.weight f4 [16]
0	0x3f75503c	0.9582555
1	0x3f75aa6d	0.95963174
2	0x3f78d80b	0.97204655
3	0x3f77358e	0.9656609
4	0x3f7589ab	0.9591319
5	0x3f75b339	0.959766
6	0x3f74c2bf	0.9560966
7	0x3f74669c	0.9546907
8	0x3f741cca	0.9535643
9	0x3f7a38d1	0.97742945
10	0x3f789159	0.9709678
11	0x3f78476b	0.96983975
12	0x3f773587	0.9656605
13	0x3f74d183	0.9563219
14	0x3f760cf0	0.9611349
15	0x3f76f8d3	0.96473426

tokenTuringMachineUnit.tokenLearner2.norm.bias f4 [16]
0	0x3419334a	1.4267894e-07
1	0x35da767d	1.627675e-06
2	0x35a842d6	1.2536427e-06
3	0xb58d21ad	-1.051512e-06
4	0x350947a7	5.1140745e-07
5	0xb5c1a1d4	-1.4426719e-06
6	0x350d0702	5.253679e-07
7	0xb5679f0d	-8.6285655e-07
8	0x352ea084	6.505363e-07
9	0xb5836dbd	-9.792199e-07
10	0x349e972b	2.9539783e-07
11	0x356c7f46	8.810206e-07
12	0xb345fc64	-4.6097185e-08
13	0x35ce71a2	1.5381268e-06
14	0x359f493a	1.1867735e-06
15	0x356606d0	8.569159e-07

tokenTuringMachineUnit.tokenLearner2.attention_maps.0.weight f4 [16, 16, 1]
0	0x3e08c7e1	0.13357498
1	0x3dc14bfd	0.09438322
2	0x3e0e959b	0.13924257
3	0x3e747c95	0.2387565
4	0xbe00c98d	-0.12576886
5	0xbe58e2eb	-0.21180312
6	0x3da9b1dd	0.08285878
7	0x3d41fcb2	0.04736013
8	0x3cb146cc	0.021640204
9	0xbe3d8295	-0.18506844
10	0xbc8b3d9d	-0.016997153
11	0x3c97edb0	0.018545955
12	0xbdc70bf7	-0.09719079
13	0xbe2d5920	-0.1692853
14	0xbe2b2db4	-0.16716653
15	0xbe58b733	-0.21163635
16	0xbe0f11cd	-0.13971634
17	0x3db73c4b	0.08947047
18	0xbccecf62	-0.025245372
19	0x3d888a83	0.06667044
20	0x3e1f8aa6	0.15580234
21	0xbe49dec9	-0.19713892
22	0x3e2aba29	0.16672577
23	0xbd47a54a	-0.048741616
24	0xbd32319c	-0.043504342
25	0x3e045322	0.12922338
26	0xbe383d96	-0.17992243
27	0xbcde6e32	-0.027152155
28	0xbd7b43ef	-0.061344083
29	0xbdad0719	-0.084486194
30	0xbda40315	-0.080084
31	0x3e094c43	0.13407998
32	0x3e6cffcf	0.23144458
33	0x3e7069e6	0.23477897
34	0xbdd4d87e	-0.10392855
35	0xbd9fcea7	-0.07803088
36	0xbdeea84e	-0.11653195
37	0xbe60a497	-0.21937786
38	0xbb9233ec	-0.004461756
39	0xbda62351	-0.08112205
40	0xbe4e2a17	-0.20133244
41	0x3e316e73	0.1732729
42	0x3df014d9	0.117227264
43	0xbe221817	-0.15829502
44	0x3d8af55e	0.06785081
45	0x3dd47912	0.10374655
46	0x3e76377d	0.24044605
47	0xbe3df288	-0.1854955
48	0xbda47155	-0.08029429
49	0x3db732f3	0.08945265
50	0x3e4d89fd	0.2007217
51	0xbdfdb133	-0.12387314
52	0x3e587159	0.21136989
53	0x3e5b27a7	0.21401845
54	0xbcf1c7bc	-0.029514186
55	0xbdddc1bf	-0.1082797
56	0xbc7d8bc9	-0.015475222
57	0xbcdc3536	-0.026880842
58	0xbc1e1954	-0.009649593
59	0xbe2d47bb	-0.16921894
60	0x3dd7383f	0.10508775
61	0xbdca6f84	-0.09884551
62	0xbe06cecd	-0.13164826
63	0x3e6c91c4	0.2310248
64	0xbc2d7c60	-0.010588735
65	0x3cd9595b	0.026531866
66	0xbdb944bf	-0.090463154
67	0xbdb5b667	-0.08872681
68	0xbe70c095	-0.23510964
69	0x3da4ecef	0.08053004
70	0x3cd500bc	0.026001327
71	0xbe3cfcf8	-0.18455875
72	0x3d239303	0.039935123
73	0x3e6a9e94	0.22912055
74	0x3e30ddda	0.1727213
75	0x3e67c9cf	0.22635578
76	0xbe4b6773	-0.19863681
77	0xbdd95860	-0.10612559
78	0xbe48899a	-0.19583741
79	0x3d68f5a0	0.05687487
80	0xbdd9aa15	-0.10628144
81	0xbe672831	-0.22573926
82	0x3d37bc3b	0.044857245
83	0x3e15146c	0.14558572
84	0xbd90257b	-0.07038399
85	0x3c9f8060	0.019470394
86	0x3cea4bbe	0.02860057
87	0x3dd8b015	0.1058046
88	0x3e384043	0.17993264
89	0x3c48ec68	0.012263395
90	0xbe01ec5f	-0.12687825
91	0xbe604868	-0.21902621
92	0xbdbc86d0	-0.09205401
93	0x3d3e0a17	0.04639634
94	0xbcd733c0	-0.026269794
95	0x3e68637e	0.22694203
96	0x3d84c67b	0.0648317
97	0xbe08a16f	-0.13342832
98	0xbe61e6c8	-0.22060692
99	0xbe2af047	-0.16693221
100	0xbd2374bb	-0.039906245
101	0x3d495d9c	0.04916154
102	0x3e3b59b4	0.18295938
103	0xbe15355a	-0.14571133
104	0xbd8885fd	-0.06666181
105	0x3e1318d3	0.14364938
106	0xbcb39aba	-0.021924365
107	0xbd878276	-0.0661668
108	0xbd93e4b5	-0.07221357
109	0xbe0c6e59	-0.1371397
110	0x3e23e38d	0.16004772
111	0x3e1edea9	0.15514626
112	0x3d9da995	0.07698361
113	0xbd1179c6	-0.035516523
114	0x3e5421f2	0.20716074
115	0xbd9e4e40	-0.07729769
116	0xbe39cb4a	-0.18143955
117	0xbcb38a79	-0.021916615
118	0x3d91a470	0.07111442
119	0xbc84924b	-0.01618304
120	0x3d4588b2	0.048226066
121	0x3d071bed	0.032985616
122	0x3dde9e25	0.108700074
123	0x3cfbb397	0.030725284
124	0xbd157722	-0.036490567
125	0x3e54bb6f	0.20774625
126	0x3deca704	0.11555293
127	0x3df0bd7b	0.117548905
128	0xbdfe0fca	-0.12405355
129	0x3e51164a	0.20418659
130	0xbe3fd3bb	-0.18733113
131	0x3e5dfaf3	0.21677761
132	0xbe5c6b7d	-0.21525379
133	0x3daa1406	0.083046004
134	0xbd53b7d0	-0.05168897
135	0xbe17767a	-0.14791289
136	0xbe538f29	-0.2066008
137	0xbe6042b8	-0.21900451
138	0xbe0b47bc	-0.13601583
139	0x3df4fc34	0.119621664
140	0xbe5d42ea	-0.21607557
141	0x3aef26ee	0.0018245855
142	0x3d8c7b0f	0.06859409
143	0xbdbc7b2c	-0.09203181
144	0x3ab49b57	0.0013779205
145	0x3e4703a3	0.19434981
146	0xbe27d88a	-0.16391197
147	0x3e4eb563	0.20186381
148	0x3e203baa	0.1564776
149	0x3e0665a1	0.13124706
150	0x3e27a894	0.16372901
151	0xbe0226c2	-0.12710097
152	0x3cd176cd	0.025569344
153	0x3d09b903	0.033623707
154	0xbe6a98bc	-0.22909826
155	0xbe4cf17e	-0.20013997
156	0x3e570af5	0.21000274
157	0x3d29f820	0.041496396
158	0xbd820a73	-0.06349649
159	0x3e253964	0.16135174
160	0xbdbe04cf	-0.09278261
161	0xbc7ea229	-0.015541592
162	0x3da90a5f	0.08253931
163	0x3e4c0492	0.19923618
164	0x3e047174	0.12933904
165	0x3c504b4b	0.012713264
166	0x3db4f66e	0.08836065
167	0x3dff44e9	0.124643154
168	0xbe090024	-0.1337896
169	0xbdfc9025	-0.12332181
170	0xbe2e3547	-0.17012511
171	0x3dc948e0	0.09828353
172	0xbdd7cea5	-0.10537461
173	0xbe40e9fa	-0.18839255
174	0xbe597eee	-0.21239826
175	0x3dc4c212	0.096073285
176	0xbdb7b510	-0.08970082
177	0x3e11b859	0.1423048
178	0x3e44970b	0.19198243
179	0xbe515642	-0.20443061
180	0xbd737d32	-0.059445567
181	0xbe2cb5ff	-0.16866301
182	0xbdf77c6f	-0.12084281
183	0xbd7dd32a	-0.06196896
184	0xbd5192b9	-0.051165316
185	0xbdacde2f	-0.08440816
186	0xbdd756b7	-0.105145864
187	0x3e3af949	0.18259157
188	0x3e12477e	0.14285085
189	0x3c3266fa	0.010888809
190	0xbca9a3bd	-0.02070796
191	0x3dc39a96	0.09550969
192	0xbd8f1828	-0.06987029
193	0x3dd33b41	0.10314036
194	0x3e5a6de5	0.21330984
195	0xb9d85cb6	-0.00041267805
196	0x3de6e612	0.11274351
197	0xbc344fae	-0.011005325
198	0x3e2c4c5a	0.16826001
199	0xbe00c349	-0.12574495
200	0x3dc0fde9	0.094234295
201	0xbd428d84	-0.04749824
202	0x3e4877ac	0.19576901
203	0x3d137a1f	0.036005136
204	0xbe744627	-0.23854886
205	0x3e0a279b	0.13491671
206	0xbdacae18	-0.08431643
207	0x3b8b4ee9	0.00425135
208	0x3e4b41e8	0.1984936
209	0x3e166b40	0.1468935
210	0x3e1beecd	0.15227814
211	0x3d831965	0.06401328
212	0x3e31aa8d	0.17350216
213	0x3d923af1	0.071401484
214	0xbe3a8b9b	-0.18217318
215	0x3ac4e1ef	0.0015020947
216	0x3e1ae0da	0.15124837
217	0xbe5b1255	-0.21393712
218	0xbde590f8	-0.11209291
219	0xbe0bdd80	-0.13658714
220	0xbd1e17c4	-0.038596883
221	0x3e3ce144	0.18445307
222	0x3e0ecae7	0.13944589
223	0x3e0719d9	0.13193454
224	0xbd8a0314	-0.06738868
225	0x3dea0545	0.11426786
226	0x3d2ad536	0.04170724
227	0xbe65124a	-0.22370258
228	0x3e554b9b	0.20829622
229	0xbe49dcd2	-0.19713143
230	0x3d02269d	0.031775106
231	0xbe4a51f5	-0.19757827
232	0x3e2dbac5	0.16965778
233	0xbda5b90e	-0.08091937
234	0xbd280fdd	-0.041030753
235	0x3e2339f5	0.15940078
236	0xbe511498	-0.20418012
237	0xbdf5c683	-0.12000754
238	0xbe3589d1	-0.17728354
239	0xbccb997e	-0.024853464
240	0xbe2e22b3	-0.17005424
241	0x3e36773e	0.17818925
242	0xbe02c225	-0.12769373
243	0x3df135b6	0.11777823
244	0x3e14b5a9	0.14522423
245	0x3d8890a0	0.0666821
246	0xbd524a07	-0.05134013
247	0xbe5664de	-0.20936915
248	0x3d94efa3	0.072722696
249	0x3ca83b6f	0.020536153
250	0x3e6fc899	0.23416366
251	0xbd7526d4	-0.059851483
252	0xbdbc0569	-0.091807194
253	0x3e76fc96	0.24119791
254	0xbdcfc0ed	-0.101442195
255	0x3d953994	0.07286373

tokenTuringMachineUnit.tokenLearner2.attention_maps.1.weight f4 [128, 16, 1]
0	0xbe2942fb	-0.16529457
1	0x3d5523b6	0.05203601
2	0x3de83c21	0.11339594
3	0xbe35000e	-0.17675802
4	0xbdd620ad	-0.10455451
5	0xbd9543e4	-0.0728834
6	0x3db04216	0.08606355
7	0xbd0df601	-0.034658436
8	0xbdb85abe	-0.09001683
9	0x3c9b056a	0.01892348
10	0xbe1d0890	-0.15335298
11	0x3e105e39	0.14098443
12	0xbe13c9c8	-0.14432442
13	0xbd5fd46e	-0.054645948
14	0x3db3202c	0.08746371
15	0x3b4cfc57	0.0031278336
16	0xbe45c7c1	-0.19314481
17	0x3a12589c	0.0005582662
18	0xbde21942	-0.11039974
19	0x3dc34d09	0.09536178
20	0xbd372d45	-0.044720907
21	0x3bd3272d	0.006443879
22	0xbcdb843b	-0.02679645
23	0xbc4ddb4b	-0.012564491
24	0x3e35010c	0.1767618
25	0x3d46c5e0	0.048528552
26	0xbe1ab69d	-0.15108724
27	0xbde6e168	-0.112734616
28	0xbcc9d021	-0.024635376
29	0x3d84e67d	0.06489275
30	0x3e4b904b	0.19879262
31	0xbdc6c883	-0.09706213
32	0xbdddc3ee	-0.10828386
33	0xbe5ba588	-0.21449864
34	0x3e47a463	0.19496302
35	0xbd57d64a	-0.052694596
36	0xbe3e3f4b	-0.18578832
37	0xbe524289	-0.20533194
38	0x3dd7f311	0.10544408
39	0x3ceaeb03	0.028676515
40	0x3e40e593	0.18837576
41	0xbc81d624	-0.01584918
42	0xbd988cf9	-0.074487634
43	0x3e14d813	0.14535551
44	0xbd6c3cea	-0.05767528
45	0xbcb5c6b5	-0.022189477
46	0x3cb875f0	0.022517174
47	0x3c3a0d01	0.011355639
48	0xbe5d7687	-0.21627246
49	0x3d1ad477	0.03780028
50	0xbd1cda9f	-0.03829443
51	0x3d6ac3e8	0.057315737
52	0x3dfbf43f	0.123024456
53	0xbe0b2e9f	-0.13592003
54	0x3d29d18c	0.041459605
55	0xbcc22c35	-0.02370272
56	0xbdd3c751	-0.10340751
57	0xbe381b29	-0.17979111
58	0x3c55e819	0.013055825
59	0x3d1362cd	0.035982896
60	0xbd13c44b	-0.03607587
61	0xbe24edd6	-0.16106352
62	0xbe332255	-0.17493565
63	0xbca0e392	-0.019639764
64	0x3e5dc9c4	0.21658999
65	0x3cc0c851	0.023533018
66	0x3e53e166	0.20691451
67	0x3d08ba56	0.03338083
68	0xbda2a374	-0.079413325
69	0x3da6d26e	0.08145605
70	0xbe24a656	-0.16079077
71	0xbca89321	-0.020577969
72	0x3e521abb	0.2051801
73	0xbc2baf93	-0.010478872
74	0x3d8ce6c8	0.068799555
75	0x3df93cec	0.12169823
76	0xbc8256e8	-0.01591058
77	0xbe0053bd	-0.12531944
78	0x3ddc02fb	0.10742756
79	0xbdf500d8	-0.119630516
80	0xbda94527	-0.08265143
81	0xbe49cc9e	-0.19706962
82	0xbe5a8034	-0.21337968
83	0x3e3946b3	0.18093376
84	0x3e1a38fe	0.15060803
85	0xbcbcad13	-0.023031747
86	0xbc4b3643	-0.012403074
87	0x3e0d8bcb	0.13822858
88	0xbe48eb2e	-0.19620964
89	0x3e10281d	0.14077802
90	0x3dc58fa4	0.09646538
91	0xbc5a9883	-0.013342026
92	0xbdbf9c96	-0.09356038
93	0x3e2b98f2	0.16757563
94	0xbd8d9da2	-0.06914832
95	0x3e52f9b2	0.20603064
96	0x3dde728a	0.1086169
97	0xbde31ea3	-0.11089828
98	0x3e3fff7b	0.18749802
99	0x3db2581e	0.08708213
100	0xbd3d6b52	-0.046244927
101	0x3d18fb28	0.037348896
102	0xbcf2fd02	-0.02966166
103	0x3e2d6311	0.16932322
104	0x3ae33830	0.0017335471
105	0x3c9be82c	0.019031607
106	0x3e250283	0.1611424
107	0x3e527ecf	0.20556186
108	0xbe3de6cd	-0.18545075
109	0x3df5aef4	0.1199626
110	0x3b98ccd5	0.0046630898
111	0xbdda7b67	-0.106680684
112	0xbe08a049	-0.13342394
113	0x3e4d8a65	0.20072325
114	0x3e2fec31	0.17179944
115	0x3e2ac741	0.16677572
116	0x3e4c1b96	0.19932398
117	0xbdfb8785	-0.12281708
118	0xbe2e9f7e	-0.17053029
119	0xbda93d1e	-0.0826361
120	0xbe37897c	-0.1792354
121	0xbe0c712f	-0.13715051
122	0xbe10cb16	-0.14139971
123	0x3d1bf526	0.03807559
124	0xbdc6d66c	-0.097088665
125	0x3cc2f0d5	0.023796478
126	0x3d7e3a9b	0.06206761
127	0xbe101d9a	-0.14073792
128	0x3dc33366	0.09531288
129	0x3e4eeb03	0.20206837
130	0x3e230121	0.159184
131	0xbe188d76	-0.14897713
132	0x3e53ac1d	0.20671125
133	0xbd485187	-0.048905876
134	0xbdfd1b3d	-0.12358711
135	0x3e04cc86	0.12968644
136	0xbe429a7e	-0.19004247
137	0xbd917437	-0.07102244
138	0xbd68ed2c	-0.05686681
139	0xbe030c49	-0.12797655
140	0x3d371c0a	0.044704475
141	0xbc424d87	-0.011859304
142	0xbdfed45f	-0.1244285
143	0x3e0881ec	0.13330811
144	0xbde8e92c	-0.11372599
145	0xbccc411c	-0.02493339
146	0xbcd256b8	-0.025676116
147	0xbe1fe1bc	-0.15613455
148	0x3dfe0927	0.124040894
149	0xbcd71162	-0.026253406
150	0x3dbe8934	0.09303513
151	0x3e1e0961	0.15433265
152	0x3e24562a	0.16048494
153	0xbe0cac4f	-0.13737606
154	0x3d8a01d6	0.067386314
155	0x3db8f5ef	0.09031283
156	0x3e174d52	0.14775589
157	0x3bbd0ef6	0.0057696057
158	0x3df1d7d2	0.118087426
159	0xbe090549	-0.13380922
160	0xbe290251	-0.1650479
161	0xbd3c30ca	-0.045944966
162	0xbe47fb1c	-0.19529384
163	0xbe5de3d4	-0.21668941
164	0x3e162620	0.14662981
165	0xbd517ce4	-0.051144496
166	0x3dd5bee8	0.10436803
167	0xbe31d656	-0.17366919
168	0x3dc92691	0.09821809
169	0xbe568952	-0.20950821
170	0xbdce9274	-0.100865275
171	0xbe5c5dd4	-0.21520168
172	0x3d55d0ab	0.052200954
173	0xbd864af9	-0.06557269
174	0xbcd9aa5b	-0.02657049
175	0x3d638c7b	0.055553894
176	0xbe2c8f16	-0.16851458
177	0x3c56c56f	0.013108595
178	0x3e3c7269	0.18403019
179	0xbe01e71a	-0.12685814
180	0x3d6acabd	0.057322253
181	0xbded9eb2	-0.11602534
182	0xbe457304	-0.19282156
183	0x3c84c1af	0.016205637
184	0x3e077da4	0.13231522
185	0xbe24f3cb	-0.16108625
186	0x3dbdb49a	0.09262963
187	0xbd461f08	-0.048369437
188	0xbdff0df3	-0.124538325
189	0x3e2d7677	0.16939722
190	0x3e1ef53c	0.15523237
191	0xbe14bb0c	-0.14524478
192	0x3e697fa8	0.22802603
193	0xbe2d0e9d	-0.16900106
194	0xbe1b5d6f	-0.15172361
195	0x3d0fad24	0.03507723
196	0x3e04e0d2	0.12976387
197	0x3dec1adf	0.11528563
198	0x3e2fd120	0.17169619
199	0xbd98c4c0	-0.07459402
200	0x3e1fd08e	0.15606901
201	0x3e1ff086	0.15619096
202	0x3dc0331b	0.093847476
203	0xbe402097	-0.18762432
204	0x3e3fae3a	0.18718806
205	0xbd286590	-0.041112483
206	0xbd86aeda	-0.06576319
207	0xbe023f07	-0.12719356
208	0xbe5ccb41	-0.2156191
209	0x3da6949e	0.08133815
210	0xbbcdcd27	-0.0062805596
211	0xbe016eb3	-0.12639885
212	0xbdfd7a1f	-0.123768084
213	0x3dc925c9	0.0982166
214	0xbe212b1f	-0.15739106
215	0x3da7a2a7	0.0818532
216	0xbd58a61d	-0.052892793
217	0x3dd7d706	0.10539059
218	0x3de9d8cb	0.11418303
219	0xbe2b8a94	-0.16752082
220	0xbe0723d9	-0.13197269
221	0xbca55aa7	-0.020184828
222	0x3db8f755	0.0903155
223	0xbdd52e78	-0.10409254
224	0x3cc21fea	0.023696858
225	0x3d5e16a7	0.05422082
226	0xbe23095f	-0.15921544
227	0x3e406f13	0.18792371
228	0xbe66ec77	-0.22551142
229	0x3d99aea5	0.07504014
230	0xbe1f5412	-0.15559414
231	0x3e6682fa	0.22510901
232	0x3e346ff8	0.17620838
233	0xbe38ca51	-0.18045928
234	0xbe0947a9	-0.13406242
235	0x3d4b7edc	0.04968153
236	0xbdb391ea	-0.08768065
237	0x3be425e9	0.006962527
238	0x3e4c5845	0.19955547
239	0xbd6d2335	-0.057894904
240	0xbc198781	-0.009370686
241	0x3e5410dc	0.20709556
242	0xbd07f7d7	-0.033195343
243	0xbe56153b	-0.20906536
244	0x3e40b69a	0.18819657
245	0xbe5cb1b9	-0.21552171
246	0x3d56404c	0.052307412
247	0xbb292b68	-0.0025813226
248	0xbe4dcdc7	-0.20098029
249	0xbe677898	-0.22604597
250	0xbe410c19	-0.18852271
251	0x3df290d6	0.118440315
252	0x3dc28f0f	0.094999425
253	0x3db33886	0.08751015
254	0x3e49ef5e	0.19720218
255	0x3d4a2689	0.049353156

tokenTuringMachineUnit.tokenLearner2.feat_conv.weight f4 [16, 16, 1]
0	0xbe290c08	-0.16508496
1	0xbe70911b	-0.23492853
2	0x3d28a29a	0.041170694
3	0xbd3314ca	-0.043720998
4	0xbe623425	-0.22090204
5	0x3df45eb7	0.11932128
6	0x3cfd80f6	0.030945282
7	0x3e82490c	0.25446355
8	0xbe6835a3	-0.22676711
9	0xbd56cde7	-0.052442458
10	0xbcfa112e	-0.03052577
11	0xbe1c93de	-0.15290782
12	0x3a59ec2d	0.0008313086
13	0x3e72f7c7	0.23727332
14	0x3d48382c	0.048881695
15	0xbcb4f640	-0.022090077
16	0x3e3f4af1	0.18680932
17	0x3df759ec	0.12077698
18	0xbe622cca	-0.22087398
19	0x3d7af3b7	0.06126758
20	0x3e51a9b4	0.20474893
21	0x3ddb9345	0.10721449
22	0x3d9242be	0.07141636
23	0x3e3066cf	0.17226718
24	0xbdae257e	-0.08503245
25	0x3dd33905	0.1031361
26	0x3d68f6ef	0.05687612
27	0x3c90f3b3	0.01769433
28	0x3bde24af	0.0067792754
29	0xbe468d66	-0.19389877
30	0xbe586844	-0.21133524
31	0x3da04f3e	0.07827614
32	0x3e7fa8cc	0.24966735
33	0x3df4c883	0.11952307
34	0xbd4a3e10	-0.049375594
35	0x3e5a5b3e	0.21323869
36	0x3e2bd4e6	0.16780433
37	0x3e23f356	0.16010794
38	0x3e5ff441	0.21870519
39	0xbd8ccfff	-0.068756096
40	0xbddb9a1d	-0.10722754
41	0xbe43f56e	-0.19136593
42	0xbd9d2959	-0.07673902
43	0xbe036fd0	-0.12835622
44	0x3caedc78	0.021345362
45	0xbe4e4fa3	-0.20147566
46	0x3cbe640b	0.023241064
47	0x3e67fca2	0.22654966
48	0x3e04a6f9	0.1295432
49	0xbd88bfc7	-0.066772036
50	0xbe6e3d3f	-0.23265551
51	0x3e1a2ccf	0.15056156
52	0x3e38bc9f	0.18040703
53	0xbe20d94a	-0.15707889
54	0xbd8d9d0c	-0.0691472
55	0xbe77fc34	-0.24217302
56	0x3e6d9199	0.23200072
57	0xbd84702a	-0.06466706
58	0x3d4e5bb0	0.05038041
59	0xbe0706cd	-0.13186188
60	0x3d94e3e5	0.0727003
61	0xbdd92672	-0.10603036
62	0x3d1fead8	0.039042324
63	0x3db72a28	0.089435875
64	0x3e22130f	0.15827583
65	0xbdac766d	-0.084210254
66	0x3da3fbf7	0.08007043
67	0x3e374507	0.17897426
68	0xbd14debd	-0.036345232
69	0x3b5deaa2	0.0033861776
70	0x3ce86c56	0.028371971
71	0x3d4281a2	0.04748691
72	0x3d5601d7	0.05224785
73	0x3d3ca426	0.04605498
74	0x3e746923	0.23868231
75	0xbe3a0c94	-0.1816886
76	0x3e19f6b0	0.1503551
77	0xbe579990	-0.21054673
78	0x3cd34eaa	0.025794346
79	0x3deba0d2	0.115052834
80	0x3e59627d	0.21228977
81	0x3e663042	0.22479346
82	0xbdf680b7	-0.12036269
83	0xbd8e64aa	-0.06952794
84	0x3e7ba16d	0.24573298
85	0xbce2b8c7	-0.027676
86	0xbdbf183b	-0.093307935
87	0xb9d03099	-0.0003970906
88	0x3e4aa73b	0.19790356
89	0x3e4c9ab1	0.19980885
90	0x3e52bb58	0.20579278
91	0x3e6c1df2	0.23058298
92	0xbe092b24	-0.13395363
93	0xbe793de1	-0.24340011
94	0x3d528c42	0.05140329
95	0x3cb6266b	0.022235116
96	0xbdc20074	-0.09472743
97	0x3db3763f	0.08762788
98	0x3d615974	0.05501695
99	0xbde7036e	-0.11279951
100	0x3e5bddbd	0.21471305
101	0xbe572414	-0.21009856
102	0xbda9c0f1	-0.08288754
103	0xbe43c00f	-0.19116233
104	0x3e54f808	0.20797741
105	0xbda716ee	-0.0815867
106	0xbdb4a1d6	-0.0881993
107	0xbdee427d	-0.116337754
108	0xbe6c925a	-0.23102704
109	0x3e28651e	0.16444823
110	0x3e3dcbab	0.18534724
111	0xbc434330	-0.011917874
112	0x3e2616ea	0.16219679
113	0x3e4168ca	0.1888763
114	0x3daa7972	0.08323945
115	0xbe2cba2c	-0.16867894
116	0x3e071cde	0.13194606
117	0xbe0c8f0a	-0.1372644
118	0x3de7ad0c	0.11312303
119	0xbe4d530e	-0.20051214
120	0x3e45a383	0.19300656
121	0xbe21043b	-0.1572427
122	0xbe5eb2b8	-0.21747863
123	0xbe562105	-0.20911033
124	0x3e50c774	0.20388585
125	0x3e2d0fe4	0.16900593
126	0xbdbf0790	-0.09327614
127	0x3dd27b72	0.102774516
128	0xbd99496a	-0.07484706
129	0xbe19f133	-0.15033416
130	0xbe2b48a8	-0.16726935
131	0xbdd74d69	-0.10512812
132	0x3dbeae20	0.093105555
133	0x3e7e4cb6	0.2483395
134	0xbe71be63	-0.23607783
135	0xbccf35fe	-0.0252943
136	0xbc4f6dec	-0.012660485
137	0x3e027ad8	0.12742174
138	0xbe162580	-0.14662743
139	0xbd4d2f15	-0.05009373
140	0x3d19960b	0.037496608
141	0x3d57ac10	0.052654326
142	0x3e1b2eb4	0.15154535
143	0xbe25a67f	-0.16176794
144	0x3e2c1158	0.16803491
145	0xbd8370c5	-0.064179935
146	0xbe162354	-0.14661914
147	0xbded3bab	-0.115836464
148	0x3e254880	0.16140938
149	0x3dbeffab	0.093261085
150	0x3c20fdb6	0.009826114
151	0xbd995b6d	-0.07488141
152	0xbd26193e	-0.040551417
153	0x3e53f3c7	0.20698462
154	0xbdc94306	-0.09827237
155	0xbe478970	-0.19486022
156	0xbcdcc231	-0.026948066
157	0x3da012a1	0.07816053
158	0x3e7c9c67	0.24669038
159	0xbdb7155c	-0.08939621
160	0x3e002b9c	0.12516636
161	0x3df628fb	0.12019535
162	0xbe227ce1	-0.1586795
163	0x3df56049	0.119812556
164	0xbe805d77	-0.25071308
165	0x3e170838	0.14749229
166	0x3df76b61	0.12081028
167	0xbd8ff5c7	-0.070293
168	0xbd8e21bf	-0.0694003
169	0xbe100d35	-0.14067538
170	0x3e6d18ce	0.23153993
171	0x3d7af0f4	0.061264947
172	0xbd95ac9c	-0.07308313
173	0x3e878b79	0.26473597
174	0x3e31ed0f	0.17375587
175	0x3e10b4c8	0.14131463
176	0x3d42a3d2	0.047519512
177	0xbe18a4a6	-0.14906558
178	0x3da8b402	0.08237459
179	0x3e08a1ca	0.13342968
180	0x3e6e4c50	0.23271298
181	0xbe5e4755	-0.21706899
182	0xbdaec439	-0.0853352
183	0xbdb242ac	-0.08704123
184	0x3dafd069	0.08584673
185	0xbe673fb4	-0.22582895
186	0xbd4d4d29	-0.050122414
187	0x3cb3473f	0.021884559
188	0x3bd49790	0.006487794
189	0xbd62651a	-0.0552722
190	0xbe2b957c	-0.16756243
191	0x3e5a2a48	0.21305192
192	0x3e3ca592	0.18422535
193	0xbe6fe6c3	-0.23427872
194	0xbd67dfd3	-0.05660994
195	0x3d088f35	0.033339698
196	0x3e424379	0.18971051
197	0x3e0588f7	0.13040529
198	0x3e23c981	0.15994836
199	0xbe077183	-0.13226895
200	0xbe5e1753	-0.21688585
201	0x3e137881	0.14401437
202	0xbe726fd7	-0.23675476
203	0x3dbd062b	0.09229692
204	0xbda1496e	-0.07875334
205	0xbe1c123e	-0.15241334
206	0xbdee3f15	-0.11633126
207	0x3e7b215b	0.24524443
208	0xbd13d245	-0.0360892
209	0xbd1f25ae	-0.038854294
210	0x3e07c09e	0.13257071
211	0xbe0eb28d	-0.13935299
212	0x3e307157	0.17230736
213	0x3d9d8025	0.07690457
214	0x3d951e5a	0.0728118
215	0xbdd968b5	-0.106156744
216	0xbd924de5	-0.071437635
217	0xbe369e9b	-0.1783394
218	0xbdf74f25	-0.120756425
219	0x3e4c8731	0.19973446
220	0xbe52df09	-0.20592894
221	0x3dd071ff	0.10177993
222	0xbe23b4a8	-0.15986884
223	0x3de6611a	0.112489894
224	0x3d4b9518	0.049702734
225	0xbd178b20	-0.036997914
226	0x3dfebd84	0.12438491
227	0x3d795556	0.0608724
228	0xbe2e2c00	-0.17008972
229	0x3e64c3dc	0.2234034
230	0x3d457450	0.048206627
231	0xbe5c8c25	-0.21537836
232	0xbe4d2f35	-0.2003754
233	0xbe315fcb	-0.17321698
234	0x3d4e1e63	0.050321948
235	0x3e1e3060	0.15448141
236	0xbe755614	-0.23958617
237	0xbe001c31	-0.12510754
238	0xbaff1f6f	-0.0019464324
239	0x3e205fe0	0.15661573
240	0x3e74e371	0.23914887
241	0x3d4f2a08	0.050577193
242	0xbe136095	-0.14392312
243	0x3e5f653d	0.21815963
244	0xbd045047	-0.03230312
245	0xbdf748bd	-0.120744206
246	0xbe0bbfe7	-0.13647424
247	0xbe10d54e	-0.1414387
248	0x3e5fa079	0.21838559
249	0xbe37080b	-0.17874162
250	0xbce438ce	-0.027859118
251	0x3dcbfdcb	0.099605165
252	0xbd68a3c2	-0.056796797
253	0xbcb11649	-0.021617072
254	0xbe3e3b44	-0.18577296
255	0xbda57086	-0.08078103

tokenTuringMachineUnit.transformerBlock.self_attn.in_proj_weight f4 [48, 16]
0	0x3e838f19	0.25695112
1	0xbc91ad30	-0.017782778
2	0xbe75bba0	-0.23997355
3	0xbe30df87	-0.17272769
4	0xbd0946b0	-0.03351468
5	0xbe3ba652	-0.18325165
6	0x3e8b7141	0.27234843
7	0xbe8d4747	-0.27593443
8	0x3e521086	0.20514116
9	0xbc141580	-0.009038329
10	0x3c969d30	0.0183855
11	0x3e914533	0.28373107
12	0x3c8c5140	0.017128587
13	0xbe568694	-0.20949775
14	0x3e97797d	0.29584876
15	0xbe469466	-0.19392547
16	0x3e90d2d5	0.28285852
17	0xbddacba4	-0.106833726
18	0xbe76fce6	-0.2411991
19	0x3e1bba36	0.15207753
20	0x3e01cb68	0.1267525
21	0x3e0ce580	0.13759422
22	0x3e22b950	0.15891004
23	0x3e4ba15a	0.1988577
24	0x3d0aab30	0.033854663
25	0x3e8d8f85	0.2764856
26	0x3d75ebf8	0.06003949
27	0xbe59b359	-0.21259822
28	0xbdd5bd12	-0.10436453
29	0x3e7dfdc2	0.24803832
30	0x3e901c01	0.28146365
31	0x3e19fe0e	0.1503832
32	0xbe774d95	-0.24150689
33	0x3e28e6a0	0.16494226
34	0x3e4aa4ee	0.19789478
35	0xbe8d4b7c	-0.27596653
36	0xbdf9b82e	-0.121933326
37	0x3e015952	0.12631729
38	0x3dfd4f24	0.123686105
39	0xbe3b3bf8	-0.18284595
40	0x3e4b73ae	0.19868347
41	0x3df9f188	0.122042716
42	0x3d38a080	0.04507494
43	0x3e156ac8	0.14591515
44	0xbde513ca	-0.11185415
45	0x3e801953	0.2501932
46	0x3e659bbe	0.22422692
47	0xbe96345b	-0.2933682
48	0xbe69bb8e	-0.22825453
49	0xbd035d08	-0.032071143
50	0xbda7e86a	-0.08198626
51	0xbd8280fe	-0.063722596
52	0xbde0520c	-0.10953149
53	0xbcc1b1e0	-0.023644388
54	0xbe923292	-0.28554207
55	0x3e71570a	0.23568359
56	0xbe6d2986	-0.23160371
57	0xbe1c670e	-0.15273687
58	0xbd539448	-0.051655084
59	0xbdeb79d0	-0.11497843
60	0xbe58128d	-0.21100827
61	0x3e062076	0.1309832
62	0x3d6b0158	0.05737433
63	0xbe96bc71	-0.29440644
64	0x3e28106e	0.16412517
65	0xbc3edf60	-0.011649936
66	0x3e9c59c9	0.3053725
67	0x3e928ee3	0.2862464
68	0x3d885a6c	0.066578716
69	0xbe916854	-0.2839991
70	0xbe7a28d4	-0.24429637
71	0x3e901c5d	0.2814664
72	0xbdf40220	-0.11914468
73	0x3dad1df8	0.08452982
74	0x3e449280	0.1919651
75	0xbe96eea5	-0.29478946
76	0xbe34f756	-0.17672476
77	0x3d86dc28	0.0658496
78	0x3e47455a	0.1946005
79	0x3e855b87	0.26046392
80	0x3e650fa6	0.2236925
81	0xbe2fcc5a	-0.17167798
82	0x3cdae1b0	0.026718944
83	0xbdb3b2da	-0.087743476
84	0x3d8840ec	0.06653008
85	0xbe2a3dcb	-0.16625135
86	0x3e8798e9	0.2648385
87	0xbdc56830	-0.09639013
88	0xbe941a6a	-0.28926402
89	0xbe985a1f	-0.29756257
90	0x3e59edca	0.21282116
91	0xbe2eeecf	-0.17083286
92	0x3e045402	0.12922671
93	0x3e13e9ea	0.144447
94	0xbe19573d	-0.14974685
95	0xbddafdea	-0.106929615
96	0xbd681718	-0.05666265
97	0x3e236c34	0.15959245
98	0xbe8d3809	-0.27581814
99	0x3db084b4	0.08619061
100	0xbe27c96c	-0.1638543
101	0xbe38741e	-0.18013045
102	0xbe3599b1	-0.1773441
103	0x3c9b1520	0.018930972
104	0x3e65d586	0.22444734
105	0x3e93faf3	0.28902397
106	0xbde42c90	-0.11141312
107	0xbe9959a7	-0.29951212
108	0xbdc5efca	-0.09664877
109	0xbe9357c6	-0.28777903
110	0xbe71ba84	-0.23606306
111	0xbd89a51a	-0.06720944
112	0xbd063f10	-0.032774985
113	0xbddb7dd2	-0.10717358
114	0xbd6bc8a4	-0.057564393
115	0x3e69dfb2	0.22839239
116	0xbdf371d6	-0.11886947
117	0xbe33a4a8	-0.1754328
118	0xbd1a2910	-0.037636817
119	0x3dde44c8	0.10852963
120	0x3e419370	0.18903899
121	0xbd8c5816	-0.068527386
122	0xbe09a3b6	-0.13441357
123	0x3e905d91	0.28196386
124	0x3d7ab150	0.061204255
125	0xbe83bf0e	-0.257317
126	0xbe8cf4a0	-0.27530384
127	0x3e059b00	0.13047409
128	0x3e849325	0.25893512
129	0xbe6368e6	-0.22207984
130	0x3e1a8462	0.15089563
131	0x3e457dc0	0.19286251
132	0xbcee3880	-0.029079676
133	0x3e6d991e	0.23202941
134	0x3e97aff1	0.2962642
135	0x3d977720	0.07395768
136	0x3e4e45c2	0.20143798
137	0xbdd5f3f4	-0.10446921
138	0xbe83a2b4	-0.2571007
139	0xbe0b4517	-0.13600574
140	0x3e147580	0.14497948
141	0x3e91427d	0.2837104
142	0x3e360cf8	0.17778385
143	0x3d08a5a0	0.033361077
144	0x3d57bc30	0.052669704
145	0x3e85b603	0.26115426
146	0xbe216ac7	-0.15763389
147	0xbe3c583f	-0.18393038
148	0xbe45adc0	-0.19304562
149	0x3d2e1c80	0.04250765
150	0x3d43c4b8	0.047795027
151	0x3e05291a	0.1300396
152	0x3e213906	0.15744409
153	0xbe828a22	-0.25496012
154	0xbe4450a0	-0.19171381
155	0x3d59dbf0	0.053188264
156	0x3d5741c0	0.05255294
157	0xbc945150	-0.01810518
158	0xbd9a1b50	-0.07524741
159	0x3e88e125	0.26734272
160	0x3e61bd32	0.22044829
161	0x3e09f372	0.13471773
162	0xbe89074c	-0.2676338
163	0x3d7b9a40	0.0614264
164	0x3e799356	0.2437261
165	0xbe771211	-0.24127986
166	0xbe116fae	-0.14202759
167	0x3e9441e1	0.28956512
168	0x3e53362e	0.20626137
169	0xbdfb1628	-0.12260085
170	0xbe152b4a	-0.14567295
171	0xbcc5ddf0	-0.02415368
172	0x3e943c15	0.2895209
173	0xbdf519e2	-0.119678274
174	0x3d1d9ab8	0.03847763
175	0x3d3b13a0	0.045673013
176	0xbe3d1ea8	-0.18468726
177	0xbdb8591e	-0.09001373
178	0x3e4bbade	0.19895503
179	0xbe4908e9	-0.19632305
180	0x3e6c8fda	0.2310175
181	0x3dee16cc	0.11625442
182	0x3e12082c	0.1426093
183	0x3db6baf0	0.08922374
184	0xbe8e8455	-0.27835336
185	0xbe9b98e2	-0.30390078
186	0xbe381c74	-0.17979604
187	0x3e092f96	0.13397059
188	0xbe997120	-0.2996912
189	0xbd568e30	-0.052381694
190	0x3e8ebf0b	0.2788013
191	0xbc8a3c50	-0.016874462
192	0xbe29e25e	-0.16590258
193	0x3e8d3f8b	0.27587542
194	0xbe99729b	-0.2997025
195	0xbe95527d	-0.29164496
196	0x3e905cd1	0.28195813
197	0xbe094f05	-0.1340905
198	0xbc883940	-0.016628861
199	0x3da84fcc	0.08218345
200	0xbde144d6	-0.109994575
201	0xbe0cf295	-0.13764413
202	0xbe511ffe	-0.2042236
203	0x3e90e895	0.28302446
204	0x3e96afed	0.29431096
205	0xbe9c97f9	-0.30584696
206	0x3e94ac57	0.29037735
207	0x3e8a6c8b	0.27035937
208	0x3e34e2f2	0.17664698
209	0xbe96a271	-0.29420808
210	0xbe2abb79	-0.16673078
211	0x3e9b04ef	0.30277202
212	0xbe8fdb26	-0.28096884
213	0x3b945580	0.004526794
214	0x3df6208c	0.120179266
215	0xbcc17510	-0.02361539
216	0xbe1fe6f5	-0.15615447
217	0xbe513c49	-0.20433153
218	0xbd8dd8b2	-0.06926097
219	0xbe6e627a	-0.23279753
220	0x3e631332	0.22175291
221	0xbe6ac256	-0.22925696
222	0x3d916470	0.07099235
223	0x3e9a77cf	0.30169532
224	0xbe9205c6	-0.2852003
225	0xbc614360	-0.013748974
226	0xbe4d4024	-0.20043999
227	0x3d6d37d8	0.057914585
228	0x3e51662a	0.20449129
229	0xbe8fab7b	-0.28060517
230	0xbdeaf450	-0.1147238
231	0xbe5f6602	-0.21816257
232	0x3d2896a8	0.041159302
233	0x3d8437dc	0.06455967
234	0xbe404dd2	-0.18779686
235	0x3e5ea0ca	0.21741024
236	0xbe0e7516	-0.13911852
237	0xbe63fbc2	-0.22264007
238	0xbdbea560	-0.093088865
239	0x3e078248	0.13233292
240	0xbe7ff041	-0.24993993
241	0x3c0063c0	0.007836282
242	0x3e942f71	0.28942445
243	0x3e695822	0.22787526
244	0xbe697f8a	-0.22802559
245	0xbd323778	-0.04350993
246	0xbe5d7556	-0.21626791
247	0xbdfca14a	-0.12335451
248	0xbe103219	-0.1408161
249	0xbe9bac37	-0.30404827
250	0xbd2219a8	-0.03957525
251	0xbddab932	-0.106798545
252	0xbd9445a8	-0.072398484
253	0x3ddbd8c4	0.10734704
254	0x3e28b73a	0.16476145
255	0x3d2b4260	0.041811347

tokenTuringMachineUnit.transformerBlock.self_attn.in_proj_bias f4 [48]
0	0x00000000	0.0
1	0x00000000	0.0
2	0x00000000	0.0
3	0x00000000	0.0
4	0x00000000	0.0
5	0x00000000	0.0
6	0x00000000	0.0
7	0x00000000	0.0
8	0x00000000	0.0
9	0x00000000	0.0
10	0x00000000	0.0
11	0x00000000	0.0
12	0x00000000	0.0
13	0x00000000	0.0
14	0x00000000	0.0
15	0x00000000	0.0
16	0x00000000	0.0
17	0x00000000	0.0
18	0x00000000	0.0
19	0x00000000	0.0
20	0x00000000	0.0
21	0x00000000	0.0
22	0x00000000	0.0
23	0x00000000	0.0
24	0x00000000	0.0
25	0x00000000	0.0
26	0x00000000	0.0
27	0x00000000	0.0
28	0x00000000	0.0
29	0x00000000	0.0
30	0x00000000	0.0
31	0x00000000	0.0
32	0x00000000	0.0
33	0x00000000	0.0
34	0x00000000	0.0
35	0x00000000	0.0
36	0x00000000	0.0
37	0x00000000	0.0
38	0x00000000	0.0
39	0x00000000	0.0
40	0x00000000	0.0
41	0x00000000	0.0
42	0x00000000	0.0
43	0x00000000	0.0
44	0x00000000	0.0
45	0x00000000	0.0
46	0x00000000	0.0
47	0x00000000	0.0
