check_point/lapalce_noise_ttm_epoch_6.pth (torch, 973453 bytes, 72 tensors)

tokenTuringMachineUnit.tokenLearner1.norm.weight f4 [16]
000000 74 7e 7e 3f 1a e5 72 3f 73 c7 76 3f 90 6b 81 3f
       0.994117 0.9488083 0.96398085 1.011095
000010 dd a6 7f 3f 83 2f 7c 3f 94 34 77 3f 0c 90 76 3f
       0.9986399 0.9851 0.965646 0.9631355
000020 a7 06 84 3f 59 f0 81 3f 4d 14 84 3f 6f 90 84 3f
       1.031453 1.0151473 1.0318695 1.0356578
000030 9e 44 7b 3f cd 48 7f 3f 80 2e 81 3f dc 9a 7c 3f
       0.98151577 0.9972046 1.0092316 0.98673797

tokenTuringMachineUnit.tokenLearner1.norm.bias f4 [16]
000000 da 7d c9 36 cd 2f a1 b5 fb c2 bd b5 34 d2 90 36
       6.004918e-06 -1.2009347e-06 -1.4138344e-06 4.3160053e-06
000010 40 cb 51 b5 d1 4a 9b b5 b8 59 c6 35 65 aa 72 b5
       -7.8154335e-07 -1.1570174e-06 1.4778261e-06 -9.039998e-07
000020 8c f6 f7 b5 c6 55 19 37 df 97 a1 36 de 34 92 b6
       -1.8474689e-06 9.139481e-06 4.815854e-06 -4.3572936e-06
000030 09 de e5 34 c9 c1 3a 36 01 99 df b6 03 b8 37 b2
       4.2816126e-07 2.7828958e-06 -6.66373e-06 -1.0693841e-08

tokenTuringMachineUnit.tokenLearner1.attention_maps.0.weight f4 [16, 16, 1]
000000 0c 09 80 3e ce 10 e7 3d bc 0d 37 be af a9 5c 3e
       0.25006902 0.11282502 -0.17876333 0.21549104
000010 ba 6c 30 be 76 a5 1a be 60 d5 fb 3c 1b b3 d4 bd
       -0.17228976 -0.15102181 0.030741394 -0.10385724
000020 c1 1f 33 3e f6 88 f0 bd 39 3b 85 3c 01 ec 8e 3e
       0.17492582 -0.11744873 0.016263591 0.27914432
000030 95 dc d4 bd 29 cf e3 3d 01 52 98 bd 4b c5 d7 bc
       -0.10393635 0.11123497 -0.07437516 -0.026339194
000040 67 34 84 3d 70 0d 6a 3d 97 71 39 be 55 57 e8 3d
       0.064553075 0.05714172 -0.18109737 0.11344782
000050 bd b9 3d be f9 61 18 bd 60 f3 1d be c5 3c 3e 3e
       -0.18527885 -0.03720281 -0.15424871 0.18577869
000060 7c f0 96 be 0d 7a 4a 3e 1f bb 6a 3e 86 61 25 bc
       -0.2948035 0.19773121 0.22922944 -0.010094052
000070 58 fb 67 3e bf db 6f 3e 11 48 bd 3d 0c ee 31 3e
       0.22654474 0.2342367 0.09242261 0.17375964
000080 4f dd 1c be 3d 6d 25 be 86 6b b7 bc 3c b8 bf bd
       -0.15318798 -0.16154952 -0.022390138 -0.09361312
000090 23 14 1c 3e ae 8d 50 be fb 65 21 be 15 70 21 be
       0.15242057 -0.20366547 -0.15761559 -0.15765412
0000a0 5b c9 b7 3d 19 a7 ee bd 31 57 56 3e 0d ba 31 be
       0.089739524 -0.11652965 0.20931698 -0.17356129
0000b0 96 91 3e 3c 9b d5 67 be 6c d4 28 3e 9a 94 40 be
       0.01163139 -0.22640078 0.16487283 -0.18806687
0000c0 7a ec 04 3e 16 05 52 bd 57 67 ee bd e4 74 de bd
       0.12980834 -0.05127438 -0.11640804 -0.10862139
0000d0 57 bb 3b bb 7e ef 33 3e 96 4f 97 bd df 54 6f be
       -0.0028645599 0.17571828 -0.07388227 -0.2337222
0000e0 13 1e 82 bd 4f a5 f5 bd 36 b9 76 3e 42 1f a3 3d
       -0.063533925 -0.11994421 0.2409409 0.07964946
0000f0 7f 89 58 be 28 1f 4c 3e 73 3f 0f 3d e8 1a ec 3d
       -0.211462 0.1993376 0.03497262 0.115285695
000100 93 9e 8a bd ab ac 88 bd 1a 73 3c be 83 19 15 be
       -0.06768527 -0.06673559 -0.18403283 -0.14560513
000110 d5 41 2c bd 9f 66 15 3d ff df eb bd 06 bd c0 3d
       -0.04205497 0.03647482 -0.11517333 0.09411053
000120 3c f4 1a be eb 5e 69 3e 69 e8 c3 bd d7 a9 15 be
       -0.1513223 0.22790115 -0.09565813 -0.1461557
000130 c7 44 f9 bd c0 f0 dd bc 1e e7 0a be b1 d2 37 3e
       -0.12171321 -0.027092338 -0.13564727 0.17951466
000140 ea 17 0b bd 61 55 20 bc 30 be 4b 3e d3 ec 7e be
       -0.033958353 -0.009785981 0.1989677 -0.24895029
000150 d7 cb 38 3e 48 e7 d0 bd bd 83 61 be 4b 38 78 3d
       0.18046509 -0.102003634 -0.2202291 0.06060056
000160 88 8f 0b bb f9 e2 63 be 64 69 6d 3d f0 05 77 3e
       -0.0021295268 -0.22254552 0.057961836 0.24123359
000170 ae 5d 17 3e 06 19 a8 bc 0a f9 f8 bd ed 75 b9 bd
       0.1478183 -0.020519745 -0.121568754 -0.09055696
000180 b3 1a 62 be bd 56 7c 3d 14 5a f2 3d 65 2c c4 bd
       -0.22080497 0.061606158 0.11833587 -0.0957878
000190 cf 40 a8 3d 4c 78 03 bd d7 02 0f be e8 37 77 bd
       0.08215486 -0.032097146 -0.13965927 -0.06035605
0001a0 3e da 84 be 52 a2 67 3e a8 33 2c 3e c8 3b 73 bd
       -0.25947756 0.22620514 0.1681658 -0.059383184
0001b0 35 63 c6 bd b8 23 49 3e a2 8b 67 3e ee b5 65 3e
       -0.09686891 0.19642532 0.2261186 0.22432682
0001c0 68 db 46 3e f1 98 d2 bc ed 2f af 3d 22 b1 59 be
       0.19419634 -0.025707694 0.08554063 -0.21258977
0001d0 c3 3a 99 bd ac 27 d2 3d ea d0 9d bd 3d 5c 32 bd
       -0.07481911 0.10261473 -0.07705863 -0.043544997
0001e0 8b b2 bd bd 39 f6 ac bd 1d 87 68 3e 86 a9 2d bd
       -0.0926257 -0.08445401 0.22707792 -0.042398
0001f0 6e ca 69 3e a5 e4 4e 3d b7 dc 0f 3e f1 fc 0b be
       0.22831127 0.05051102 0.1404904 -0.13670708
000200 5a 38 c4 3d 5d 61 45 be 34 15 50 3e c8 0a 05 bd
       0.09581061 -0.19275422 0.20320588 -0.032480985
000210 48 d3 04 be 61 83 81 3e 00 8a 83 bc 22 c6 90 bd
       -0.12971222 0.25295547 -0.016057014 -0.07069041
000220 e6 f9 c1 bd 18 89 13 3e 4c 49 19 3d ea 7d 47 3e
       -0.094714925 0.14407766 0.037423417 0.19481626
000230 ea 42 70 3e 8b ab 43 3d 6c e9 16 be 81 0d 4c 3e
       0.23463026 0.047771018 -0.14737481 0.19927026
000240 27 58 ea 3d 97 ba 91 bd 79 af 6d be 84 67 2a be
       0.11442595 -0.07115667 -0.23211469 -0.1664105
000250 68 e7 0e be 31 c4 74 3e 1d e2 27 bd 85 56 f6 3d
       -0.13955462 0.23902966 -0.040987123 0.12028221
000260 63 64 f6 bd 27 49 7b 3d 12 1a 03 be 67 40 05 be
       -0.12030866 0.06134906 -0.12802914 -0.13012849
000270 9a 1e cd 3d 6b da 3c 3d d9 63 92 bc 10 b6 3e 3e
       0.100156024 0.046106737 -0.017869877 0.18624139
000280 56 74 94 3c 4c a1 40 3e 4c d0 27 bc 1e e9 6b be
       0.01812188 0.1881153 -0.010242533 -0.23038146
000290 48 96 7a be 92 9f 41 3e b5 93 23 3d 54 bf 40 bd
       -0.2447139 0.18908527 0.039935786 -0.047057465
0002a0 61 03 cc bd 15 cb 36 3e c6 2d 3a 3e 3a 24 ea 3d
       -0.09961582 0.17850907 0.18181524 0.11432691
0002b0 8e c2 94 3d 93 ec ee bd 8e a6 e1 bd 4f 84 ce bd
       0.07263671 -0.11666217 -0.11018096 -0.100838296
0002c0 5a 6b 43 3d 9c 7b 3e 3e 8a 2c d4 3d 63 e9 2e 3e
       0.0477098 0.1860184 0.10360058 0.17081217
0002d0 c3 88 73 3e 19 1d 1c 3d 2b 1a 71 be 1d f7 2c 3e
       0.23782639 0.038113687 -0.23545139 0.16891141
0002e0 1b 9d 7f 3e 4e d0 4b 3e d7 5e 13 be a1 07 c0 bb
       0.24962275 0.1990368 -0.14391647 -0.0058602844
0002f0 e7 05 13 be 01 68 b4 bd 1f 63 2c be 9a fc 08 be
       -0.1435772 -0.088089 -0.16834687 -0.1337761
000300 bd 54 12 be ba 26 45 3e ee 67 84 be f3 fc 74 3e
       -0.14290138 0.19253054 -0.25860542 0.23924617
000310 ad b8 d8 3c 91 f6 60 3d aa a7 3a 3e 9b b9 c7 bd
       0.026455248 0.054922644 0.18228021 -0.09752198
000320 b6 4a 91 3e 73 e0 15 3b f6 a5 4a bd 86 94 32 bd
       0.28377312 0.0022869378 -0.04947468 -0.043598674
000330 68 02 52 bd 09 8b 0e be ee 09 60 be 6c b6 38 bd
       -0.051271826 -0.13920225 -0.21878788 -0.045095846
000340 28 7f 32 bd 06 ec c2 bd 9a 4c 4f 3e 04 4c 5b 3e
       -0.043578297 -0.09517674 0.20244065 0.21415716
000350 e8 a1 c1 bd 9b 4c fc 3d 43 d5 2b be 88 7d 59 be
       -0.09454709 0.12319299 -0.16780572 -0.21239293
000360 92 94 d2 3d 06 a9 5d 3d 56 40 98 bd 4c d2 64 be
       0.10282244 0.05411627 -0.07434146 -0.22345847
000370 7b dc 59 be 5a 52 28 3e 4b ed cf 3c d2 ed 00 be
       -0.21275513 0.16437665 0.025381705 -0.12590721
000380 b3 85 39 3e c8 c5 b9 bd 17 fe 85 bd 2c 3d 78 3e
       0.18117408 -0.09070927 -0.065426044 0.24242085
000390 83 10 26 be a3 83 0c be 89 b7 9a 3d 83 e8 d2 bd
       -0.16217236 -0.1372209 0.07554538 -0.10298254
0003a0 e8 80 6f bd d9 74 6e 3e 01 5e 82 be f9 7a 24 be
       -0.058472544 0.23286761 -0.25462344 -0.16062535
0003b0 26 e5 bb 3d b6 dc 78 3d 03 54 8a be 02 fd 06 3e
       0.09174566 0.06075736 -0.2701722 0.13182452
0003c0 dc 87 6a be 16 50 b0 3c 90 a4 f7 3b e0 99 59 3c
       -0.22903389 0.021522563 0.007557459 0.013281316
0003d0 40 e6 92 3d 31 a6 e0 bc c5 dd db bd 56 00 4e 3e
       0.07172823 -0.027422996 -0.107356586 0.20117316
0003e0 10 f2 27 3c 3e a2 62 3e 16 a7 1f be 06 ed 8e bc
       0.010250583 0.22132203 -0.15591082 -0.017447006
0003f0 fb 94 4a be 9c 74 16 be d2 de 05 3e 0c 03 2c be
       -0.19783394 -0.1469292 0.1307328 -0.16798037

tokenTuringMachineUnit.tokenLearner1.attention_maps.1.weight f4 [8, 16, 1]
000000 74 92 60 3e 9f f3 15 3e a9 a9 de 3b 92 aa 2f be
       0.21930867 0.14643715 0.0067951274 -0.17154911
000010 44 c9 be 3d 3c e9 61 3e ec 7d 85 bd 26 10 3d 3e
       0.09315732 0.22061628 -0.06518158 0.18463191
000020 d8 75 62 be a3 8e 8d bd 28 eb 3c 3e 4b 56 7f bd
       -0.22115266 -0.069119714 0.1844908 -0.062338155
000030 bf 32 a0 3c 1c a9 f7 3d 15 b7 f0 3d 1b f7 7b bd
       0.019555448 0.12092802 0.1175367 -0.061514955
000040 73 de 14 be d3 37 d5 3d 25 33 6a be 3c f5 85 3d
       -0.14537983 0.10411038 -0.22871073 0.06540915
000050 69 d2 38 3e ed 34 48 3e fd 94 d4 bc f7 58 7e 3d
       0.18049015 0.1955144 -0.02594995 0.062096562
000060 9e 6e 0a be 67 95 42 be ea 46 7a 3d da 00 92 be
       -0.1351876 -0.19002305 0.061102785 -0.28516275
000070 1c f5 05 be 2a 96 76 be 34 bd 51 be b6 2b 59 bd
       -0.13081783 -0.2408072 -0.20482332 -0.0530202
000080 83 d6 a2 3d 73 a7 c6 3c 10 89 61 3d e3 8e 28 be
       0.07951071 0.024249768 0.055062354 -0.16460757
000090 8c b9 18 3e b6 eb 28 be 17 3b 2d 3e a8 04 2b 3d
       0.1491453 -0.16496167 0.16917072 0.041752487
0000a0 cb 9f 57 be b5 b6 b7 3b ce 6b 63 3e ef af 23 3d
       -0.2105705 0.005606497 0.22209093 0.039962705
0000b0 a4 49 57 be bb 83 30 3e c3 f4 ee bd de 05 66 3d
       -0.21024185 0.17237751 -0.11667778 0.05615794
0000c0 13 e6 7e 3e 37 7f 8e 3c c7 c8 15 be a6 68 8e 3e
       0.24892454 0.017394645 -0.14627372 0.27814215
0000d0 80 f5 d5 bc e1 8e 77 3e 88 03 40 3d 8a 52 c1 3d
       -0.02611804 0.24175598 0.046878368 0.09439571
0000e0 d6 13 54 bd 41 09 b0 bd 2e 7b df bd 93 04 02 3e
       -0.05177673 -0.08595515 -0.109121665 0.12697057
0000f0 fd da af bd e5 1e f8 bd 58 9a 92 3d 4b 27 15 3e
       -0.085866906 -0.12115268 0.07158345 0.1456577
000100 14 ca 51 3e d9 b8 78 3d 18 d4 d2 bd 6a 1f 36 bc
       0.20487243 0.06072316 -0.1029436 -0.011115888
000110 d4 20 a2 bc 3f f1 cf bd 84 b3 b8 bd d2 1b 3d 3d
       -0.019791044 -0.10153436 -0.09018615 0.04616911
000120 6b 6f b2 3d 83 5c 5a 3e 96 e7 1d 3e e4 66 f0 bd
       0.087126575 0.21324353 0.15420374 -0.11738375
000130 ea 72 0c bd b3 59 5e be 30 e6 7d 3d 1d 63 e4 bd
       -0.034289278 -0.21713905 0.061987102 -0.11151717
000140 2c 55 ec bd 93 2e a0 3d 0a d1 32 3e 36 13 05 be
       -0.11539683 0.07821383 0.17462555 -0.1299561
000150 88 30 35 3e f7 a1 c1 bd 00 f1 59 3e 20 87 74 3d
       0.17694294 -0.094547205 0.2128334 0.059699178
000160 78 fa 82 bc 5e 71 aa bd b0 f7 1d 3e 85 58 c6 3c
       -0.015988573 -0.08322404 0.15426517 0.024212131
000170 2c 93 0c 3e e7 18 02 3d 16 83 b4 3d 9c 1c 82 be
       0.13728017 0.03176203 0.08814065 -0.25412452
000180 2a 7f 58 3e 3c 21 38 3e 74 74 9e 3d 71 69 47 3e
       0.21142259 0.17981428 0.077370554 0.19473816
000190 45 93 90 3d de 76 c7 bd f6 18 df 3d a2 bf 79 3e
       0.070593394 -0.09739469 0.10893433 0.24389508
0001a0 ec 14 2e 3e af 87 b0 bb 51 7a 27 3e d2 52 d8 3d
       0.17000169 -0.0053872685 0.16355254 0.10562672
0001b0 4b 3a 85 be 02 7d 27 be 05 ec 74 be 03 55 3f 3e
       -0.26021037 -0.1635628 -0.2391816 0.18684773
0001c0 aa 77 3e 3e 5d d9 81 bc 39 2d 2a 3e 85 31 5b 3e
       0.18600336 -0.015850717 0.16618814 0.21405609
0001d0 b9 92 69 be d8 5a 8f bc 74 4c 2a 3e 87 fb fd bd
       -0.22809877 -0.017499372 0.16630727 -0.12401491
0001e0 c8 f3 30 be 7c bf 5f 3e f2 06 59 be 1e a1 2a be
       -0.17280495 0.21850389 -0.21194056 -0.16663024
0001f0 6a 04 d1 bd b0 a4 82 bd 42 eb 84 bd 3b 5c a1 3c
       -0.1020592 -0.06379068 -0.06490184 0.0196973

tokenTuringMachineUnit.tokenLearner1.feat_conv.weight f4 [16, 16, 1]
000000 2b d5 2e bd 03 2f a8 3d 19 88 4a 3d e8 58 7a 3e
       -0.04268376 0.08212092 0.0494462 0.24447978
000010 e1 cd 6b bd 05 b0 3f 3d f6 d8 6c be e5 ca 50 be
       -0.05756939 0.046798725 -0.23129639 -0.20389898
000020 fd 3a 23 bc 76 7b c5 3d 09 55 c8 bd 05 6b f0 bd
       -0.009962794 0.09642689 -0.09781844 -0.11739162
000030 f2 47 72 3d 87 78 99 3d a3 26 27 3d f9 06 d9 bd
       0.059150644 0.07493692 0.04080833 -0.10597033
000040 bf 27 06 be 58 90 19 be 2e 2b 45 3e 9c 3f 13 3e
       -0.131011 -0.14996469 0.19254753 0.14379734
000050 9f b6 61 be cd 08 d7 bd 25 69 c9 3b eb 5d 5d 3e
       -0.2204232 -0.104997255 0.0061465674 0.21617858
000060 e6 e3 6e be 3e 19 7f 3d b9 59 f3 3d ee 4c 2a 3d
       -0.23329124 0.062279932 0.118823476 0.041577272
000070 de eb 26 3e b5 d6 01 be 1e 14 6b 3e 0d 56 46 3d
       0.16300914 -0.1267956 0.22956893 0.04842191
000080 3e 6e 3a 3e 91 87 05 be c8 e1 9f bd 10 68 26 be
       0.18206117 -0.13039996 -0.07806736 -0.16250634
000090 27 36 73 be 77 e9 41 be 0a c8 85 ba 1a 14 df 3d
       -0.23751126 -0.18936716 -0.0010206711 0.10892506
0000a0 30 2b 49 be 4f 45 3b be 38 6b 1e be 41 eb f0 3d
       -0.19645381 -0.18288158 -0.15470588 0.11763621
0000b0 20 a8 39 3e 42 7e d0 bd ee 51 58 3b 4d ed 55 be
       0.18130541 -0.10180332 0.0033007818 -0.20891304
0000c0 8c 06 ce bd 6e b0 00 3e 87 2f 5c bd 36 d7 db 3d
       -0.100598425 0.12567303 -0.053756263 0.107344076
0000d0 ad 12 0e 3e 84 4d b4 bd 96 58 73 be 04 c5 4f 3e
       0.13874312 -0.088038474 -0.23764262 0.20289999
0000e0 2a a6 5a 3e 62 f8 e4 bc e8 31 6a bd 5d bf 26 be
       0.21352449 -0.02795047 -0.0571765 -0.16283937
0000f0 b8 c6 96 bd 2d 3e 18 bd 90 33 4d 3e 10 88 49 be
       -0.07362121 -0.03716867 0.20039201 -0.1968081
000100 53 12 a2 bd bf bd 3e bd 41 d2 76 3e 6d 8e 43 be
       -0.07913651 -0.046567675 0.24103643 -0.190973
000110 ce eb 58 3e 65 39 4d bd 2a 01 80 3d a5 c3 f0 bd
       0.21183702 -0.050103564 0.06250222 -0.11756066
000120 c6 26 81 3d 03 82 90 bd 15 b0 0e be d2 8c 89 bd
       0.063062236 -0.07056048 -0.13934357 -0.067163125
000130 e7 1b 5c 3e 30 a3 5a 3e 84 6c 68 3e e3 0e fd 3d
       0.21495019 0.21351314 0.22697645 0.12356355
000140 27 c6 3d bd 40 c7 49 3e 34 7a 39 be c6 d9 79 3e
       -0.04633155 0.19704914 -0.18113023 0.2439948
000150 bf e3 6c be 11 6e 5b be d9 c3 89 3d 7e 73 41 3e
       -0.23133753 -0.21428706 0.06726808 0.18891713
000160 04 1e 5d be 08 8c 13 3e b4 ec 37 3d b2 f9 94 3c
       -0.21593481 0.14408886 0.044903472 0.01818547
000170 2f c5 1f 3c 90 2a a6 bd f2 17 19 3e 38 dd 09 3e
       0.009751602 -0.08113587 0.1495054 0.13463295
000180 93 d7 67 be 57 6e 2c be 17 55 76 3e 59 f6 f3 bd
       -0.22640829 -0.16838966 0.24055897 -0.119122215
000190 1c 4f 4f be 78 39 4e bc b1 a6 2e 3d 90 71 2f 3e
       -0.20245022 -0.012586944 0.042639438 0.17133164
0001a0 5f 8d 87 be b6 f5 8e bd 8d 6f a3 3d fb 5a 41 bd
       -0.26475045 -0.069804594 0.07980261 -0.047205906
0001b0 a2 b6 b1 bd 0e 8c cb bc 50 b3 07 be 4e 1b 14 3e
       -0.086774126 -0.024847057 -0.13251996 0.14463541
0001c0 c6 68 83 3d 99 e5 0a 3e 2e 1f 8a 3c 90 d6 69 be
       0.06416468 0.13564147 0.01686057 -0.22835755
0001d0 9a 83 fe 3d ee 97 44 3e f2 83 3a be 45 ea 82 3e
       0.12427445 0.19198582 -0.18214396 0.25569358
0001e0 c0 f8 6d be 5f a4 13 3d 82 d7 a1 3d bb 42 20 be
       -0.23239422 0.03604543 0.07902433 -0.15650456
0001f0 f7 40 41 be aa 0d 68 bd 48 cc 7a 3e 21 7c 00 be
       -0.18872438 -0.056653656 0.2449199 -0.12547351
000200 3e 98 f1 3a 89 6c 2c bd ff 38 35 3c c6 e4 57 be
       0.0018432213 -0.042095695 0.011060952 -0.21083364
000210 2e 53 9d bd ea 2e d9 bc 45 8d 37 be 05 5d 83 3e
       -0.07681881 -0.026511628 -0.17924984 0.25656906
000220 58 5d 11 be 22 7e 26 be f9 10 58 3d de 12 05 3e
       -0.14195764 -0.16259053 0.05275056 0.12995479
000230 7e 88 2f be 11 c8 fa bd 31 07 a5 3d 6d a3 f4 bd
       -0.17141911 -0.12245191 0.08058012 -0.119452335
000240 71 f5 14 3d 27 84 4c 3e aa a3 ec 3d c8 1e 45 be
       0.036366884 0.19972287 0.11554654 -0.19250023
000250 01 d0 a7 3d c7 fc 48 bd 7f b7 17 bd ef 12 18 be
       0.081939705 -0.049069192 -0.03704023 -0.14850973
000260 0c 21 c5 bb 3c b3 ec 3c be 46 37 3e 78 2a a8 3c
       -0.0060159024 0.02889406 0.1789808 0.020528063
000270 10 2b 37 bd 7d b3 1b 3e 1a 65 e8 3d 18 81 0e 3e
       -0.044718802 0.15205188 0.113474086 0.13916433
000280 db 0d 32 3b 7d f9 e6 3c df 8f ce bd 65 c6 74 be
       0.0027168903 0.028195137 -0.10086035 -0.23903807
000290 5f 8d f6 3d 5b 32 95 3b 80 bc d6 bd ad ad 2e 3e
       0.12038683 0.004553122 -0.10485172 0.1705844
0002a0 c2 b6 76 bd 3b 21 e0 bd d8 48 25 be 45 aa a5 bd
       -0.060232885 -0.10943838 -0.16141069 -0.08089117
0002b0 29 a0 6c 3e 74 09 81 3e 81 48 0c be 5c 77 86 3e
       0.23107971 0.25202525 -0.13699533 0.2626294
0002c0 5b 20 f4 bd bd 14 60 be bd 12 14 be c5 06 91 3d
       -0.11920234 -0.21882911 -0.14460273 0.07081369
0002d0 e0 d5 02 be 9c d3 ad 3d fe cd 09 3e 2b 67 22 3e
       -0.127769 0.08487627 0.13457486 0.15859668
0002e0 cd 7d 96 3d 55 4d b8 3d e2 22 56 be 31 c8 82 be
       0.07348213 0.08999125 -0.20911744 -0.2554336
0002f0 be 94 b9 3d 0f e1 68 be 5f 76 33 bd 4f 5f da 3d
       0.090615734 -0.22742103 -0.04381406 0.1066271
000300 6c 40 25 3e ac 05 85 bd 8b 70 30 3e 01 c6 50 3d
       0.16137856 -0.064952224 0.17230432 0.05097008
000310 07 a0 2e 3e dd b3 c6 bd bb a3 1a 3e 03 d4 d1 bd
       0.17053233 -0.09702275 0.1510152 -0.10245516
000320 14 f4 a7 3d 75 ea b4 3b f5 87 83 3d 49 c7 82 3d
       0.08200851 0.0055211135 0.06422416 0.06385667
000330 a9 ff 31 3e f6 1a 38 be 06 85 07 be ef 59 29 be
       0.17382683 -0.17979035 -0.13234338 -0.16538213
000340 2d 0d 36 be f7 45 71 be 4a fb 21 bd 77 ac 18 be
       -0.17778464 -0.23561846 -0.03954629 -0.1490954
000350 79 d1 d0 bd 37 5f 72 bd 99 eb cb 3d da d6 41 be
       -0.10196204 -0.059172835 0.09957046 -0.18929616
000360 4e 24 29 be d5 6f 9f bd 2e 8d 80 be c7 ca 35 bd
       -0.16517755 -0.07785002 -0.25107712 -0.044382837
000370 82 77 6b be 84 e3 70 3d 42 28 55 39 be 1f db bd
       -0.22994807 0.058810726 0.0002032826 -0.10699414
000380 63 de 8f be 02 14 d1 bd 98 8b 59 3e 5d 39 41 bc
       -0.28099355 -0.10208894 0.21244657 -0.011793462
000390 cf bf f9 3d 2d 36 2e bd 83 5c 47 3e 1b c6 6d 3c
       0.12194788 -0.042532135 0.19468884 0.014512564
0003a0 b2 1f dd bc 28 a4 70 3e 67 07 60 be df 2e 3a be
       -0.026992653 0.2350012 -0.21877824 -0.18181942
0003b0 6c e6 22 bc 2a c5 cb bd dc a0 6b be 8f 96 2e 3e
       -0.009942632 -0.099497154 -0.23010582 0.17049621
0003c0 0a ab c2 bd 7c bb d0 bb 3a 49 6a be 6b 94 31 3e
       -0.09505279 -0.006370006 -0.22879496 0.17341773
0003d0 1b 19 3d be e9 88 2b 3e 5e ff 05 3e dc 1d 09 3e
       -0.18466608 0.16751446 0.13085696 0.13390297
0003e0 ae c7 67 be b2 32 70 3d 1b a5 94 bc d5 2c a8 3d
       -0.22634766 0.058642097 -0.018145135 0.08211676
0003f0 d3 ec 62 3e 5b 9f 60 be d3 d7 26 bc ed 9c 36 be
       0.22160654 -0.2193579 -0.010183292 -0.178333

tokenTuringMachineUnit.tokenLearner2.norm.weight f4 [16]
000000 c3 94 73 3f fa 57 72 3f 90 46 7c 3f 35 45 79 3f
       0.9514887 0.9466549 0.9854517 0.97371227
000010 32 87 71 3f 51 86 72 3f 25 c3 73 3f e9 81 72 3f
       0.94346917 0.947362 0.9521964 0.9472948
000020 64 a0 6e 3f ad b3 7d 3f e5 65 76 3f be 47 79 3f
       0.93213487 0.9910229 0.9624923 0.97375095
000030 f2 bc 79 3f f6 a0 73 3f 47 f5 75 3f cc 15 73 3f
       0.9755393 0.9516748 0.9607739 0.94955134

tokenTuringMachineUnit.tokenLearner2.norm.bias f4 [16]
000000 aa 13 7a b6 c4 10 93 b5 b5 c1 c2 36 84 71 a3 b7
       -3.726435e-06 -1.0957233e-06 5.804201e-06 -1.9483974e-05
000010 e9 20 13 36 d7 40 4e b4 15 73 17 36 3e 88 57 b5
       2.1923863e-06 -1.9208834e-07 2.256774e-06 -8.0292e-07
000020 8a 80 5c b5 96 de ec 37 4d 48 04 35 8d cf 83 36
       -8.2143436e-07 2.8237042e-05 4.9279043e-07 3.9282663e-06
000030 fc 77 fa b5 cb 72 0c b6 ae 01 58 b6 96 d6 64 b5
       -1.8661372e-06 -2.0928444e-06 -3.2187486e-06 -8.524888e-07

tokenTuringMachineUnit.tokenLearner2.attention_maps.0.weight f4 [16, 16, 1]
000000 75 bd e8 3d f5 7e 99 3d 89 c9 20 3e 47 7b 84 3e
       0.11364261 0.07494918 0.1570188 0.25875303
000010 a2 cf fe bd 69 5b 64 be 95 cf d0 3d 96 09 80 3d
       -0.124419466 -0.22300495 0.10195843 0.06251828
000020 c4 08 42 3b fe 4d 4d be 6d 99 35 bb 3b 9f 06 3d
       0.0029607276 -0.20049283 -0.0027709857 0.032866698
000030 d8 15 f0 bd ed 02 3b be 71 e9 38 be c6 e2 43 be
       -0.11722916 -0.18262835 -0.18057801 -0.19129476
000040 22 99 f6 bd 01 f4 d5 3d 85 f6 1b bd 8f aa 2c 3d
       -0.120409265 0.10446931 -0.038076896 0.042154845
000050 1c ee 1d 3e de 84 3c be c0 94 15 3e 12 75 77 bd
       0.15422863 -0.1841006 0.14607525 -0.06041438
000060 28 f6 f3 bc d1 b7 0d 3e aa 03 40 be 7d 6b 09 bd
       -0.029780462 0.13839652 -0.18751398 -0.033549774
000070 04 18 2f bd f3 37 8b bd f7 50 81 bd 92 ee ee 3d
       -0.042747512 -0.06797781 -0.06314271 0.116665974
000080 dd 49 80 3e 66 15 82 3e fa db fa bd 3a 8c ce bd
       0.25056353 0.2540695 -0.122489884 -0.1008534
000090 5c 30 f4 bd 83 5c 53 be 10 8e c6 bc 38 09 c8 bd
       -0.11923286 -0.20640759 -0.024237663 -0.09767383
0000a0 ac f1 3a be be 06 43 3e 63 6c cd 3d fe 44 2f be
       -0.18256253 0.1904554 0.10030439 -0.17116162
0000b0 59 d3 b4 3d d9 10 f8 3d f4 33 82 3e ea 0e 53 be
       0.08829374 0.121125884 0.25430262 -0.20611158
0000c0 8f 69 b0 bd a8 fb 94 3d ae ab 5d 3e c3 fd d9 bd
       -0.08613884 0.07274562 0.21647522 -0.10644104
0000d0 80 e2 53 3e 93 65 58 3e cc ca 36 bc cf 34 bd bd
       0.20691872 0.21132497 -0.011156749 -0.09238588
0000e0 7e c3 df bc cc 51 2f bd 5f 1d 3b 3b c8 c9 23 be
       -0.027314898 -0.042802617 0.0028551442 -0.15994942
0000f0 00 6d b7 3d 86 d2 f0 bd 4e 46 0f be bc e1 74 3e
       0.08956337 -0.11758904 -0.13991663 0.23914236
000100 e7 95 2e bc 39 6e c6 3c dd 6c 9d bd 78 e5 bb bd
       -0.010655857 0.02422248 -0.0768678 -0.09174627
000110 2e 5d 68 be 49 6c a1 3d fc e8 e7 3c 50 43 37 be
       -0.22691795 0.07881982 0.028309338 -0.17896771
000120 c1 4a db 3c 70 05 5d 3e 44 10 39 3e 8e 6b 71 3e
       0.026769044 0.21584105 0.18072611 0.23576185
000130 27 cc 43 be 3c 17 bb bd ec de 3b be 6e f7 5d 3d
       -0.19120847 -0.09135291 -0.18346757 0.054191045
000140 59 b2 d2 bd 4c 80 6a be de 46 5b 3d 36 56 17 3e
       -0.10287923 -0.22900504 0.05353438 0.1477898
000150 d2 36 7a bd 8c 17 f2 3c 5a 5f 0b 3d 23 01 f0 3d
       -0.061087437 0.029552244 0.03402648 0.11718967
000160 3a f1 35 3e 87 64 42 b9 58 6e f1 bd 53 c8 5b be
       0.17767802 -0.00018538731 -0.117886245 -0.21463136
000170 48 5a bc bd f0 3e ee 3c 08 fb f7 bc ad c1 64 3e
       -0.09196907 0.029082745 -0.030271068 0.22339506
000180 f4 ea ac 3d f9 f6 ec bd 09 9e 70 be 5b 32 3f be
       0.08443251 -0.11570544 -0.23497786 -0.18671553
000190 e3 f5 09 bd ed 33 7b 3d 90 7e 27 3e 49 cd 21 be
       -0.03368176 0.061328817 0.16356874 -0.15800966
0001a0 ab e9 4d bd 0a 62 1f 3e a0 5c 0a bd 38 78 9a bd
       -0.05027167 0.15564743 -0.03377974 -0.07542461
0001b0 97 af 57 bd 5b ef f4 bd 41 9a 30 3e 87 a5 0a 3e
       -0.05265769 -0.11959716 0.17246343 0.13539706
0001c0 5f a3 76 3d ed 06 5d bd 1b 6b 64 3e cb 5b 64 bd
       0.060214397 -0.053961683 0.22306482 -0.055751603
0001d0 5a e7 30 be 4e ef 02 bd be a1 b6 3d e9 e8 f0 ba
       -0.17275754 -0.0319665 0.089175686 -0.001837996
0001e0 ac 56 e4 3c d1 62 9a 3c ea fb f8 3d 33 6f 40 3d
       0.02787336 0.018845947 0.12157424 0.046981048
0001f0 a3 4e 60 bd b5 3e 47 3e b6 21 d1 3d 08 9d 08 3e
       -0.054762494 0.19457515 0.10211508 0.13341153
000200 f7 7e 12 be 2c 64 3c 3e 41 b9 2c be 50 3d 73 3e
       -0.14306246 0.18397588 -0.16867544 0.23753858
000210 30 b7 5c be 2e 8e 85 3d 30 01 02 bd 4b 6f 06 be
       -0.21554255 0.06521259 -0.031739414 -0.13128392
000220 04 21 65 be 84 b4 6f be 24 2a f7 bd d6 89 08 3e
       -0.22375876 -0.23408705 -0.120685846 0.1333383
000230 65 99 71 be 2a 38 58 bc aa 88 55 3d 93 74 92 bd
       -0.23593672 -0.013196984 0.052132286 -0.07151141
000240 3a ee 99 3c 7a 7f 4f 3e c5 6b 2f be af 62 37 3e
       0.018790353 0.20263472 -0.17130955 0.17908739
000250 28 5e 19 3e b5 89 0a 3e c7 29 18 3e bd 44 07 be
       0.14977324 0.13529094 0.14859687 -0.13209815
000260 86 6e 16 3d 40 7a 16 3d 38 e0 6d be 0a 44 4d be
       0.036726497 0.03673768 -0.23230064 -0.20045486
000270 d2 15 5f 3e 25 df 54 3d a0 3a 57 bd df 80 1a 3e
       0.21785668 0.05197062 -0.052546144 0.15088223
000280 18 b0 d1 bd e5 28 f3 bc ee 6c c8 3d 83 ee 5b 3e
       -0.10238665 -0.029682586 0.09786402 0.21477704
000290 af 29 08 3e 93 5b 39 3c 90 28 d4 3d 38 2a 0d 3e
       0.13297151 0.011313337 0.10359299 0.13785636
0002a0 67 36 12 be a9 98 0d be 6f eb 20 be 01 46 da 3d
       -0.14278565 -0.13827766 -0.15714811 0.106578834
0002b0 ac 82 ef bd ec 31 52 be cf cc 60 be ef 83 d3 3d
       -0.116948456 -0.20526856 -0.21953128 0.10327899
0002c0 34 26 dc bd 08 3d 01 3e 39 56 51 3e 47 f1 39 be
       -0.10749474 0.12620938 0.20443048 -0.18158446
0002d0 c0 d1 83 bd 45 77 39 be 7c 32 cf bd 76 57 4f bd
       -0.06436491 -0.18111904 -0.10117051 -0.05062052
0002e0 ad 3c 86 bd d6 69 bd bd f4 56 c5 bd e2 19 42 3e
       -0.06554542 -0.09248702 -0.096357256 0.18955186
0002f0 c8 7f f9 3d e6 a4 34 bb 7f d4 14 bd 1e 42 ea 3d
       0.121825755 -0.0027564107 -0.036335465 0.11438392
000300 af 2d b4 bd 65 67 aa 3d 26 28 6c 3e 46 c2 ae 3c
       -0.08797776 0.08320502 0.2306219 0.021332871
000310 a7 eb e4 3d 2d 58 bd bc 11 09 40 3e 8e a5 e0 bd
       0.111777596 -0.023113335 0.18753459 -0.10969077
000320 59 58 98 3d ab a8 7d bd 33 30 56 3e c8 6c 52 3d
       0.07438726 -0.061928432 0.20916824 0.051373273
000330 65 55 84 be 8d a0 f9 3d 70 0a c7 bd 4f a3 c1 3c
       -0.258464 0.12188826 -0.09718788 0.023637442
000340 de bc 42 3e 7f 49 16 3e cc 88 0f 3e a3 bf 57 3d
       0.1901736 0.14676474 0.14017028 0.052672993
000350 f1 59 26 3e ba b9 87 3d 63 93 37 be 69 4a ee ba
       0.16245247 0.066272214 -0.17927317 -0.0018180135
000360 4b ca 1f 3e 09 67 4d be 35 02 ee bd 75 f0 14 be
       0.15604512 -0.20058836 -0.11621515 -0.14544852
000370 26 3a 29 bd ed 01 35 3e 35 d3 06 3e 4d 7a 08 3e
       -0.04131522 0.17676516 0.13166507 0.13327904
000380 ba 4a 9c bd 71 b0 c8 3d 61 b5 5d 3d ce 44 4f be
       -0.076314405 0.097992785 0.054128055 -0.2024109
000390 b1 93 4c 3e 9a 67 4d be aa 6e 47 3d 26 37 3d be
       0.19978215 -0.20059052 0.04868952 -0.18478069
0003a0 10 68 1c 3e f8 b4 b3 bd 49 a2 fc bc b8 c9 25 3e
       0.15274072 -0.087747514 -0.030839102 0.16190231
0003b0 81 59 5d be 09 16 01 be 90 82 3a be 73 21 58 bc
       -0.21616174 -0.12606062 -0.18213868 -0.013191569
0003c0 3f 41 1a be b4 60 3d 3e 49 78 0a be a1 15 c8 3d
       -0.15063952 0.1849392 -0.13522448 0.097697504
0003d0 53 83 13 3e 2f e6 8d 3d c4 f5 82 bd e2 88 59 be
       0.14405565 0.0692867 -0.06394532 -0.21243623
0003e0 68 33 9c 3d ac c4 c5 3c e9 42 6a 3e 98 c4 7a bd
       0.076269925 0.024141632 0.22877087 -0.061222643
0003f0 19 a5 a3 bd b3 a9 80 3e 62 47 b5 bd bd 80 85 3d
       -0.07990474 0.2512947 -0.08851506 0.065186955

tokenTuringMachineUnit.tokenLearner2.attention_maps.1.weight f4 [128, 16, 1]
000000 80 b8 1a be af 36 48 3d a1 8f c8 3d 39 bf 2c be
       -0.15109444 0.048880275 0.0979302 -0.1686982
000010 8c 38 d8 bd b3 fc 86 bd 73 73 9e 3d 72 f1 8f bc
       -0.105576605 -0.06591167 0.07736864 -0.017571185
000020 b0 0d 9d bd b2 b3 85 3b 32 9b 09 be b5 0e 0f 3e
       -0.07668626 0.0040802592 -0.13438109 0.13970454
000030 61 65 fd bd f3 f7 4b bd 98 e9 a1 3d 88 46 93 bb
       -0.12372852 -0.04979701 0.079058826 -0.004494492
000040 98 9e 33 be 9f 52 1a bb 87 fd 00 be 79 bd bc 3d
       -0.17540967 -0.0023547781 -0.12596713 0.092158265
000050 c5 06 58 bd 7b 95 9c 3c 95 67 10 bd c9 3e 1a 3b
       -0.05274083 0.019114247 -0.035255034 0.0023535958
000060 cb 7f 33 3e 74 4e 09 3d 02 41 06 be 07 07 cb bd
       0.17529218 0.033522084 -0.13110736 -0.0991345
000070 2e 14 ad bb f6 e6 83 3d 72 ad 40 3e 77 9a d1 bd
       -0.0052819466 0.06440537 0.18816164 -0.1023454
000080 8e c1 c2 bd 49 94 50 be 30 9c 36 3e 8e 04 4f bd
       -0.09509574 -0.20369066 0.17833018 -0.050541453
000090 b5 c7 36 be b7 2d 3f be 23 c1 c8 3d 72 5c 2b 3d
       -0.1784962 -0.18669783 0.09802463 0.04183621
0000a0 6f b4 3a 3e ba ce cc bc 36 59 66 bd 8e 02 09 3e
       0.18232892 -0.025000919 -0.056237422 0.13379881
0000b0 d1 92 21 bd 1e 33 da bc 19 c1 a9 3c da b1 7b 3b
       -0.039446656 -0.026635703 0.020721959 0.0038405568
0000c0 85 e0 4d be a0 c5 0a 3d 46 bc 52 bd c3 61 5f 3d
       -0.20105179 0.033879876 -0.051449083 0.054536592
0000d0 37 a1 e5 3d 01 6c 00 be e3 e2 04 3d 3f 7e 12 bc
       0.1121239 -0.125412 0.03244294 -0.008941232
0000e0 e8 70 b7 bd 58 27 40 be 80 99 f1 3c 1c 8a 3d 3d
       -0.08957082 -0.18765008 0.02949214 0.04627429
0000f0 4c 76 91 bc fe aa 1a be 9f 5b 22 be a2 84 d7 bc
       -0.017756604 -0.15104291 -0.15855263 -0.026308361
000100 cc 9c 66 3e a2 71 bb 3c c4 2b 41 3e b5 e8 0e 3d
       0.22520751 0.022881333 0.18864352 0.034889895
000110 25 7d ac bd 9c 1e c7 3d 8a 75 27 be 72 db 83 bb
       -0.08422307 0.09722635 -0.16353431 -0.0040239627
000120 e4 a6 52 3e 7c af bb bc 96 ba ae 3d b4 e9 f0 3d
       0.20571476 -0.022910826 0.08531682 0.11763325
000130 72 1b db 3a ff a8 f3 bd 40 60 d2 3d 56 01 01 be
       0.0016716553 -0.11897468 0.102722645 -0.12598166
000140 5f 1c 87 bd 46 fe 47 be 2a 07 69 be e2 34 34 3e
       -0.06597208 -0.19530591 -0.22756639 0.17598298
000150 b2 8f 0c 3e 26 10 12 bc 9b 3b b3 bc b9 4e 18 3e
       0.1372669 -0.008914983 -0.021879008 0.1487378
000160 bc 08 38 be fc a7 fd 3d 9f c5 e9 3d 3d a6 d2 bb
       -0.17972082 0.12385556 0.11414646 -0.0064285086
000170 0e d4 95 bd 7d cc 24 3e 0a 95 6a bd d0 f6 41 3e
       -0.07315837 0.16093631 -0.05727104 0.18941808
000180 05 b5 f9 3d 1b 92 dc bd 60 38 2c 3e 61 2a b1 3d
       0.1219273 -0.10770055 0.1681838 0.08650661
000190 cb dd 5b bd 2d 17 5f 3d 34 0b 1d bd b4 1f 35 3e
       -0.053678315 0.05446546 -0.038340762 0.17687875
0001a0 05 9f 4e 3c b3 a5 c3 3b 7c 1c 37 3e f4 88 47 3e
       0.012611155 0.0059706806 0.1788196 0.19485837
0001b0 c5 8d 28 be 49 8e e5 3d 26 c8 0f 3c e7 d0 e8 bd
       -0.16460331 0.11208779 0.008775746 -0.1136797
0001c0 59 5f f6 bd 92 0e 46 3e 96 d0 1f 3e cf 0a 1f 3e
       -0.12029905 0.19341496 0.15606913 0.15531467
0001d0 87 c9 41 3e 45 28 e7 bd 6e 5c 2c be 1c e7 83 bd
       0.18924533 -0.11286978 -0.16832134 -0.06440565
0001e0 11 38 28 be d1 bf 16 be 9c ea fb bd cc f6 4a 3d
       -0.16427638 -0.1472161 -0.123006076 0.04955177
0001f0 10 1d 9f bd b9 94 be 3c 1b 6c 66 3d b4 82 0d be
       -0.07769215 0.023264276 0.05625544 -0.1381939
000200 33 af d5 3d d0 2e 45 3e 64 01 11 3e 4b 0f 11 be
       0.10433807 0.19256139 0.14160687 -0.1416599
000210 bf 5b 45 3e 9b 5d 2f bd cf d7 03 be 8e a2 0c 3e
       0.1927328 -0.04281388 -0.12875293 0.13733885
000220 c7 53 31 be bd f9 a8 bd 6e 72 1b bd 2d 4a e6 bd
       -0.17317115 -0.08250759 -0.037950926 -0.11244617
000230 1d d6 78 3d b6 8f ba bb 96 d9 e0 bd 80 6b f4 3d
       0.06075107 -0.005693401 -0.10979001 0.119345665
000240 45 19 c9 bd a0 e5 da bc 38 b5 2b bd d2 de 16 be
       -0.09819273 -0.026720822 -0.04192087 -0.14733437
000250 d8 0b e5 3d 64 34 2e bc aa 66 a6 3d b8 b1 29 3e
       0.111839 -0.010632608 0.0812505 0.165717
000260 a7 41 28 3e e9 79 18 be 6f 57 ae 3d 53 75 bf 3d
       0.16431294 -0.14890255 0.085127704 0.0934855
000270 66 50 26 3e bf b8 f7 3b 17 d8 e5 3d a4 6c 10 be
       0.16241607 0.0075598652 0.112228565 -0.14103943
000280 79 0b 19 be d4 8d 40 bd 02 a2 53 be 0c 06 53 be
       -0.14945783 -0.047010258 -0.2066727 -0.20607775
000290 ca a0 08 3e 81 e8 1a bd 8f 93 bc 3d 66 c5 1f be
       0.13342586 -0.03781939 0.09207832 -0.15602645
0002a0 d7 4e d4 3d 66 2d 5e be 57 4f a8 bd ef ef 4c be
       0.103666 -0.21697006 -0.08218258 -0.20013402
0002b0 2d 7d 8b 3d 68 4c 74 bd 12 f7 9e bc 79 ce 35 3d
       0.06810985 -0.05964318 -0.019404922 0.04438636
0002c0 ed 86 1b be 84 73 48 3c 37 ee 29 3e ad 41 f3 bd
       -0.15188189 0.012234572 0.16594778 -0.11877761
0002d0 fa b8 45 3d bb 49 cb bd 1e ce 45 be 69 dd 05 3d
       0.04827211 -0.09926172 -0.19316909 0.032681856
0002e0 14 95 09 3e 7c 96 2e be f3 77 e0 3d fb b5 12 bd
       0.13435775 -0.17049593 0.109603785 -0.03581808
0002f0 35 c4 d5 bd 28 a6 23 3e 71 97 15 3e 44 09 17 be
       -0.10437814 0.15981352 0.14608552 -0.14749628
000300 a5 ad 77 3e 54 0c 2f be a1 68 2d be 1c 12 28 3d
       0.24187334 -0.17094547 -0.16934444 0.041032895
000310 ee 32 e8 3d 41 13 05 3e f1 3a 1f 3e 18 b6 6a bd
       0.11337839 0.12995626 0.15549828 -0.057302564
000320 3d 5a 28 3e 85 69 0e 3e 3a dc e6 3d 11 08 34 be
       0.16440673 0.1390744 0.11272474 -0.17581202
000330 2a e4 4f 3e 66 d0 02 bd 0c 6c 5f bd cc be 0d be
       0.20301881 -0.031937025 -0.0545464 -0.13842314
000340 e3 29 4a be 07 a4 9b 3d 74 c4 c6 bc c5 c4 f1 bd
       -0.19742541 0.07599645 -0.024263598 -0.11805109
000350 f5 ba 03 be ae f2 db 3d c0 21 25 be 5e 37 c4 3d
       -0.12864287 0.10739647 -0.16126156 0.09580873
000360 d8 2b 20 bd bf a0 b2 3d fd 85 07 3e e2 f3 1b be
       -0.039104313 0.08722066 0.13234706 -0.15229753
000370 ae 52 e2 bd 0d 1b 8b bc f5 27 ac 3d 7a 2e e7 bd
       -0.11050926 -0.016980672 0.08406059 -0.112881616
000380 83 ee 22 3d fd 09 59 3d 59 22 34 be dc 87 3c 3e
       0.039778244 0.05298804 -0.17591228 0.18411201
000390 a2 97 69 be db 8e bd 3d 97 0b 26 be 5e 50 6e 3e
       -0.2281175 0.09255763 -0.16215359 0.23272845
0003a0 82 fa 36 3e fc 62 43 be 90 f0 e9 bd ab c7 3c 3d
       0.17868999 -0.19080728 -0.11422837 0.046088856
0003b0 27 2b 8c bd 32 1f d7 3a fe a0 44 3e e5 ec 8b bd
       -0.06844168 0.0016412495 0.19202039 -0.068322934
0003c0 d1 68 0c 3b a7 94 4c 3e 6f 1e 45 bd 33 83 4b be
       0.002142478 0.19978581 -0.048124727 -0.19874267
0003d0 5c 30 35 3e 07 52 4e be 37 c7 33 3d c4 32 58 3c
       0.17694229 -0.20148478 0.043891158 0.013195697
0003e0 da 4c 3c be f9 48 6e be 9a a6 2c be 71 17 f7 3d
       -0.18388692 -0.23270024 -0.16860428 0.12065018
0003f0 4f d0 df 3d 96 9a ab 3d 2e 4c 3f 3e 5f 45 1e 3d
       0.109284036 0.08379094 0.18681404 0.038640376

tokenTuringMachineUnit.tokenLearner2.feat_conv.weight f4 [16, 16, 1]
000000 e5 43 21 be 14 5a 78 be bf 14 50 3d 6c 07 17 bd
       -0.15748556 -0.24253112 0.050801035 -0.036872312
000010 fe 93 54 be 82 c8 dd 3d ee b3 56 3d a2 4f 89 3e
       -0.2075958 0.108292595 0.052417688 0.26818568
000020 1b f2 79 be 99 ba 70 bd aa 8e bf bc 24 16 13 be
       -0.24408762 -0.058771703 -0.023383457 -0.14363915
000030 02 f5 f3 3b 4c a4 84 3e cd 33 49 3d 7a 0b a7 bc
       0.0074449787 0.259066 0.049121667 -0.020391215
000040 ef 64 3c 3e ec a5 f3 3d e2 d4 5f be 50 5e 8c 3d
       0.18397878 0.118968815 -0.21858552 0.06853926
000050 c2 ee 52 3e c5 9f c4 3d d6 ca aa 3d b8 22 31 3e
       0.20598891 0.09600786 0.08339469 0.172984
000060 a6 ea b6 bd cf fd c4 3d 28 ae 61 3d ac bb a2 3c
       -0.089314744 0.09618723 0.05509773 0.01986488
000070 4b 60 ab 3b b5 02 42 be 68 b6 50 be d4 70 99 3d
       0.005229985 -0.18946345 -0.20382082 0.074922234
000080 13 5d 81 3e f6 94 e0 3d 40 a6 23 bd 3e 7b 5c 3e
       0.25266322 0.10965912 -0.03995347 0.21531388
000090 13 b0 38 3e 4a a2 22 3e d8 dd 64 3e 76 d1 65 bd
       0.18035917 0.15882221 0.22350252 -0.05610796
0000a0 3d 5b f9 bd 80 9b 4b be a9 ef 8d bd 8b db e6 bd
       -0.121756054 -0.19883537 -0.06930477 -0.11272343
0000b0 8f d2 d3 3c 50 7d 3c be 94 3a 94 3c b4 9d 6a 3e
       0.025857238 -0.18407178 0.018094338 0.22911721
0000c0 33 89 f3 3d f5 60 53 bd b8 12 7f be e1 e1 12 3e
       0.11891403 -0.051606137 -0.24909484 0.14343978
0000d0 4e b6 25 3e e1 ed 19 be 8f d2 b2 bd 46 69 84 be
       0.16182825 -0.1503215 -0.08731567 -0.25861567
0000e0 8b 02 82 3e 51 28 5e bd e0 eb 1d 3d e0 95 1a be
       0.25392565 -0.054237667 0.038555026 -0.15096235
0000f0 b5 8d 85 3d 25 db 02 be 46 6f 2c 3d f9 42 af 3d
       0.06521169 -0.1277891 0.042098306 0.08557696
000100 2c 72 24 3e 42 29 b8 bd 98 a1 ac 3d 14 7e 3c 3e
       0.16059178 -0.08992244 0.08429259 0.1840747
000110 ca 89 06 bd 90 fb 41 bb 93 03 12 3d ec 24 4b 3d
       -0.03284625 -0.0029599406 0.03564794 0.04959576
000120 78 b4 38 3d 0f ab 1d 3d 2c 51 77 3e 2f ba 30 be
       0.045093983 0.038493212 0.24152058 -0.17258523
000130 72 79 1a 3e 3b 7f 4f be d6 de e0 3c f4 0d e9 3d
       0.1508539 -0.20263378 0.027450006 0.113796145
000140 9c b6 4f 3e 7d 07 6f 3e 29 52 03 be 64 d8 8a bd
       0.20284504 0.233427 -0.1282431 -0.067795545
000150 19 4e 70 3e cd c7 0a bd 40 63 ca bd 10 1e 53 bc
       0.23467292 -0.03388195 -0.09882212 -0.012885585
000160 61 4b 55 3e 45 ef 46 3e e3 05 4b 3e bf e5 61 3e
       0.20829536 0.19427212 0.19826464 0.22060297
000170 c6 46 10 be 89 55 81 be 1e 1c 74 3d e1 29 80 3c
       -0.14089498 -0.2526057 0.059597127 0.01564497
000180 ac e3 c6 bd ff a5 c1 3d 6e a8 57 3d 84 b7 e5 bd
       -0.09711394 0.09455489 0.05265086 -0.112166435
000190 c8 f5 59 3e f4 cc 53 be 8e 31 b3 bd 4e 73 45 be
       0.21285164 -0.20683652 -0.08749686 -0.19282266
0001a0 0e 36 5a 3e 80 e0 a1 bd a4 04 ba bd 21 a0 ea bd
       0.21309683 -0.07904148 -0.090829164 -0.114563234
0001b0 04 ac 69 be 82 2b 1f 3e f1 08 3c 3e b3 93 4f bc
       -0.22819525 0.1554394 0.18362786 -0.012669492
0001c0 b3 9f 26 3e e9 37 3b 3e 58 f7 b9 3d b8 28 22 be
       0.16271858 0.18283047 0.0908038 -0.15835845
0001d0 39 58 0b 3e 11 c7 14 be 1d 0f 05 3e ab 3b 49 be
       0.13607873 -0.14529063 0.12994047 -0.19651668
0001e0 e4 23 3a 3e 06 f5 27 be 6b 75 5e be 08 7a 4b be
       0.18177754 -0.16402063 -0.21724479 -0.1987077
0001f0 db 02 4f 3e 51 24 33 3e 13 76 be bd 61 a6 cf 3d
       0.20215933 0.17494322 -0.092998646 0.10139156
000200 7b 6d 96 bd 3e 50 1a be e5 6b 2e be f0 1c e9 bd
       -0.073451005 -0.15069672 -0.17033346 -0.113824725
000210 80 73 b1 3d f9 64 83 3e 44 33 82 be dd 66 df bc
       0.08664608 0.25662974 -0.25429738 -0.027270729
000220 e5 d8 db bb 5a a7 07 3e 83 9a 15 be cd b0 68 bd
       -0.0067092055 0.13247433 -0.14609723 -0.056809235
000230 ad ac 04 3d d3 a2 2e 3d 2d 66 19 3e b5 fe 22 be
       0.03239124 0.04263575 0.14980383 -0.15917476
000240 b0 48 1c 3e 25 38 38 bd 68 5f 2b be ba 2c ee bd
       0.15262103 -0.04497542 -0.16735613 -0.11629625
000250 57 dc 0d 3e 40 ba be 3d 87 08 41 bc f0 61 c3 bd
       0.13853584 0.09312868 -0.011781818 -0.095401645
000260 aa 28 86 bc f0 ac 59 3e 8d a7 ea bd af df 5d be
       -0.016376812 0.21257377 -0.11457739 -0.2166736
000270 53 6a 26 bd 1e b4 5e 3d 57 2c 84 3e 60 e9 cc bd
       -0.040628742 0.054370992 0.2581508 -0.1000545
000280 5b 7a 04 3e 9b fe e4 3d 21 d1 18 be 0e 05 02 3e
       0.129373 0.11181375 -0.14923526 0.1269724
000290 ff 1a 73 be cb d0 0e 3e c4 ed 0d 3e 5d 77 62 bd
       -0.23740767 0.13946836 0.13860232 -0.055289615
0002a0 dd e6 af bd 24 74 16 be 14 71 73 3e db 6c 94 3d
       -0.085889556 -0.14692742 0.23773605 0.07247325
0002b0 70 8c 82 bd 10 53 91 3e df d9 2d 3e e5 29 13 3e
       -0.063744426 0.28383684 0.16977642 0.1437145
0002c0 49 a1 70 3d 1a 10 26 be 3b 91 ca 3d 1e 8c 0c 3e
       0.058747564 -0.1621708 0.09890982 0.13725325
0002d0 24 3f 81 3e 5f 76 63 be db 74 7b bd 9b 0b 8c bd
       0.25243485 -0.22213124 -0.06139074 -0.06838151
0002e0 78 6b 83 3d 75 fa 6c be df 16 1b bd 4f 72 22 3d
       0.064169824 -0.23142417 -0.03786361 0.039659794
0002f0 13 c7 a9 3c cb 39 02 bd 03 85 32 be 75 68 60 3e
       0.020724809 -0.031793397 -0.17433552 0.21914847
000300 ae c0 39 3e 85 29 68 be f2 ad 78 bd d8 1b fa 3c
       0.18139908 -0.22672088 -0.060712762 0.030530855
000310 54 11 3c 3e ab 21 04 3e 87 c1 25 3e f0 96 0c be
       0.18365985 0.12903468 0.16187106 -0.13729453
000320 4f a9 58 be 79 1c 13 3e f2 57 75 be 57 2d ab 3d
       -0.21158336 0.1436633 -0.2395933 0.08358257
000330 9f ea a2 bd a3 69 1e be 78 fe e3 bd 04 6d 77 3e
       -0.07954907 -0.15469985 -0.111325204 0.2416268
000340 cb 2a d4 bc 55 be 57 bd ec 2a 17 3e f4 88 10 be
       -0.025899312 -0.05267175 0.14762467 -0.14114743
000350 fb b9 42 3e c5 95 9d 3d b0 99 af 3d fb 2e be bd
       0.19016258 0.07694582 0.085742354 -0.092863046
000360 bd c0 b9 bd 03 e3 3a be 2a 25 e1 bd 99 d9 5b 3e
       -0.09069965 -0.1825066 -0.109934166 0.21469726
000370 3f 6c 4a be b6 ce f6 3d 5a 9a 27 be df 6a f0 3d
       -0.19767855 0.12051146 -0.16367474 0.11739134
000380 62 8c 44 3d 1b 50 1d bd 44 da fe 3d e5 9c 7c 3d
       0.047985442 -0.038406473 0.124439746 0.061673064
000390 d1 79 2a be 00 e1 63 3e d6 25 57 3d 97 fc 55 be
       -0.16648032 0.222538 0.052526318 -0.20897137
0003a0 f9 f1 4e be c2 30 34 be ec bd 52 3d a6 c4 1f 3e
       -0.20209493 -0.17596725 0.051450655 0.15602359
0003b0 9c eb 74 be f9 e6 ea bd de 8a 78 bb ca ac 20 3e
       -0.23918003 -0.11469836 -0.0037924568 0.15690914
0003c0 51 33 7f 3e 53 77 2e 3d a6 68 06 be c7 84 5b 3e
       0.2492192 0.042594265 -0.13125858 0.2143737
0003d0 db 1c b4 bc 85 b9 ee bd e8 87 06 be f5 21 0a be
       -0.021986416 -0.11656479 -0.13137782 -0.13489516
0003e0 f6 d4 50 3e 50 1c 36 be e4 0a 9a bc d2 5c ef 3d
       0.20393738 -0.17784238 -0.018804021 0.11687626
0003f0 bd a2 43 bd 05 b3 2a bc bf f9 44 be fb 05 9c bd
       -0.04776262 -0.010418658 -0.19235896 -0.07618328

tokenTuringMachineUnit.transformerBlock.self_attn.in_proj_weight f4 [48, 16]
000000 19 8f 83 3e 30 ad 91 bc a0 bb 75 be 87 df 30 be
       0.25695112 -0.017782778 -0.23997355 -0.17272769
000010 b0 46 09 bd 52 a6 3b be 41 71 8b 3e 47 47 8d be
       -0.03351468 -0.18325165 0.27234843 -0.27593443
000020 86 10 52 3e 80 15 14 bc 30 9d 96 3c 33 45 91 3e
       0.20514116 -0.009038329 0.0183855 0.28373107
000030 40 51 8c 3c 94 86 56 be 7d 79 97 3e 66 94 46 be
       0.017128587 -0.20949775 0.29584876 -0.19392547
000040 d5 d2 90 3e a4 cb da bd e6 fc 76 be 36 ba 1b 3e
       0.28285852 -0.106833726 -0.2411991 0.15207753
000050 68 cb 01 3e 80 e5 0c 3e 50 b9 22 3e 5a a1 4b 3e
       0.1267525 0.13759422 0.15891004 0.1988577
000060 30 ab 0a 3d 85 8f 8d 3e f8 eb 75 3d 59 b3 59 be
       0.033854663 0.2764856 0.06003949 -0.21259822
000070 12 bd d5 bd c2 fd 7d 3e 01 1c 90 3e 0e fe 19 3e
       -0.10436453 0.24803832 0.28146365 0.1503832
000080 95 4d 77 be a0 e6 28 3e ee a4 4a 3e 7c 4b 8d be
       -0.24150689 0.16494226 0.19789478 -0.27596653
000090 2e b8 f9 bd 52 59 01 3e 24 4f fd 3d f8 3b 3b be
       -0.121933326 0.12631729 0.123686105 -0.18284595
0000a0 ae 73 4b 3e 88 f1 f9 3d 80 a0 38 3d c8 6a 15 3e
       0.19868347 0.122042716 0.04507494 0.14591515
0000b0 ca 13 e5 bd 53 19 80 3e be 9b 65 3e 5b 34 96 be
       -0.11185415 0.2501932 0.22422692 -0.2933682
0000c0 8e bb 69 be 08 5d 03 bd 6a e8 a7 bd fe 80 82 bd
       -0.22825453 -0.032071143 -0.08198626 -0.063722596
0000d0 0c 52 e0 bd e0 b1 c1 bc 92 32 92 be 0a 57 71 3e
       -0.10953149 -0.023644388 -0.28554207 0.23568359
0000e0 86 29 6d be 0e 67 1c be 48 94 53 bd d0 79 eb bd
       -0.23160371 -0.15273687 -0.051655084 -0.11497843
0000f0 8d 12 58 be 76 20 06 3e 58 01 6b 3d 71 bc 96 be
       -0.21100827 0.1309832 0.05737433 -0.29440644
000100 6e 10 28 3e 60 df 3e bc c9 59 9c 3e e3 8e 92 3e
       0.16412517 -0.011649936 0.3053725 0.2862464
000110 6c 5a 88 3d 54 68 91 be d4 28 7a be 5d 1c 90 3e
       0.066578716 -0.2839991 -0.24429637 0.2814664
000120 20 02 f4 bd f8 1d ad 3d 80 92 44 3e a5 ee 96 be
       -0.11914468 0.08452982 0.1919651 -0.29478946
000130 56 f7 34 be 28 dc 86 3d 5a 45 47 3e 87 5b 85 3e
       -0.17672476 0.0658496 0.1946005 0.26046392
000140 a6 0f 65 3e 5a cc 2f be b0 e1 da 3c da b2 b3 bd
       0.2236925 -0.17167798 0.026718944 -0.087743476
000150 ec 40 88 3d cb 3d 2a be e9 98 87 3e 30 68 c5 bd
       0.06653008 -0.16625135 0.2648385 -0.09639013
000160 6a 1a 94 be 1f 5a 98 be ca ed 59 3e cf ee 2e be
       -0.28926402 -0.29756257 0.21282116 -0.17083286
000170 02 54 04 3e ea e9 13 3e 3d 57 19 be ea fd da bd
       0.12922671 0.144447 -0.14974685 -0.106929615
000180 18 17 68 bd 34 6c 23 3e 09 38 8d be b4 84 b0 3d
       -0.05666265 0.15959245 -0.27581814 0.08619061
000190 6c c9 27 be 1e 74 38 be b1 99 35 be 20 15 9b 3c
       -0.1638543 -0.18013045 -0.1773441 0.018930972
0001a0 86 d5 65 3e f3 fa 93 3e 90 2c e4 bd a7 59 99 be
       0.22444734 0.28902397 -0.11141312 -0.29951212
0001b0 ca ef c5 bd c6 57 93 be 84 ba 71 be 1a a5 89 bd
       -0.09664877 -0.28777903 -0.23606306 -0.06720944
0001c0 10 3f 06 bd d2 7d db bd a4 c8 6b bd b2 df 69 3e
       -0.032774985 -0.10717358 -0.057564393 0.22839239
0001d0 d6 71 f3 bd a8 a4 33 be 10 29 1a bd c8 44 de 3d
       -0.11886947 -0.1754328 -0.037636817 0.10852963
0001e0 70 93 41 3e 16 58 8c bd b6 a3 09 be 91 5d 90 3e
       0.18903899 -0.068527386 -0.13441357 0.28196386
0001f0 50 b1 7a 3d 0e bf 83 be a0 f4 8c be 00 9b 05 3e
       0.061204255 -0.257317 -0.27530384 0.13047409
000200 25 93 84 3e e6 68 63 be 62 84 1a 3e c0 7d 45 3e
       0.25893512 -0.22207984 0.15089563 0.19286251
000210 80 38 ee bc 1e 99 6d 3e f1 af 97 3e 20 77 97 3d
       -0.029079676 0.23202941 0.2962642 0.07395768
000220 c2 45 4e 3e f4 f3 d5 bd b4 a2 83 be 17 45 0b be
       0.20143798 -0.10446921 -0.2571007 -0.13600574
000230 80 75 14 3e 7d 42 91 3e f8 0c 36 3e a0 a5 08 3d
       0.14497948 0.2837104 0.17778385 0.033361077
000240 30 bc 57 3d 03 b6 85 3e c7 6a 21 be 3f 58 3c be
       0.052669704 0.26115426 -0.15763389 -0.18393038
000250 c0 ad 45 be 80 1c 2e 3d b8 c4 43 3d 1a 29 05 3e
       -0.19304562 0.04250765 0.047795027 0.1300396
000260 06 39 21 3e 22 8a 82 be a0 50 44 be f0 db 59 3d
       0.15744409 -0.25496012 -0.19171381 0.053188264
000270 c0 41 57 3d 50 51 94 bc 50 1b 9a bd 25 e1 88 3e
       0.05255294 -0.01810518 -0.07524741 0.26734272
000280 32 bd 61 3e 72 f3 09 3e 4c 07 89 be 40 9a 7b 3d
       0.22044829 0.13471773 -0.2676338 0.0614264
000290 56 93 79 3e 11 12 77 be ae 6f 11 be e1 41 94 3e
       0.2437261 -0.24127986 -0.14202759 0.28956512
0002a0 2e 36 53 3e 28 16 fb bd 4a 2b 15 be f0 dd c5 bc
       0.20626137 -0.12260085 -0.14567295 -0.02415368
0002b0 15 3c 94 3e e2 19 f5 bd b8 9a 1d 3d a0 13 3b 3d
       0.2895209 -0.119678274 0.03847763 0.045673013
0002c0 a8 1e 3d be 1e 59 b8 bd de ba 4b 3e e9 08 49 be
       -0.18468726 -0.09001373 0.19895503 -0.19632305
0002d0 da 8f 6c 3e cc 16 ee 3d 2c 08 12 3e f0 ba b6 3d
       0.2310175 0.11625442 0.1426093 0.08922374
0002e0 55 84 8e be e2 98 9b be 74 1c 38 be 96 2f 09 3e
       -0.27835336 -0.30390078 -0.17979604 0.13397059
0002f0 20 71 99 be 30 8e 56 bd 0b bf 8e 3e 50 3c 8a bc
       -0.2996912 -0.052381694 0.2788013 -0.016874462
000300 5e e2 29 be 8b 3f 8d 3e 9b 72 99 be 7d 52 95 be
       -0.16590258 0.27587542 -0.2997025 -0.29164496
000310 d1 5c 90 3e 05 4f 09 be 40 39 88 bc cc 4f a8 3d
       0.28195813 -0.1340905 -0.016628861 0.08218345
000320 d6 44 e1 bd 95 f2 0c be fe 1f 51 be 95 e8 90 3e
       -0.109994575 -0.13764413 -0.2042236 0.28302446
000330 ed af 96 3e f9 97 9c be 57 ac 94 3e 8b 6c 8a 3e
       0.29431096 -0.30584696 0.29037735 0.27035937
000340 f2 e2 34 3e 71 a2 96 be 79 bb 2a be ef 04 9b 3e
       0.17664698 -0.29420808 -0.16673078 0.30277202
000350 26 db 8f be 80 55 94 3b 8c 20 f6 3d 10 75 c1 bc
       -0.28096884 0.004526794 0.120179266 -0.02361539
000360 f5 e6 1f be 49 3c 51 be b2 d8 8d bd 7a 62 6e be
       -0.15615447 -0.20433153 -0.06926097 -0.23279753
000370 32 13 63 3e 56 c2 6a be 70 64 91 3d cf 77 9a 3e
       0.22175291 -0.22925696 0.07099235 0.30169532
000380 c6 05 92 be 60 43 61 bc 24 40 4d be d8 37 6d 3d
       -0.2852003 -0.013748974 -0.20043999 0.057914585
000390 2a 66 51 3e 7b ab 8f be 50 f4 ea bd 02 66 5f be
       0.20449129 -0.28060517 -0.1147238 -0.21816257
0003a0 a8 96 28 3d dc 37 84 3d d2 4d 40 be ca a0 5e 3e
       0.041159302 0.06455967 -0.18779686 0.21741024
0003b0 16 75 0e be c2 fb 63 be 60 a5 be bd 48 82 07 3e
       -0.13911852 -0.22264007 -0.093088865 0.13233292
0003c0 41 f0 7f be c0 63 00 3c 71 2f 94 3e 22 58 69 3e
       -0.24993993 0.007836282 0.28942445 0.22787526
0003d0 8a 7f 69 be 78 37 32 bd 56 75 5d be 4a a1 fc bd
       -0.22802559 -0.04350993 -0.21626791 -0.12335451
0003e0 19 32 10 be 37 ac 9b be a8 19 22 bd 32 b9 da bd
       -0.1408161 -0.30404827 -0.03957525 -0.106798545
0003f0 a8 45 94 bd c4 d8 db 3d 3a b7 28 3e 60 42 2b 3d
       -0.072398484 0.10734704 0.16476145 0.041811347

tokenTuringMachineUnit.transformerBlock.self_attn.in_proj_bias f4 [48]
000000 00 00 00 00 00 00 00 00 00 00 00 00 00 00 00 00
       0.0 0.0 0.0 0.0
000010 00 00 00 00 00 00 00 00 00 00 00 00 00 00 00 00
       0.0 0.0 0.0 0.0
000020 00 00 00 00 00 00 00 00 00 00 00 00 00 00 00 00
       0.0 0.0 0.0 0.0
000030 00 00 00 00 00 00 00 00 00 00 00 00 00 00 00 00
       0.0 0.0 0.0 0.0
000040 00 00 00 00 00 00 00 00 00 00 00 00 00 00 00 00
       0.0 0.0 0.0 0.0
000050 00 00 00 00 00 00 00 00 00 00 00 00 00 00 00 00
       0.0 0.0 0.0 0.0
000060 00 00 00 00 00 00 00 00 00 00 00 00 00 00 00 00
       0.0 0.0 0.0 0.0
000070 00 00 00 00 00 00 00 00 00 00 00 00 00 00 00 00
       0.0 0.0 0.0 0.0
000080 00 00 00 00 00 00 00 00 00 00 00 00 00 00 00 00
       0.0 0.0 0.0 0.0
000090 00 00 00 00 00 00 00 00 00 00 00 00 00 00 00 00
       0.0 0.0 0.0 0.0
0000a0 00 00 00 00 00 00 00 00 00 00 00 00 00 00 00 00
       0.0 0.0 0.0 0.0
0000b0 00 00 00 00 00 00 00 00 00 00 00 00 00 00 00 00
       0.0 0.0 0.0 0.0
