check_point/lapalce_noise_ttm_epoch_7.pth (torch, 973453 bytes, 72 tensors)

tokenTuringMachineUnit.tokenLearner1.norm.weight f4 [16]
0.9935854 0.94460946 0.95700634 1.0145575 1.0005648 0.98184127 0.96359104 0.9651776
1.0365602 1.0188394 1.0349345 1.0423425 0.9779378 1.002989 1.0097637 0.9859359
00000000: 9d5b 7e3f edd1 713f 5efe 743f 05dd 813f
00000010: 8212 803f f359 7b3f e7ad 763f e115 773f
00000020: 01ae 843f 5469 823f bc78 843f 7b6b 853f
00000030: 225a 7a3f f261 803f f03f 813f 4c66 7c3f

tokenTuringMachineUnit.tokenLearner1.norm.bias f4 [16]
2.2167587e-08 3.467288e-08 2.886762e-06 -7.122023e-06 -3.1889226e-06 -3.174052e-06 -1.5975891e-07 1.3009619e-06
-3.1758868e-06 -5.398644e-06 -1.2487958e-05 2.5602997e-06 8.4854236e-07 -1.2504614e-05 -3.516421e-06 5.099344e-07
00000000: 0a6b be32 3ceb 1433 32ba 4136 b6f9 eeb6
00000010: 4601 56b6 cc01 55b6 328a 2bb4 b69c ae35
00000020: 5221 55b6 0026 b5b6 5f83 51b7 9dd1 2b36
00000030: 63c7 6335 e8ca 51b7 a7fb 6bb6 6de2 0835

tokenTuringMachineUnit.tokenLearner1.attention_maps.0.weight f4 [16, 16, 1]
0.25324273 0.111177586 -0.17426854 0.20960906 -0.17221068 -0.15368557 0.029570466 -0.10464833
0.16970137 -0.11794188 0.019880874 0.2860842 -0.10440252 0.1171016 -0.073376715 -0.025722563
0.06755856 0.054877583 -0.17610526 0.108492754 -0.18580551 -0.04000319 -0.15476769 0.18544532
-0.30028036 0.19744307 0.232828 -0.0031479164 0.2254553 0.24002227 0.09302687 0.17484543
-0.15447876 -0.15603065 -0.027966473 -0.088089645 0.15506487 -0.19861458 -0.15847638 -0.16241276
0.097504295 -0.11805277 0.20783046 -0.1800246 0.014557624 -0.23236685 0.16467062 -0.19056772
0.13246934 -0.052020077 -0.11269828 -0.113041446 -0.0023922662 0.17340401 -0.07576848 -0.23266135
-0.07000687 -0.12182849 0.24411021 0.08660942 -0.21064194 0.20561191 0.036042333 0.11520176
-0.06587259 -0.07193145 -0.17954981 -0.14852135 -0.045919076 0.032381423 -0.112204574 0.09703478
-0.15747958 0.23138492 -0.09328998 -0.14176334 -0.12600987 -0.02534484 -0.13638398 0.18220082
-0.031707287 -0.010087447 0.2030384 -0.25459257 0.18204828 -0.10331988 -0.22275235 0.060548726
-0.008735448 -0.22517623 0.061085626 0.24792533 0.14965446 -0.013526195 -0.1195636 -0.091216445
-0.21664275 0.06192604 0.1213437 -0.100381255 0.08358322 -0.032714874 -0.14217049 -0.061942097
-0.26278943 0.22380903 0.1731179 -0.05300012 -0.09544805 0.20244832 0.2280084 0.2232783
0.19660814 -0.030328702 0.09000255 -0.21615249 -0.07814457 0.0979705 -0.07534813 -0.040410765
-0.09966208 -0.08194295 0.22991383 -0.035539325 0.22432521 0.054516442 0.13931231 -0.13359602
0.091913395 -0.19337893 0.1989724 -0.026373485 -0.13223483 0.25321606 -0.012681036 -0.068492696
-0.09095478 0.14716937 0.03303407 0.18819302 0.23206478 0.040842853 -0.1501809 0.2008447
0.11440419 -0.066923276 -0.23375313 -0.16337813 -0.1369142 0.24141416 -0.04196581 0.115517594
-0.11363476 0.05979399 -0.12857826 -0.13356787 0.10231696 0.042487722 -0.016765349 0.18446648
0.01941636 0.18247868 -0.008151837 -0.22693786 -0.24986073 0.18469165 0.04681271 -0.045217443
-0.10415304 0.18490395 0.18333545 0.11560765 0.066425726 -0.121764466 -0.112393916 -0.09766699
0.044938166 0.18529482 0.098977104 0.17614146 0.23541623 0.03846162 -0.23240444 0.17071712
0.25253442 0.20199032 -0.14743204 -0.0121573405 -0.14577141 -0.09488833 -0.17059687 -0.13218419
-0.14704241 0.19568807 -0.26197082 0.24263942 0.027976919 0.05878369 0.18241455 -0.09968966
0.290175 0.0017700429 -0.052897412 -0.050521143 -0.04933917 -0.14424257 -0.21888915 -0.046872005
-0.046018522 -0.09300884 0.19742256 0.21896411 -0.09404797 0.12613578 -0.16681421 -0.21297358
0.10873794 0.054880083 -0.077573694 -0.23043507 -0.21214393 0.15798524 0.024546418 -0.12686403
0.17781523 -0.08717102 -0.0680256 0.24441248 -0.16005734 -0.13361628 0.07522178 -0.10631086
-0.05258177 0.2322192 -0.25703406 -0.16640635 0.09385058 0.05641007 -0.26990348 0.13012476
-0.22726408 0.017804867 0.0045062657 0.019555738 0.06674916 -0.030817198 -0.10367737 0.20827562
0.005803252 0.22544004 -0.15671511 -0.014555739 -0.20167062 -0.15113918 0.1273157 -0.16514981
00000000: 08a9 813e 13b1 e33d 7473 32be c2a3 563e
00000010: ff57 30be c05f 1dbe c33d f23c dd51 d6bd
00000020: 32c6 2d3e 838b f1bd 37dd a23c a179 923e
00000030: fdd0 d5bd f7d2 ef3d 8846 96bd 20b8 d2bc
00000040: 245c 8a3d 51c7 603d f054 34be 7331 de3d
00000050: cd43 3ebe 63da 23bd 6c7b 1ebe 61e5 3d3e
00000060: 59be 99be 842e 4a3e 776a 6e3e 464d 4ebb
00000070: c1dd 663e 66c8 753e df84 be3d ae0a 333e
00000080: ae2f 1ebe 80c6 1fbe f219 e5bc 5868 b4bd
00000090: 53c9 1e3e 9f61 4bbe a247 22be 884f 26be
000000a0: 55b0 c73d a7c5 f1bd 82d1 543e 5e58 38be
000000b0: 1a83 6e3c 93f1 6dbe 6a9f 283e 2f24 43be
000000c0: 0ba6 073e 0113 55bd 5bce e6bd 4682 e7bd
000000d0: 91c7 1cbb d290 313e 812c 9bbd c73e 6ebe
000000e0: c35f 8fbd 3781 f9bd 07f8 793e 4860 b13d
000000f0: 85b2 57be ee8b 523e 20a1 133d e6ee eb3d
00000100: 35e8 86bd cc50 93bd e8db 37be fb15 18be
00000110: a415 3cbd 62a2 043d 83cb e5bd 2cba c63d
00000120: 5442 21be 2bf0 6c3e d10e bfbd 692a 11be
00000130: bb08 01be fb9f cfbc 3ea8 0bbe da92 3a3e
00000140: 80df 01bd d245 25bc 4ce9 4f3e f559 82be
00000150: dd6a 3a3e 6099 d3bd 3119 64be f101 783d
00000160: 201f 0fbc 9994 66be ec34 7a3d 23e0 7d3e
00000170: 053f 193e f99c 5dbc c3dd f4bd b0cf babd
00000180: 99d7 5dbe 29a6 7d3d 0c83 f83d b094 cdbd
00000190: ae2d ab3d 0800 06bd 2495 11be ffb6 7dbd
000001a0: 568c 86be 322e 653e d245 313e a716 59bd
000001b0: 447a c3bd 9d4e 4f3e 097b 693e 11a3 643e
000001c0: a553 493e e673 f8bc 4253 b83d 1457 5dbe
000001d0: 430a a0bd c2a4 c83d 1f50 9abd c285 25bd
000001e0: a21b ccbd b5d1 a7bd 886e 6b3e af91 11bd
000001f0: 82b5 653e a24c 5f3d e3a7 0e3e 65cd 08be
00000200: 173d bc3d 2005 46be 6cbf 4b3e 350d d8bc
00000210: 9168 07be 89a5 813e 1fc4 4fbc e645 8cbd
00000220: 8046 babd 91b3 163e bc4e 073d acb5 403e
00000230: 64a2 6d3e d64a 273d 06c9 19be 3caa 4d3e
00000240: be4c ea3d 120f 89bd fb5c 6fbe 994c 27be
00000250: 3c33 0cbe 4635 773e 57e4 2bbd 7d94 ec3d
00000260: 57b9 e8bd 8bea 743d 05aa 03be 04c6 08be
00000270: 8e8b d13d 9b07 2e3d 7c57 89bc c8e4 3c3e
00000280: 0f0f 9f3c b1db 3a3e 488f 05bc 6662 68be
00000290: 7edb 7fbe cf1f 3d3e afbe 3f3d ed35 39bd
000002a0: 304e d5bd 7657 3d3e 4abc 3b3e b4c3 ec3d
000002b0: 360a 883d a65f f9bd c82e e6bd a105 c8bd
000002c0: 1511 383d edbd 3d3e 82b4 ca3d 6d5e 343e
000002d0: f410 713e ef89 1d3d 6efb 6dbe 78d0 2e3e
000002e0: 314c 813e 8dd6 4e3e 6df8 16be 952f 47bc
000002f0: 1a45 15be d054 c2bd f2b0 2ebe 4b5b 07be
00000300: 4992 16be 7462 483e 0a21 86be 7876 783e
00000310: da2f e53c 2bc7 703d e1ca 3a3e 182a ccbd
00000320: d191 943e c900 e83a f5aa 58bd 42ef 4ebd
00000330: df17 4abd 53b4 13be 7a24 60be dcfc 3fbd
00000340: eb7d 3cbd 6b7b bebd 2429 4a3e 2138 603e
00000350: 399c c0bd bd29 013e 58d1 2abe bf15 5abe
00000360: ffb1 de3d f0c9 603d f5de 9ebd 2cf7 6bbe
00000370: 423c 59be e2c6 213e 9215 c93c a5e8 01be
00000380: 3215 363e b886 b2bd 0151 8bbd 4447 7a3e
00000390: 12e6 23be b5d2 08be e00d 9a3d 82b9 d9bd
000003a0: fb5f 57bd dfca 6d3e f899 83be 6d66 2abe
000003b0: bc34 c03d 3f0e 673d ca30 8abe 6d3f 053e
000003c0: eab7 68be 83db 913c 4ca9 933b 5b33 a03c
000003d0: c9b3 883d 5974 fcbc cd54 d4bd 3446 553e
000003e0: 3529 be3b c1d9 663e ed79 20be 327b 6ebc
000003f0: be82 4ebe 3bc4 1abe 0c5f 023e 081d 29be

tokenTuringMachineUnit.tokenLearner1.attention_maps.1.weight f4 [8, 16, 1]
0.22156772 0.14560929 0.008528031 -0.16547172 0.090937346 0.2238144 -0.065486155 0.1871227
-0.22123048 -0.0711952 0.18084344 -0.068054855 0.01166067 0.11530453 0.11519861 -0.065621644
-0.14090703 0.10537835 -0.22866128 0.07008534 0.17932147 0.19773462 -0.024534304 0.06380615
-0.13345619 -0.19094133 0.05869469 -0.29079413 -0.13842873 -0.24464536 -0.2060295 -0.05601325
0.07888235 0.02774765 0.053509954 -0.1656816 0.15211757 -0.16859092 0.17203069 0.03955505
-0.20777129 0.007271453 0.22471793 0.04024784 -0.21330567 0.17328426 -0.113542214 0.06144957
0.252513 0.019962939 -0.14697617 0.28301287 -0.026720868 0.2438011 0.049514834 0.095875114
-0.049108166 -0.08642058 -0.11072188 0.12004551 -0.094675474 -0.1271361 0.07077626 0.14281783
0.20495018 0.06301625 -0.104198776 -0.008036304 -0.018368479 -0.102288894 -0.08748766 0.045041908
0.090028 0.21286668 0.15459596 -0.12097047 -0.039406188 -0.21791211 0.0634669 -0.11074647
-0.11130636 0.07774894 0.17614639 -0.12360903 0.17477827 -0.09161481 0.21264875 0.06222597
-0.016115014 -0.085339986 0.15107001 0.017850768 0.13039413 0.028017523 0.08591427 -0.25805888
0.21434839 0.18509598 0.07362236 0.19492376 0.07441109 -0.10091407 0.11372386 0.24049573
0.17509052 -0.0032096135 0.1686895 0.10383615 -0.2641928 -0.16420041 -0.23572114 0.19061646
0.19228801 -0.017940152 0.16892995 0.21993606 -0.23202515 -0.012942054 0.16335581 -0.119803846
-0.17491478 0.21504188 -0.21628504 -0.17260331 -0.10867719 -0.06959531 -0.06862334 0.0142993815
00000000: a6e2 623e 9a1a 153e 28b9 0b3c 6b71 29be
00000010: 5c3d ba3d 9a2f 653e 9b1d 86bd 189d 3f3e
00000020: 3e8a 62be cace 91bd 062f 393e 5860 8bbd
00000030: 650c 3f3c c824 ec3d 40ed eb3d a464 86bd
00000040: ef49 10be 9bd0 d73d 2f26 6abe e788 8f3d
00000050: 0ca0 373e f27a 4a3e 2afc c8bc ccac 823d
00000060: bda8 08be 2086 43be d869 703d f8e2 94be
00000070: 43c0 0dbe 5084 7abe 66f9 52be 266e 65bd
00000080: 128d a13d 0a4f e33c 412d 5b3d 70a8 29be
00000090: b5c4 1b3e 19a3 2cbe d028 303e 7a04 223d
000000a0: ffc1 54be 5e45 ee3b 751c 663e ebda 243d
000000b0: cd6c 5abe 6e71 313e d288 e8bd 8bb2 7b3d
000000c0: 6249 813e 5189 a33c ec80 16be 10e7 903e
000000d0: b9e5 dabc ffa6 793e 11d0 4a3d 2c5a c43d
000000e0: a525 49bd 46fd b0bd 27c2 e2bd 6cda f53d
000000f0: 37e5 c1bd f72f 02be 25f3 903d d63e 123e
00000100: 76de 513e aa0e 813d 2b66 d5bd b4aa 03bc
00000110: 7e79 96bc d77c d1bd bb2c b3bd dd7d 383d
00000120: 9a60 b83d b9f9 593e 674e 1e3e 5ebf f7bd
00000130: 6268 21bd 5a24 5fbe effa 813d 0ccf e2bd
00000140: 97f4 e3bd d63a 9f3d b85f 343e bb26 fdbd
00000150: 13f9 323e 8ca0 bbbd 98c0 593e a9e0 7e3d
00000160: a203 84bc bbc6 aebd 19b2 1a3e c63b 923c
00000170: 0a86 053e 0185 e53c d2f3 af3d 4b20 84be
00000180: 257e 5b3e cd89 3d3e 52c7 963d 189a 473e
00000190: d764 983d 09ac cebd 0ee8 e83d 8344 763e
000001a0: ee4a 333e 6158 52bb f1bc 2c3e 0ca8 d43d
000001b0: 4744 87be 2724 28be e260 71be f630 433e
000001c0: 26e7 443e 3af7 92bc f9fb 2c3e eb36 613e
000001d0: 0098 6dbe e90a 54bc bf46 273e b85b f5bd
000001e0: dc1c 33be f033 5c3e d379 5dbe ecbe 30be
000001f0: 2692 debd fc87 8ebd 658a 8cbd f447 6a3c

tokenTuringMachineUnit.tokenLearner1.feat_conv.weight f4 [16, 16, 1]
-0.04649069 0.08153521 0.045207262 0.24942112 -0.058752913 0.04967616 -0.23509811 -0.20615052
-0.0036898998 0.099524066 -0.10509537 -0.121365346 0.058248505 0.06972905 0.034355067 -0.103191406
-0.13814162 -0.15223302 0.1895613 0.15007828 -0.2265801 -0.106438704 0.0037110175 0.21815282
-0.2283557 0.05900601 0.117916234 0.03696454 0.15669964 -0.13347384 0.22707355 0.04736602
0.18355975 -0.12932035 -0.07607828 -0.16531709 -0.23647386 -0.19080198 -0.0014737791 0.10933855
-0.1998627 -0.18489331 -0.15003489 0.12136917 0.18277827 -0.097240105 0.006891527 -0.20982003
-0.09961702 0.124382555 -0.0536054 0.10499033 0.13773452 -0.090432994 -0.24302204 0.19962141
0.21196881 -0.030371832 -0.052860156 -0.16171235 -0.07337555 -0.03530207 0.2080439 -0.19828993
-0.07571456 -0.043690108 0.24642263 -0.19574624 0.21502398 -0.05005117 0.0643396 -0.11816386
0.05977519 -0.070699 -0.13435616 -0.05951817 0.21891528 0.22170441 0.23238032 0.12332067
-0.046458118 0.19682817 -0.17970435 0.24411936 -0.23151396 -0.21458413 0.06795397 0.18981476
-0.2172506 0.14450791 0.03929223 0.01569095 0.009853052 -0.08420867 0.14462242 0.1339864
-0.22182746 -0.16643424 0.24368341 -0.12500569 -0.19889677 -0.012889288 0.04550886 0.17042303
-0.26924303 -0.07047351 0.082502656 -0.041620187 -0.081579916 -0.016833814 -0.1279104 0.14436935
0.06504271 0.13327146 0.021239907 -0.22787638 0.12222091 0.18817042 -0.17837068 0.25939038
-0.2375819 0.034493797 0.08066129 -0.15544023 -0.19053952 -0.056343604 0.24504644 -0.12620297
0.0013160182 -0.0418847 0.011119286 -0.21201454 -0.07563965 -0.027901558 -0.1777338 0.2593233
-0.145399 -0.16461852 0.057273585 0.12978534 -0.1720023 -0.11935022 0.08222235 -0.1199094
0.0326362 0.19873752 0.111622594 -0.18790798 0.08028178 -0.04813949 -0.03427832 -0.14654495
-0.0016702046 0.026410798 0.1833783 0.015902909 -0.04917316 0.14999951 0.113365956 0.13774602
0.009215436 0.031041076 -0.100560956 -0.24304771 0.124654405 0.007535694 -0.10328438 0.1691526
-0.060797777 -0.10552422 -0.16236319 -0.07941937 0.23431605 0.25521222 -0.13621995 0.26476914
-0.12137139 -0.22068176 -0.15226401 0.07461572 -0.13143876 0.08637957 0.12735888 0.15629178
0.08007707 0.09138446 -0.21451527 -0.26200125 0.08710512 -0.23470227 -0.048845377 0.10786422
0.16397472 -0.06289717 0.17535304 0.05265546 0.17054382 -0.09898326 0.16034368 -0.09562031
0.07805044 0.007416973 0.06857229 0.06426345 0.1732064 -0.17675112 -0.13523148 -0.16296628
-0.17517117 -0.23455043 -0.041890617 -0.14961663 -0.10152447 -0.05582379 0.09614663 -0.19311334
-0.16155829 -0.07449095 -0.25335473 -0.042464573 -0.2284843 0.058417313 0.0015238511 -0.10461765
-0.2850497 -0.105786845 0.20895569 -0.008932508 0.11784567 -0.042943627 0.18956558 0.0131581165
-0.022730147 0.23366599 -0.22569962 -0.18572307 -0.012254077 -0.10559479 -0.23191378 0.16891895
-0.093306564 -0.005750047 -0.22526465 0.17117944 -0.18285029 0.16696748 0.13471805 0.13536073
-0.22986203 0.05950198 -0.020217726 0.08436623 0.22367923 -0.21813054 -0.012350585 -0.17801793
00000000: 066d 3ebd effb a63d 402b 393d 4068 7f3e
00000010: e5a6 70bd 3b79 4b3d 8fbd 70be 1f19 53be
00000020: 3fd2 71bb 46d3 cb3d 3e3c d7bd 658e f8bd
00000030: fc95 6e3d 1bce 8e3d e6b7 0c3d 0456 d3bd
00000040: ff74 0dbe f9e2 1bbe 5c1c 423e 1fae 193e
00000050: 9d04 68be 89fc d9bd 8b34 733b 7463 5f3e
00000060: 14d6 69be 49b0 713d 117e f13d 2168 173d
00000070: df75 203e 5ead 08be f885 683e df02 423d
00000080: 16f7 3b3e 8e6c 04be eece 9bbd e248 29be
00000090: 3426 72be 9861 43be d22b c1ba e4ec df3d
000000a0: cfa8 4cbe ac54 3dbe bfa2 19be 6690 f83d
000000b0: 3a2a 3b3e d225 c7bd 52d2 e13b 10db 56be
000000c0: 0204 ccbd 48bc fe3d 5691 5bbd 2c05 d73d
000000d0: 470a 0d3e ef34 b9bd c5da 78be 8e69 4c3e
000000e0: 5a0e 593e 59ce f8bc e483 58bd ec97 25be
000000f0: ec45 96bd e798 10bd 7609 553e 840c 4bbe
00000100: 3c10 9bbd 66f4 32bd 3756 7c3e b471 48be
00000110: 3f2f 5c3e 7502 4dbd 7bc4 833d e5ff f1bd
00000120: d4d6 743d a3ca 90bd a994 09be 53c9 73bd
00000130: 542b 603e 7b06 633e 1bf5 6d3e 8c8f fc3d
00000140: de4a 3ebd 538d 493e 6b04 38be 6dfa 793e
00000150: ff11 6dbe f1bb 5bbe 732b 8b3d cd5e 423e
00000160: f176 5ebe e2f9 133e e4f0 203d 4f8a 803c
00000170: b26e 213c 9875 acbd e617 143e bb33 093e
00000180: bd26 63be bd6d 2abe 2588 793e 7e01 00be
00000190: 98ab 4bbe 982d 53bc 8067 3a3d 6083 2e3e
000001a0: 39da 89be 6a54 90bd 27f7 a83d ee79 2abd
000001b0: 5f13 a7bd 11e7 89bc f2fa 02be 8fd5 133e
000001c0: 1d35 853d 5078 083e 50ff ad3c 6d58 69be
000001d0: f54e fa3d bfaf 403e cea6 36be d1ce 843e
000001e0: ab48 73be 5e49 0d3d bf31 a53d b92b 1fbe
000001f0: cb1c 43be 8dc8 66bd 74ed 7a3e 5a3b 01be
00000200: 3e7e ac3a 4b8f 2bbd aa2d 363c 571a 59be
00000210: f6e8 9abd cf91 e4bc d9ff 35be 06c6 843e
00000220: 7ae3 14be c291 28be b597 6a3d 73e6 043e
00000230: 5f21 30be e36d f4bd 3164 a83d 0f93 f5bd
00000240: 89ad 053d d981 4b3e 639a e43d f36a 40be
00000250: c66a a43d ea2d 45bd 6c67 0cbd e10f 16be
00000260: c4ea daba 755b d83c 85c7 3b3e d146 823c
00000270: cc69 49bd 7999 193e 692c e83d 4b0d 0d3e
00000280: 57fc 163c db49 fe3c e7f2 cdbd 80e1 78be
00000290: cf4a ff3d fced f63b c386 d3bd 5736 2d3e
000002a0: 1707 79bd 151d d8bd 8942 26be 9fa6 a2bd
000002b0: 8cf0 6f3e 2dab 823e 3e7d 0bbe d28f 873e
000002c0: 9091 f8bd 66fa 61be 19eb 1bbe 20d0 983d
000002d0: e297 06be c6e7 b03d 5e6a 023e f40a 203e
000002e0: 72ff a33d c727 bb3d e4a9 5bbe 0725 86be
000002f0: 2b64 b23d cb55 70be 1712 48bd ebe7 dc3d
00000300: fde8 273e 3bd0 80bd bf8f 333e 40ad 573d
00000310: 0aa3 2e3e bcb7 cabd 2231 243e 95d4 c3bd
00000320: e9d8 9f3d 140a f33b a16f 8c3d 8e9c 833d
00000330: 055d 313e 3ffe 34be 1f7a 0abe a2e0 26be
00000340: 1260 33be fd2d 70be 7f95 2bbd 1a35 19be
00000350: 10ec cfbd 7da7 64bd 86e8 c43d 81bf 45be
00000360: 896f 25be b68e 98bd b6b7 81be 55ef 2dbd
00000370: caf7 69be fe46 6f3d f5bb c73a c741 d6bd
00000380: 09f2 91be c6a6 d8bd 7bf8 553e a759 12bc
00000390: 1259 f13d a8e5 2fbd 7b1d 423e 2495 573c
000003a0: 9334 babc 2346 6f3e cd1d 67be 302e 3ebe
000003b0: 53c5 48bc 1542 d8bd ce7a 6dbe 17f9 2c3e
000003c0: 8317 bfbd e46a bcbb c7ab 66be aa49 2f3e
000003d0: 1b3d 3bbe 86f9 2a3e 87f3 093e 019c 0a3e
000003e0: f460 6bbe 59b8 733d a59f a5bc 34c8 ac3d
000003f0: 2b0c 653e 9d5d 5fbe 1c5a 4abc 554a 36be

tokenTuringMachineUnit.tokenLearner2.norm.weight f4 [16]
0.95008284 0.9470984 0.987092 0.973241 0.94284016 0.93826914 0.9504182 0.9474254
0.925001 0.9921531 0.9615614 0.974498 0.9768305 0.9518751 0.95893496 0.94711125
00000000: a138 733f 0a75 723f 10b2 7c3f 5226 793f
00000010: f95d 713f 6832 703f 9b4e 733f 798a 723f
00000020: decc 6c3f bffd 7d3f e328 763f b378 793f
00000030: 9011 7a3f 16ae 733f c37c 753f e275 723f

tokenTuringMachineUnit.tokenLearner2.norm.bias f4 [16]
1.975312e-05 -5.3628764e-06 9.0640415e-06 7.304535e-06 -1.270286e-06 -2.149471e-06 4.25486e-06 7.3995784e-06
1.1944446e-06 -1.967466e-05 -7.663605e-06 1.5014344e-05 -3.522118e-05 1.0959592e-05 -2.634651e-06 4.7213084e-06
00000000: 81b3 a537 c2f2 b3b6 c311 1837 7a19 f536
00000010: b27e aab5 a13f 10b6 f8c4 8e36 e549 f836
00000020: ce50 a035 030b a5b7 ef92 00b7 1ee6 7b37
00000030: 74ba 13b8 17df 3737 f6ce 30b6 bb6b 9e36

tokenTuringMachineUnit.tokenLearner2.attention_maps.0.weight f4 [16, 16, 1]
0.11070199 0.07201603 0.15929191 0.25912765 -0.13029934 -0.22035354 0.10340133 0.06409677
0.0017503048 -0.20196983 -0.0006136105 0.034349408 -0.11921573 -0.18470213 -0.18015696 -0.18523577
-0.11746596 0.1083343 -0.040119514 0.03887824 0.15751374 -0.18234082 0.14245391 -0.06294109
-0.028110089 0.14008722 -0.1893678 -0.035779137 -0.038533088 -0.06504366 -0.061920885 0.110900484
0.25378618 0.25720882 -0.1248927 -0.10180672 -0.11292898 -0.20833673 -0.026149819 -0.09980098
-0.18154031 0.19218048 0.09798722 -0.17275052 0.09071819 0.12389852 0.25409907 -0.21128301
-0.08840676 0.06896256 0.2184487 -0.103100084 0.20238668 0.21105841 -0.00797834 -0.08955258
-0.027691908 -0.044892754 0.004612948 -0.15762642 0.08612688 -0.12087651 -0.13950565 0.24271704
-0.0073082168 0.025437359 -0.07220086 -0.09243631 -0.2253306 0.07785802 0.027574917 -0.17954765
0.024939945 0.21083865 0.1876862 0.23975012 -0.19018355 -0.08843635 -0.18233857 0.052597407
-0.104324326 -0.23198994 0.056962814 0.14794254 -0.0638427 0.035635483 0.035650298 0.11983975
0.17743124 -0.0029944794 -0.11513536 -0.21304885 -0.0934636 0.02465911 -0.028711589 0.22668897
0.087444134 -0.11260206 -0.23660749 -0.18715625 -0.027575808 0.060134888 0.16170748 -0.1596688
-0.049127616 0.15683699 -0.035394177 -0.076605015 -0.049891867 -0.11738332 0.17193922 0.12980478
0.058189377 -0.057303045 0.22519818 -0.055480763 -0.1789182 -0.0305747 0.09075452 0.00011884633
0.02639773 0.01732198 0.12379549 0.048814014 -0.058259346 0.19218346 0.10263268 0.14121974
-0.14562663 0.18078807 -0.16620865 0.23799619 -0.22206563 0.06653582 -0.029963886 -0.12931643
-0.22459991 -0.23545305 -0.11840665 0.13465156 -0.23779275 -0.0156196235 0.05210762 -0.06583706
0.01648533 0.20621504 -0.1733748 0.17926972 0.15799767 0.13489409 0.14624567 -0.13419583
0.03921643 0.037970077 -0.23445562 -0.2025518 0.22335112 0.05392974 -0.05165494 0.14189224
-0.10396299 -0.03204026 0.099793226 0.21447131 0.12688126 0.015680073 0.104430735 0.1391614
-0.14257288 -0.13929632 -0.1552903 0.10740747 -0.11809608 -0.20743182 -0.21836996 0.1071615
-0.110070266 0.122624956 0.20605095 -0.17998296 -0.07138209 -0.18028443 -0.09882998 -0.048295967
-0.06678379 -0.09357995 -0.09440899 0.19079044 0.11774362 -0.005270835 -0.037027262 0.12062936
-0.09089989 0.07988354 0.23270902 0.022135649 0.10623859 -0.022140283 0.18923259 -0.107874945
0.07278755 -0.06336907 0.21123879 0.053316556 -0.2613025 0.119850904 -0.09703146 0.030572886
0.18809736 0.14760318 0.13594997 0.053164367 0.16687281 0.05896642 -0.17770931 -0.0036709346
0.15710096 -0.19865486 -0.11919964 -0.14715424 -0.04325697 0.1764974 0.13285029 0.13125242
-0.07350145 0.09522931 0.054929152 -0.20329359 0.1918055 -0.19853172 0.04963458 -0.1835698
0.15170386 -0.087393254 -0.029717393 0.16119705 -0.21862827 -0.12715352 -0.18142863 -0.0072759404
-0.1481413 0.18744688 -0.1369115 0.09697724 0.14940885 0.06654561 -0.06542737 -0.21389952
0.07686986 0.025197836 0.22683504 -0.061870024 -0.07724116 0.25361523 -0.08838255 0.060048442
00000000: bab7 e23d 247d 933d 6b1d 233e 61ac 843e
00000010: 316d 05be 5ca4 61be 14c4 d33d 2b45 833d
00000020: 7c6a e53a 2ed1 4ebe b4da 20ba f7b1 0c3d
00000030: 6027 f4bd 8e22 3dbe 117b 38be 72ae 3dbe
00000040: fe91 f0bd 60de dd3d 5c54 24bd ca3e 1f3d
00000050: 484b 213e 8db7 3abe 70df 113e 42e7 80bd
00000060: 2147 e6bc 0673 0f3e a2e9 41be 258d 12bd
00000070: dfd4 1dbd 9c35 85bd c1a0 7dbd cb1f e33d
00000080: 43f0 813e e0b0 833e bec7 ffbd 0b80 d0bd
00000090: 4f47 e7bd 3956 55be 2538 d6bc 7564 ccbd
000000a0: b4e5 39be f6ca 443e 86ad c83d 83e5 30be
000000b0: 75ca b93d 82be fd3d 4619 823e 935a 58be
000000c0: 9a0e b5bd 3e3c 8d3d 04b1 5f3e 2326 d3bd
000000d0: 743e 4f3e b21f 583e 95b7 02bc 5867 b7bd
000000e0: 24da e2bc 77e1 37bd 3628 973b d268 21be
000000f0: 4a63 b03d 1b8e f7bd 92da 0ebe d18a 783e
00000100: c479 efbb 0262 d03c 0bde 93bd 404f bdbd
00000110: 11bd 66be 0774 9f3d cbe4 e13c 57db 37be
00000120: db4e cc3c 16e6 573e d030 403e 0e81 753e
00000130: 7abf 42be 1e1e b5bd f6b6 3abe 6170 573d
00000140: fea7 d5bd c58e 6dbe d751 693d 407e 173e
00000150: f6bf 82bd 83f6 113d 0c06 123d 8b6e f53d
00000160: 89b0 353e 073f 44bb 16cc ebbd 7a29 5abe
00000170: d869 bfbd e701 ca3c 9134 ebbc 2721 683e
00000180: e915 b33d e99b e6bd 3c49 72be e3a5 3fbe
00000190: a9e6 e1bc 0050 763d a596 253e 3880 23be
000001a0: 0a3a 49bd e099 203e 7cf9 10bd 17e3 9cbd
000001b0: 6a5b 4cbd ab66 f0bd d610 303e 8beb 043e
000001c0: fc57 6e3d 99b6 6abd 5a9a 663e cc3f 63bd
000001d0: 5536 37be cb77 fabc 81dd b93d 233d f938
000001e0: 0d40 d83c d3e6 8d3c 7d88 fd3d 34f1 473d
000001f0: 5aa1 6ebd becb 443e 1531 d23d e89b 103e
00000200: 261f 15be 8220 393e 9a32 2abe 46b5 733e
00000210: 2c65 63be ef43 883d d376 f5bc 876b 04be
00000220: 85fd 65be 9b1a 71be 307f f2bd 19e2 093e
00000230: f17f 73be 73e9 7fbc cd6e 553d 95d5 86bd
00000240: 3e0c 873c 092a 533e 2a89 31be 7b92 373e
00000250: 24ca 213e ad21 0a3e 6dc1 153e a26a 09be
00000260: 68a1 203d 8386 1b3d 2215 70be bd69 4fbe
00000270: 28b6 643e 6ee5 5c3d 2194 53bd 334c 113e
00000280: 8cea d4bd a63c 03bd 6460 cc3d 5e9e 5b3e
00000290: 29ed 013e 7f73 803c c8df d53d 5380 0e3e
000002a0: a0fe 11be b2a3 0ebe 6c04 1fbe 73f8 db3d
000002b0: 5cdc f1bd 0269 54be 609c 5fbe 7d77 db3d
000002c0: 856c e1bd cb22 fb3d 05ff 523e 744d 38be
000002d0: c630 92bd 7b9c 38be 5f67 cabd fed1 45bd
000002e0: f1c5 88bd d8a6 bfbd 8059 c1bd 925e 433e
000002f0: 9123 f13d f8b6 acbb e6a9 17bd 870c f73d
00000300: b929 babd fb99 a33d 464b 6e3e d255 b53c
00000310: 9e93 d93d 8a5f b5bc 30c6 413e 8aed dcbd
00000320: a411 953d a5c7 81bd fb4e 583e 7662 5a3d
00000330: 71c9 85be 6474 f53d 6eb8 c6bd fd73 fa3c
00000340: 989c 403e 4a25 173e 7836 0b3e e1c2 593d
00000350: b5e0 2a3e c686 713d 6ef9 35be 1094 70bb
00000360: 13df 203e 2e6c 4bbe f11e f4bd 9aaf 16be
00000370: 382e 31bd bcbb 343e e809 083e 0967 063e
00000380: ee87 96bd 9607 c33d 64fd 603d 322c 50be
00000390: a968 443e e64b 4bbe a14d 4b3d b9f9 3bbe
000003a0: 4258 1b3e 3cfb b2bd e471 f3bc d710 253e
000003b0: 17e0 5fbe 8834 02be 6dc8 39be 036b eebb
000003c0: 5ab2 17be 13f2 3f3e 8732 0cbe 019c c63d
000003d0: a2fe 183e 1149 883d c9fe 85bd 7a08 5bbe
000003e0: f26d 9d3d b16b ce3c 7247 683e 6c6b 7dbd
000003f0: 9d30 9ebd dbd9 813e e901 b5bd 5bf5 753d

tokenTuringMachineUnit.tokenLearner2.attention_maps.1.weight f4 [128, 16, 1]
-0.14774585 0.046237733 0.0939076 -0.16482495 -0.10613177 -0.063267045 0.074962795 -0.008475335
-0.07364826 -0.001628314 -0.12967677 0.14151181 -0.11833687 -0.047876712 0.07762275 -0.008809266
-0.17439312 -0.0025876735 -0.12702703 0.092246756 -0.052757766 0.023064159 -0.034820244 0.005032083
0.17317422 0.03173811 -0.12923343 -0.096053705 -0.0040280325 0.063678 0.18347633 -0.102174334
-0.09349325 -0.2029294 0.17543046 -0.04936811 -0.17604679 -0.17873472 0.097365685 0.04609304
0.1799252 -0.027535714 -0.053843614 0.13199896 -0.03688777 -0.027051525 0.020273302 0.0014117876
-0.19868927 0.03177823 -0.053857572 0.0555661 0.11029413 -0.12052716 0.030965365 -0.0030849732
-0.08742224 -0.19011854 0.031660456 0.049169127 -0.015072768 -0.14852794 -0.15419087 -0.028918402
0.22446786 0.022371002 0.18710215 0.035240244 -0.08329993 0.09940606 -0.16238582 -0.0013875825
0.20446111 -0.024154004 0.08579427 0.11772246 0.0020871044 -0.11796912 0.09947534 -0.12681183
-0.06415206 -0.19572686 -0.22973579 0.17533776 0.13558242 -0.0037310265 -0.022596017 0.15161717
-0.17755744 0.12029747 0.116116256 -0.0038887032 -0.070460066 0.15900272 -0.054843415 0.18512732
0.122313485 -0.108024664 0.16595742 0.086597025 -0.054335378 0.058091387 -0.03838745 0.17791252
0.013162899 0.004290101 0.17980993 0.19291934 -0.16256759 0.11159293 0.007861513 -0.114769876
-0.11809042 0.19075462 0.15290277 0.15442295 0.18693422 -0.10952446 -0.16842854 -0.056626152
-0.16133444 -0.15018646 -0.119481765 0.05292183 -0.07379972 0.024141543 0.05571303 -0.1383793
0.10500915 0.1902262 0.13884525 -0.13916104 0.19030164 -0.04092982 -0.1293333 0.13984314
-0.17006843 -0.08488961 -0.035569597 -0.10686116 0.06260564 -0.0045655477 -0.10586493 0.1156688
-0.09673644 -0.028339317 -0.043776155 -0.14527847 0.11120833 -0.005835943 0.080317736 0.16940664
0.16426194 -0.15152751 0.08651452 0.09549491 0.16372424 0.008232894 0.11046334 -0.14305125
-0.14718677 -0.04838767 -0.20879683 -0.20260894 0.13159406 -0.031479508 0.0903407 -0.14912008
0.10463553 -0.21910213 -0.079308204 -0.19452657 0.070348665 -0.058236547 -0.017906414 0.041079473
-0.14904651 0.010150925 0.16241096 -0.1156751 0.046404436 -0.0930242 -0.19407575 0.03731942
0.13548003 -0.17309833 0.11210375 -0.031456687 -0.10102752 0.15941466 0.14307314 -0.14935975
0.24363546 -0.17319211 -0.1720594 0.043616217 0.111511976 0.13348383 0.15346725 -0.052757483
0.16561006 0.13547692 0.11499321 -0.17084463 0.20504864 -0.029814929 -0.05310162 -0.14150865
-0.19508344 0.07382289 -0.026779477 -0.11457012 -0.13019274 0.10961864 -0.16190015 0.09876107
-0.03738043 0.08374181 0.13426739 -0.1464782 -0.10759921 -0.014966478 0.081712276 -0.114578284
0.041295122 0.051600803 -0.17830585 0.1846054 -0.22710091 0.09770268 -0.16199975 0.23527855
0.17825568 -0.19286901 -0.11175709 0.04529827 -0.06613233 0.0005299084 0.1889288 -0.07088249
0.004130738 0.19715889 -0.050898004 -0.19540395 0.17475843 -0.19499566 0.0420817 0.018426958
-0.18006311 -0.23478979 -0.16470146 0.12247452 0.11161626 0.08405345 0.18418711 0.03561639
00000000: b04a 17be c763 3d3d a152 c03d dfc7 28be
00000010: 9d5b d9bd 2792 81bd 1886 993d 22dc 0abc
00000020: e6d4 96bd 276d d5ba fdc9 04be 79e8 103e
00000030: 9a5a f2bd 5f1a 44bd adf8 9e3d bd54 10bc
00000040: 1c94 32be f595 29bb 6013 02be deeb bc3d
00000050: 8718 58bd 0cf1 bc3c ac9f 0ebd 2ce4 a43b
00000060: 9554 313e d2ff 013d c555 04be ceb7 c4bd
00000070: 96fd 83bb 9c69 823d 38e1 3b3e c740 d1bd
00000080: 6479 bfbd bacc 4fbe 0ba4 333e 3736 4abd
00000090: 9c45 34be 3c06 37be a967 c73d 0ecc 3c3d
000000a0: 503e 383e 9492 e1bc 1f8b 5cbd bc2a 073e
000000b0: a117 17bd 299b ddbc 3214 a63c bb0b b93a
000000c0: 3375 4bbe e429 023d c299 5cbd 4799 633d
000000d0: e4e1 e13d f2d6 f6bd 14ab fd3c 432d 4abb
000000e0: 6e0a b3bd 6fae 42be 65ae 013d 9165 493d
000000f0: c5f3 76bc b517 18be 36e4 1dbe 49e6 ecbc
00000100: e7da 653e 6443 b73c b597 3f3e 1358 103d
00000110: 2799 aabd 6895 cb3d 7848 26be 8bdf b5ba
00000120: 415e 513e 9ede c5bc e8b4 af3d 7918 f13d
00000130: cdc7 083b cb99 f1bd bab9 cb3d f6da 01be
00000140: 2862 83bd 9f6c 48be dc3f 6bbe be8b 333e
00000150: 1ed6 0a3e 3d84 74bb 481b b9bc 8841 1b3e
00000160: 9ed1 35be 855e f63d 5cce ed3d 9dd9 7ebb
00000170: 5e4d 90bd 9cd1 223e 7da3 60bd 0492 3d3e
00000180: 7e7f fa3d 093c ddbd bef0 293e c859 b13d
00000190: c68e 5ebd 3cf1 6d3d 293c 1dbd b32e 363e
000001a0: 33a9 573c fa93 8c3b 1820 383e a68c 453e
000001b0: 1e78 26be d68a e43d 93cd 003c 780c ebbd
000001c0: 64d9 f1bd 2e55 433e 8b92 1c3e 0d21 1e3e
000001d0: af6b 3f3e 5c4e e0bd 8878 2cbe d3f0 67bd
000001e0: db34 25be 7bca 19be dbb2 f4bd 90c4 583d
000001f0: 4f24 97bd 7cc4 c53c 5933 643d 4eb3 0dbe
00000200: 0a0f d73d a8ca 423e 732d 0e3e 3b80 0ebe
00000210: 6fde 423e 07a6 27bd f36f 04be 0a33 0f3e
00000220: 6b26 2ebe 9bda adbd 6db1 11bd 06da dabd
00000230: 6337 803d 979a 95bb b6cf d8bd c4e3 ec3d
00000240: c11d c6bd db27 e8bc a04e 33bd e1c3 14be
00000250: 31c1 e33d 703b bfbb a07d a43d ef78 2d3e
00000260: 4834 283e 072a 1bbe 862e b13d d692 c33d
00000270: 54a7 273e 43e3 063c 9b3a e23d 077c 12be
00000280: 21b8 16be 2632 46bd d6ce 55be b878 4fbe
00000290: 98c0 063e a8f0 00bd 8b04 b93d efb2 18be
000002a0: 274b d63d 4f5c 60be 576c a2bd f931 47be
000002b0: f612 903d 7289 6ebd 79b0 92bc f342 283d
000002c0: a69f 18be 1150 263c 0f4f 263e 11e7 ecbd
000002d0: 9412 3e3d 7983 bebd cbbb 46be 40dc 183d
000002e0: 47bb 0a3e b040 31be a796 e53d bad8 00bd
000002f0: 84e7 cebd 993d 233e c481 123e c3f1 18be
00000300: 937b 793e 4659 31be 5730 30be eba6 323d
00000310: 6460 e43d fcaf 083e 8526 1d3e 3b18 58bd
00000320: af95 293e 76ba 0a3e 8f81 eb3d e5f1 2ebe
00000330: 45f8 513e 703e f4bc 1681 59bd a5e7 10be
00000340: f4c3 47be 7530 973d a260 dbbc bda3 eabd
00000350: 3f51 05be bd7f e03d 27c9 25be 3e43 ca3d
00000360: 391c 19bd d380 ab3d 647d 093e 62fe 15be
00000370: fa5c dcbd f535 75bc c458 a73d 05a8 eabd
00000380: 1325 293d 5d5b 533d cf95 36be 3309 3d3e
00000390: 248d 68be 5818 c83d 43e3 25be dcec 703e
000003a0: a888 363e 747f 45be e7e0 e4bd ae8a 393d
000003b0: 6370 87bd 8de9 0a3a 8d76 413e d72a 91bd
000003c0: 245b 873b 05e4 493e 6d7a 50bd f917 48be
000003d0: e0f3 323e f1ac 47be dc5d 2c3d 22f4 963c
000003e0: 7762 38be bc6c 70be 80a7 28be ecd3 fa3d
000003f0: 1197 e43d 3724 ac3d 8c9b 3c3e 7ee2 113d

tokenTuringMachineUnit.tokenLearner2.feat_conv.weight f4 [16, 16, 1]
-0.15504703 -0.24165672 0.051261146 -0.03848135 -0.20724306 0.10556861 0.059020553 0.27221495
-0.24550669 -0.06038013 -0.02021572 -0.14525443 0.0072460114 0.26547727 0.051983863 -0.021119326
0.18306904 0.12040275 -0.21798263 0.06924572 0.2056438 0.09075053 0.08951389 0.17247088
-0.090234496 0.09234148 0.0543359 0.017281493 0.002391013 -0.1866036 -0.19888338 0.07254085
0.25326437 0.10727167 -0.03894163 0.21397334 0.18289147 0.1614299 0.22150722 -0.053841442
-0.12399695 -0.19974998 -0.066282906 -0.10932237 0.028612172 -0.1797612 0.016943363 0.22996867
0.11556674 -0.049441013 -0.25152025 0.14631848 0.1616325 -0.15161578 -0.08979847 -0.26416713
0.2566278 -0.05287243 0.03458337 -0.15275657 0.064070955 -0.13274944 0.042589642 0.0848474
0.16301942 -0.09375809 0.08732156 0.18092784 -0.03205985 5.6778816e-05 0.0361369 0.051646985
0.042635947 0.038735967 0.24535918 -0.16980207 0.15382679 -0.2016894 0.025691263 0.11575002
0.20067969 0.23602521 -0.13116518 -0.068688355 0.23006058 -0.03403399 -0.10490979 -0.018091176
0.21291423 0.19376025 0.19594337 0.2186839 -0.14340723 -0.2579905 0.061687794 0.013604022
-0.09719107 0.094515234 0.05453273 -0.109152816 0.21837674 -0.20750844 -0.08344845 -0.1885062
0.2091598 -0.07813063 -0.091168396 -0.110914856 -0.22588181 0.1579478 0.18114005 -0.011729737
0.16205023 0.18378918 0.09198702 -0.15510094 0.13507749 -0.14940129 0.13607413 -0.19270256
0.17872202 -0.16734539 -0.21979602 -0.19779426 0.19830325 0.17860599 -0.092453085 0.09910095
-0.07303592 -0.15201676 -0.17197706 -0.1171891 0.08265542 0.26069498 -0.26301676 -0.031550582
-0.0033289676 0.1343234 -0.14657374 -0.059240893 0.030450372 0.034534734 0.14917609 -0.15782772
0.14899006 -0.04124154 -0.17158173 -0.11427105 0.1347252 0.091893345 -0.017959097 -0.10214981
-0.011020628 0.2123861 -0.11950942 -0.22049533 -0.044007387 0.04843821 0.25983196 -0.10255656
0.12996495 0.113103874 -0.14964472 0.12679374 -0.23781408 0.13669482 0.14288129 -0.05206457
-0.08671164 -0.15082622 0.23983441 0.07183203 -0.06485711 0.2904216 0.17322518 0.14203362
0.061380558 -0.16330115 0.10172134 0.13647424 0.25551564 -0.22318897 -0.05319318 -0.062101882
0.059877787 -0.23214729 -0.033635024 0.041781466 0.023612961 -0.024143146 -0.1734082 0.22011086
0.18058985 -0.22626342 -0.059301924 0.031090122 0.18535315 0.12790823 0.16627772 -0.13567221
-0.21401608 0.14562856 -0.23989779 0.08349956 -0.07750539 -0.15323086 -0.11266349 0.24261993
-0.022951746 -0.055059984 0.15024282 -0.14447825 0.19167452 0.078902714 0.08835209 -0.08820179
-0.093589105 -0.1820858 -0.10620312 0.21631089 -0.195402 0.12433528 -0.16457781 0.11882472
0.0470003 -0.038601357 0.12342467 0.059611473 -0.16713533 0.22459708 0.05007073 -0.2077549
-0.20087811 -0.17714201 0.053147756 0.15554269 -0.23827933 -0.111050226 -0.003342797 0.15680471
0.25359255 0.03930742 -0.12818278 0.20989539 -0.021164495 -0.113354005 -0.13117923 -0.12995666
0.20085117 -0.1762584 -0.0149383815 0.119133055 -0.0459526 -0.008173059 -0.19558707 -0.074177876
00000000: a6c4 1ebe dc74 77be 35f7 513d 9f9e 1dbd
00000010: 8637 54be 5b34 d83d 89bf 713d c25f 8b3e
00000020: 1b66 7bbe 2851 77bd 709b a5bc 94bd 14be
00000030: f36f ed3b a3ec 873e 08ed 543d 7002 adbc
00000040: 7376 3b3e b895 f63d d736 5fbe b3d0 8d3d
00000050: 4a94 523e 6adb b93d 0f53 b73d 359c 303e
00000060: ddcc b8bd 881d bd3d 528f 5e3d eb91 8d3c
00000070: 8bb2 1c3b 0415 3fbe 16a8 4bbe 4c90 943d
00000080: deab 813e 40b1 db3d 4281 1fbd d41b 5b3e
00000090: e747 3b3e e14d 253e cad2 623e d888 5cbd
000000a0: 1df2 fdbd 428b 4cbe 55bf 87bd 68e4 dfbd
000000b0: 1364 ea3c 5213 38be cfcc 8a3c e87c 6b3e
000000c0: 41ae ec3d a982 4abd 43c7 80be 83d4 153e
000000d0: fd82 253e 2b41 1bbe 43e8 b7bd ea40 87be
000000e0: b864 833e c390 58bd 4ba7 0d3d 386c 1cbe
000000f0: a237 833d 78ef 07be 7a72 2e3d 79c4 ad3d
00000100: 90ee 263e 3e04 c0bd a5d5 b23d 2645 393e
00000110: 3051 03bd ca25 6e38 4904 143d ca8b 533d
00000120: 08a3 2e3d 9ba9 1e3d 703f 7b3e 98e0 2dbe
00000130: c584 1d3e ab87 4ebe 7c76 d23c 590e ed3d
00000140: fa7e 4d3e 98b0 713e 2a50 06be 7bac 8cbd
00000150: 0095 6b3e 3a67 0bbd f2da d6bd f233 94bc
00000160: 3006 5a3e 1669 463e 61a5 483e acee 5f3e
00000170: 58d9 12be 5517 84be 57ac 7c3d 67e3 5e3c
00000180: 1d0c c7bd 3491 c13d b65d 5f3d 838b dfbd
00000190: 279e 5f3e 187d 54be 05e7 aabd c507 41be
000001a0: fd2d 563e f402 a0bd 7fb6 babd 5427 e3bd
000001b0: 904d 67be 11bd 213e c77c 393e 152e 40bc
000001c0: 7ff0 253e 3b33 3c3e b163 bc3d c8d2 1ebe
000001d0: c151 0a3e a7fc 18be 0457 0b3e d253 45be
000001e0: e802 373e 975c 2bbe 3512 61be 948a 4abe
000001f0: 0210 4b3e 7de4 363e 0b58 bdbd 70f5 ca3d
00000200: db93 95bd 48aa 1bbe c11a 30be d700 f0bd
00000210: 3f47 a93d d079 853e 22aa 86be 2f3b 01bd
00000220: cf2a 5abb 138c 093e 6d17 16be 94a6 72bd
00000230: 0f73 f93c 4b74 0d3d 9ec1 183e 979d 21be
00000240: da90 183e e4ec 28bd 1fb3 2fbe f106 eabd
00000250: 67f5 093e 9432 bc3d f51e 93bc eb33 d1bd
00000260: dd8f 34bc be7b 593e 5bc1 f4bd 87c9 61be
00000270: 1741 34bd 2567 463d b208 853e 2c09 d2bd
00000280: 8815 053e 01a3 e73d 773c 19be 38d6 013e
00000290: 8985 73be baf9 0b3e 794f 123e a941 55bd
000002a0: df95 b1bd 3072 1abe 2797 753e ac1c 933d
000002b0: ced3 84bd 24b2 943e f161 313e 4371 113e
000002c0: 2e6a 7b3d 6b38 27be 4753 d03d e7bf 0b3e
000002d0: f2d2 823e a68b 64be 18e1 59bd 8b5e 7ebd
000002e0: 6942 753d 05b8 6dbe e1c4 09bd 0b23 2b3d
000002f0: f86f c13c d9c7 c5bc eb91 31be be64 613e
00000300: 8cec 383e 99b1 67be 93e6 72bd b6b0 fe3c
00000310: 37cd 3d3e 60fa 023e b544 2a3e a8ed 0abe
00000320: 0827 5bbe a71f 153e c4a7 75be d101 ab3d
00000330: 25bb 9ebd 8de8 1cbe 1ebc e6bd 5c71 783e
00000340: 4d05 bcbc 9486 61bd 41d9 193e 1bf2 13be
00000350: 5346 443e bf97 a13d f1f1 b43d 24a3 b4bd
00000360: a5ab bfbd b374 3abe 0581 d9bd 9a80 5d3e
00000370: 7617 48be 7fa3 fe3d 1687 28be 605a f33d
00000380: 6383 403d 751c 1ebd 13c6 fc3d 292b 743d
00000390: 8625 2bbe c7fc 653e f716 4d3d b3bd 54be
000003a0: feb2 4dbe b764 35be 76b1 593d 9546 1f3e
000003b0: 7fff 73be 4d6e e3bd d412 5bbb 6a91 203e
000003c0: e2d6 813e d100 213d 5942 03be d1ee 563e
000003d0: 2a61 adbc 2526 e8bd d953 06be 5c13 05be
000003e0: eeab 4d3e 157d 34be 1dc0 74bc 08fc f33d
000003f0: cb38 3cbd 4be8 05bc fa47 48be 92ea 97bd

tokenTuringMachineUnit.transformerBlock.self_attn.in_proj_weight f4 [48, 16]
0.25695112 -0.017782778 -0.23997355 -0.17272769 -0.03351468 -0.18325165 0.27234843 -0.27593443
0.20514116 -0.009038329 0.0183855 0.28373107 0.017128587 -0.20949775 0.29584876 -0.19392547
0.28285852 -0.106833726 -0.2411991 0.15207753 0.1267525 0.13759422 0.15891004 0.1988577
0.033854663 0.2764856 0.06003949 -0.21259822 -0.10436453 0.24803832 0.28146365 0.1503832
-0.24150689 0.16494226 0.19789478 -0.27596653 -0.121933326 0.12631729 0.123686105 -0.18284595
0.19868347 0.122042716 0.04507494 0.14591515 -0.11185415 0.2501932 0.22422692 -0.2933682
-0.22825453 -0.032071143 -0.08198626 -0.063722596 -0.10953149 -0.023644388 -0.28554207 0.23568359
-0.23160371 -0.15273687 -0.051655084 -0.11497843 -0.21100827 0.1309832 0.05737433 -0.29440644
0.16412517 -0.011649936 0.3053725 0.2862464 0.066578716 -0.2839991 -0.24429637 0.2814664
-0.11914468 0.08452982 0.1919651 -0.29478946 -0.17672476 0.0658496 0.1946005 0.26046392
0.2236925 -0.17167798 0.026718944 -0.087743476 0.06653008 -0.16625135 0.2648385 -0.09639013
-0.28926402 -0.29756257 0.21282116 -0.17083286 0.12922671 0.144447 -0.14974685 -0.106929615
-0.05666265 0.15959245 -0.27581814 0.08619061 -0.1638543 -0.18013045 -0.1773441 0.018930972
0.22444734 0.28902397 -0.11141312 -0.29951212 -0.09664877 -0.28777903 -0.23606306 -0.06720944
-0.032774985 -0.10717358 -0.057564393 0.22839239 -0.11886947 -0.1754328 -0.037636817 0.10852963
0.18903899 -0.068527386 -0.13441357 0.28196386 0.061204255 -0.257317 -0.27530384 0.13047409
0.25893512 -0.22207984 0.15089563 0.19286251 -0.029079676 0.23202941 0.2962642 0.07395768
0.20143798 -0.10446921 -0.2571007 -0.13600574 0.14497948 0.2837104 0.17778385 0.033361077
0.052669704 0.26115426 -0.15763389 -0.18393038 -0.19304562 0.04250765 0.047795027 0.1300396
0.15744409 -0.25496012 -0.19171381 0.053188264 0.05255294 -0.01810518 -0.07524741 0.26734272
0.22044829 0.13471773 -0.2676338 0.0614264 0.2437261 -0.24127986 -0.14202759 0.28956512
0.20626137 -0.12260085 -0.14567295 -0.02415368 0.2895209 -0.119678274 0.03847763 0.045673013
-0.18468726 -0.09001373 0.19895503 -0.19632305 0.2310175 0.11625442 0.1426093 0.08922374
-0.27835336 -0.30390078 -0.17979604 0.13397059 -0.2996912 -0.052381694 0.2788013 -0.016874462
-0.16590258 0.27587542 -0.2997025 -0.29164496 0.28195813 -0.1340905 -0.016628861 0.08218345
-0.109994575 -0.13764413 -0.2042236 0.28302446 0.29431096 -0.30584696 0.29037735 0.27035937
0.17664698 -0.29420808 -0.16673078 0.30277202 -0.28096884 0.004526794 0.120179266 -0.02361539
-0.15615447 -0.20433153 -0.06926097 -0.23279753 0.22175291 -0.22925696 0.07099235 0.30169532
-0.2852003 -0.013748974 -0.20043999 0.057914585 0.20449129 -0.28060517 -0.1147238 -0.21816257
0.041159302 0.06455967 -0.18779686 0.21741024 -0.13911852 -0.22264007 -0.093088865 0.13233292
-0.24993993 0.007836282 0.28942445 0.22787526 -0.22802559 -0.04350993 -0.21626791 -0.12335451
-0.1408161 -0.30404827 -0.03957525 -0.106798545 -0.072398484 0.10734704 0.16476145 0.041811347
00000000: 198f 833e 30ad 91bc a0bb 75be 87df 30be
00000010: b046 09bd 52a6 3bbe 4171 8b3e 4747 8dbe
00000020: 8610 523e 8015 14bc 309d 963c 3345 913e
00000030: 4051 8c3c 9486 56be 7d79 973e 6694 46be
00000040: d5d2 903e a4cb dabd e6fc 76be 36ba 1b3e
00000050: 68cb 013e 80e5 0c3e 50b9 223e 5aa1 4b3e
00000060: 30ab 0a3d 858f 8d3e f8eb 753d 59b3 59be
00000070: 12bd d5bd c2fd 7d3e 011c 903e 0efe 193e
00000080: 954d 77be a0e6 283e eea4 4a3e 7c4b 8dbe
00000090: 2eb8 f9bd 5259 013e 244f fd3d f83b 3bbe
000000a0: ae73 4b3e 88f1 f93d 80a0 383d c86a 153e
000000b0: ca13 e5bd 5319 803e be9b 653e 5b34 96be
000000c0: 8ebb 69be 085d 03bd 6ae8 a7bd fe80 82bd
000000d0: 0c52 e0bd e0b1 c1bc 9232 92be 0a57 713e
000000e0: 8629 6dbe 0e67 1cbe 4894 53bd d079 ebbd
000000f0: 8d12 58be 7620 063e 5801 6b3d 71bc 96be
00000100: 6e10 283e 60df 3ebc c959 9c3e e38e 923e
00000110: 6c5a 883d 5468 91be d428 7abe 5d1c 903e
00000120: 2002 f4bd f81d ad3d 8092 443e a5ee 96be
00000130: 56f7 34be 28dc 863d 5a45 473e 875b 853e
00000140: a60f 653e 5acc 2fbe b0e1 da3c dab2 b3bd
00000150: ec40 883d cb3d 2abe e998 873e 3068 c5bd
00000160: 6a1a 94be 1f5a 98be caed 593e cfee 2ebe
00000170: 0254 043e eae9 133e 3d57 19be eafd dabd
00000180: 1817 68bd 346c 233e 0938 8dbe b484 b03d
00000190: 6cc9 27be 1e74 38be b199 35be 2015 9b3c
000001a0: 86d5 653e f3fa 933e 902c e4bd a759 99be
000001b0: caef c5bd c657 93be 84ba 71be 1aa5 89bd
000001c0: 103f 06bd d27d dbbd a4c8 6bbd b2df 693e
000001d0: d671 f3bd a8a4 33be 1029 1abd c844 de3d
000001e0: 7093 413e 1658 8cbd b6a3 09be 915d 903e
000001f0: 50b1 7a3d 0ebf 83be a0f4 8cbe 009b 053e
00000200: 2593 843e e668 63be 6284 1a3e c07d 453e
00000210: 8038 eebc 1e99 6d3e f1af 973e 2077 973d
00000220: c245 4e3e f4f3 d5bd b4a2 83be 1745 0bbe
00000230: 8075 143e 7d42 913e f80c 363e a0a5 083d
00000240: 30bc 573d 03b6 853e c76a 21be 3f58 3cbe
00000250: c0ad 45be 801c 2e3d b8c4 433d 1a29 053e
00000260: 0639 213e 228a 82be a050 44be f0db 593d
00000270: c041 573d 5051 94bc 501b 9abd 25e1 883e
00000280: 32bd 613e 72f3 093e 4c07 89be 409a 7b3d
00000290: 5693 793e 1112 77be ae6f 11be e141 943e
000002a0: 2e36 533e 2816 fbbd 4a2b 15be f0dd c5bc
000002b0: 153c 943e e219 f5bd b89a 1d3d a013 3b3d
000002c0: a81e 3dbe 1e59 b8bd deba 4b3e e908 49be
000002d0: da8f 6c3e cc16 ee3d 2c08 123e f0ba b63d
000002e0: 5584 8ebe e298 9bbe 741c 38be 962f 093e
000002f0: 2071 99be 308e 56bd 0bbf 8e3e 503c 8abc
00000300: 5ee2 29be 8b3f 8d3e 9b72 99be 7d52 95be
00000310: d15c 903e 054f 09be 4039 88bc cc4f a83d
00000320: d644 e1bd 95f2 0cbe fe1f 51be 95e8 903e
00000330: edaf 963e f997 9cbe 57ac 943e 8b6c 8a3e
00000340: f2e2 343e 71a2 96be 79bb 2abe ef04 9b3e
00000350: 26db 8fbe 8055 943b 8c20 f63d 1075 c1bc
00000360: f5e6 1fbe 493c 51be b2d8 8dbd 7a62 6ebe
00000370: 3213 633e 56c2 6abe 7064 913d cf77 9a3e
00000380: c605 92be 6043 61bc 2440 4dbe d837 6d3d
00000390: 2a66 513e 7bab 8fbe 50f4 eabd 0266 5fbe
000003a0: a896 283d dc37 843d d24d 40be caa0 5e3e
000003b0: 1675 0ebe c2fb 63be 60a5 bebd 4882 073e
000003c0: 41f0 7fbe c063 003c 712f 943e 2258 693e
000003d0: 8a7f 69be 7837 32bd 5675 5dbe 4aa1 fcbd
000003e0: 1932 10be 37ac 9bbe a819 22bd 32b9 dabd
000003f0: a845 94bd c4d8 db3d 3ab7 283e 6042 2b3d

tokenTuringMachineUnit.transformerBlock.self_attn.in_proj_bias f4 [48]
0.0 0.0 0.0 0.0 0.0 0.0 0.0 0.0
0.0 0.0 0.0 0.0 0.0 0.0 0.0 0.0
0.0 0.0 0.0 0.0 0.0 0.0 0.0 0.0
0.0 0.0 0.0 0.0 0.0 0.0 0.0 0.0
0.0 0.0 0.0 0.0 0.0 0.0 0.0 0.0
0.0 0.0 0.0 0.0 0.0 0.0 0.0 0.0
00000000: 0000 0000 0000 0000 0000 0000 0000 0000
00000010: 0000 0000 0000 0000 0000 0000 0000 0000
00000020: 0000 0000 0000 0000 0000 0000 0000 0000
00000030: 0000 0000 0000 0000 0000 0000 0000 0000
00000040: 0000 0000 0000 0000 0000 0000 0000 0000
00000050: 0000 0000 0000 0000 0000 0000 0000 0000
00000060: 0000 0000 0000 0000 0000 0000 0000 0000
00000070: 0000 0000 0000 0000 0000 0000 0000 0000
00000080: 0000 0000 0000 0000 0000 0000 0000 0000
00000090: 0000 0000 0000 0000 0000 0000 0000 0000
000000a0: 0000 0000 0000 0000 0000 0000 0000 0000
000000b0: 0000 0000 0000 0000 0000 0000 0000 0000

tokenTuringMachineUnit.transformerBlock.self_attn.out_proj.weight f4 [16, 16]
0.23943612 0.1766496 0.18626761 -0.24270979 0.06410217 0.24603677 -0.22477677 -0.117064685
0.2150347 0.0052109957 0.049319267 0.05946082 -0.069525 0.00812307 0.24467897 0.13018522
0.22889787 0.23775265 0.10241997 0.11236665 0.12200034 -0.021820635 -0.18631816 0.16437098
-0.030433744 0.030007094 0.119389325 0.03055209 -0.0014755726 0.079250276 -0.1900934 -0.15403673
-0.02486968 -0.18770066 0.172723 0.04818836 -0.10031313 -0.022403508 -0.19039908 0.14079979
-0.24908009 -0.07635188 -0.17820221 0.09125525 0.084462166 -0.040005118 0.15941694 0.1278151
-0.17074835 0.16779146 -0.1587739 0.21934217 -0.048152447 0.027347237 -0.060756147 0.21776026
-0.05333662 0.1377534 0.17403048 -0.03148091 0.110202014 0.16687164 0.062396675 -0.04533404
-0.16268957 -0.18823087 -0.23272002 -0.19075605 0.19315454 0.18131125 -0.15445176 0.0540134
-0.19481826 0.03522852 0.06443715 0.010573804 0.046668768 -0.16950428 -0.2441386 -0.083878845
-0.1243878 -0.20188102 0.11544436 -0.0075309277 0.13907471 -0.07700983 -0.22347876 -0.06523645
-0.026746124 -0.031482965 0.096663386 0.05136785 -0.21638599 -0.04726839 -0.2191391 0.12943566
-0.057031244 0.098691225 0.12639907 -0.17578995 0.008856088 -0.23421487 0.2150644 0.03883019
0.1583361 0.042685837 0.16878882 0.1324397 0.03293395 -0.24326444 -0.18922058 -0.13680625
-0.06513417 -0.10883531 -0.23895654 0.03125629 0.013441086 0.17917296 0.1960463 0.10514918
0.043842405 -0.060711533 0.067927 -0.11017135 0.0051801205 -0.12183544 0.07090551 -0.039251566
-0.073912024 -0.057689756 0.21622556 0.024410963 0.06644693 -0.23999634 0.08270359 0.1820974
-0.2443735 -0.05391878 0.012275934 -0.019589543 -0.013081789 0.008016944 0.030121058 0.14515695
0.17420089 0.2443285 0.1417565 0.19691423 0.19384098 0.047882617 0.21440575 0.09085232
0.009964377 -0.068588614 -0.017512858 -0.015422046 -0.17835408 -0.0022563636 0.052708417 0.1553399
-0.06336805 -0.091502756 -0.09398064 -0.036010176 0.14832646 0.23499069 -0.22739622 -0.0634014
0.2306638 -0.20583472 -0.23136473 0.027179658 -0.074911654 0.061599582 0.19828025 0.11254722
-0.12634793 -0.053961486 0.17097992 0.1020751 0.110543996 0.21457896 -0.14118114 -0.2277449
-0.09875691 -0.00934571 0.11380282 -0.1654146 -0.124019116 -0.15328902 0.106550545 0.19341716
-0.10358268 -0.23952574 -0.05074781 0.025167793 -0.12177706 0.064563125 -0.0062919855 0.24780712
0.019248039 -0.039896786 0.0025152266 -0.12778047 -0.18418178 -0.15187079 -0.14288163 -0.033643454
0.2186437 -0.10993871 -0.13624042 0.09007001 0.022216976 0.124993175 -0.11358088 0.21059439
-0.18881649 0.20831415 0.07536319 -0.13695204 0.037814766 0.1484108 -0.11323401 0.16308334
-0.17009705 0.03995323 0.018118054 -0.07899651 0.01729694 -0.13662511 0.10115433 0.2153619
0.18450582 -0.031055301 -0.06114939 0.24506035 0.2084339 0.13200518 -0.03435272 0.0027816892
-0.064603 -0.23050469 0.18454036 0.0046367943 0.077135265 -0.051979423 0.11052692 0.013226777
0.05763939 -0.18596467 -0.23741335 0.22862467 -0.19705066 -0.14010274 -0.08337909 -0.1941278
00000000: be2e 753e a2e3 343e f0bc 3e3e ea88 78be
00000010: 0048 833d 10f1 7b3e e22b 66be 9cbf efbd
00000020: 0e32 5c3e 00c1 aa3b 0003 4a3d 308d 733d
00000030: 2063 8ebd a016 053c 208d 7a3e 464f 053e
00000040: 3464 6a3e 6e75 733e 90c1 d13d 7c20 e63d
00000050: 50db f93d 30c1 b2bc 30ca 3ebe de50 283e
00000060: 3050 f9bc 70d1 f53c 6482 f43d 6048 fa3c
00000070: 0068 c1ba f84d a23d d8a7 42be cebb 1dbe
00000080: 80bb cbbc 9a34 40be 4cde 303e 2861 453d
00000090: f870 cdbd 9087 b7bc faf7 42be d22d 103e
000000a0: da0e 7fbe 605e 9cbd a47a 36be 08e4 ba3d
000000b0: 80fa ac3d 68dc 23bd 323e 233e f6e1 023e
000000c0: a8d8 2ebe 86d1 2b3e a095 22be 3c9b 603e
000000d0: 803b 45bd 5007 e03c 70db 78bd 8cfc 5e3e
000000e0: 8077 5abd 3a0f 0d3e 0c35 323e 20f2 00bd
000000f0: 98b1 e13d 66e0 2a3e a893 7f3d 30b0 39bd
00000100: 1898 26be 98bf 40be 284e 6ebe 8e55 43be
00000110: 4eca 453e a8a9 393e 9a28 1ebe 283d 5d3d
00000120: 707e 47be c84b 103d a0f7 833d c03d 2d3c
00000130: c027 3f3d 8892 2dbe 78ff 79be acc8 abbd
00000140: 08bf febd e6b9 4ebe 186e ec3d 00c6 f6bb
00000150: 9a69 0e3e 54b7 9dbd 9ed7 64be b09a 85bd
00000160: b01a dbbc 48f4 00bd 74f7 c53d 1867 523d
00000170: 4a94 5dbe 809c 41bd 0066 60be c88a 043e
00000180: 9899 69bd a01e ca3d c26e 013e 4802 34be
00000190: 2019 113c 06d6 6fbe d839 5c3e 680c 1f3d
000001a0: dc22 223e 58d7 2e3d fad6 2c3e 469e 073e
000001b0: c0e5 063d 501a 79be 0ac3 41be f016 0cbe
000001c0: 1065 85bd 0ce5 debd 06b1 74be 9806 003d
000001d0: 0038 5c3c 1e79 373e 5cc0 483e 7458 d73d
000001e0: 1894 333d a8ac 78bd 501d 8b3d 84a1 e1bd
000001f0: 00be a93b dc84 f9bd e836 913d 40c6 20bd
00000200: 305f 97bd 184c 6cbd 3c6a 5d3e 80f9 c73c
00000210: 5415 883d 9ac1 75be 8060 a93d be77 3a3e
00000220: 0c3d 7abe f0d9 5cbd 0021 493c 407a a0bc
00000230: 0055 56bc 8059 033c 70c0 f63c 06a4 143e
00000240: b861 323e 4031 7a3e 9e28 113e e2a3 493e
00000250: 407e 463e 9020 443d 2e8d 5b3e c810 ba3d
00000260: a041 233c 3078 8cbd 2077 8fbc c0ac 7cbc
00000270: 74a2 36be 80df 13bb c8e4 573d 6c11 1f3e
00000280: 1cc7 81bd cc65 bbbd ec78 c0bd 687f 13bd
00000290: e4e2 173e 66a1 703e 8eda 68be 98d8 81bd
000002a0: 2233 6c3e 56c6 52be e0ea 6cbe e0a7 de3c
000002b0: 486b 99bd d84f 7c3d fa09 4b3e 287f e63d
000002c0: 5a61 01be b806 5dbd 5c15 2f3e c00c d13d
000002d0: e464 e23d 96ba 5b3e ca91 10be f635 69be
000002e0: 1041 cabd c01e 19bc 7411 e93d 7262 29be
000002f0: bcfd fdbd ccf7 1cbe 2c37 da3d 260f 463e
00000300: 2823 d4bd 3c46 75be f0dc 4fbd b02c ce3c
00000310: 4066 f9bd ac39 843d 002d cebb 26c1 7d3e
00000320: 10ae 9d3c d06a 23bd 80d6 243b e2d8 02be
00000330: 269a 3cbe 0484 1bbe 904f 12be b8cd 09bd
00000340: 22e4 5f3e 8c27 e1bd 9c82 0bbe a076 b83d
00000350: 6000 b63c 6cfc ff3d 189d e8bd 0ea6 573e
00000360: 1c59 41be 4e50 553e 0458 9a3d 283d 0cbe
00000370: a8e3 1a3d 00f9 173e 3ce7 e7bd 52ff 263e
00000380: ec2d 2ebe 00a6 233d 506c 943c ecc8 a1bd
00000390: 50b2 8d3c 74e7 0bbe 002a cf3d d487 5c3e
000003a0: 18ef 3c3e b067 febc c877 7abd 1af1 7a3e
000003b0: b26f 553e 5e2c 073e 70b5 0cbd 004d 363b
000003c0: 944e 84bd 6c09 6cbe 26f8 3c3e 40f0 973b
000003d0: 18f9 9d3d 60e8 54bd f05b e23d 20b5 583c
000003e0: 4817 6c3d 866d 3ebe 7c1c 73be 961c 6a3e
000003f0: a6c7 49be 1877 0fbe a8c2 aabd 70c9 46be

tokenTuringMachineUnit.transformerBlock.self_attn.out_proj.bias f4 [16]
0.0 0.0 0.0 0.0 0.0 0.0 0.0 0.0
0.0 0.0 0.0 0.0 0.0 0.0 0.0 0.0
00000000: 0000 0000 0000 0000 0000 0000 0000 0000
00000010: 0000 0000 0000 0000 0000 0000 0000 0000
00000020: 0000 0000 0000 0000 0000 0000 0000 0000
00000030: 0000 0000 0000 0000 0000 0000 0000 0000
