check_point/lapalce_noise_ttm_epoch_3.pth (torch, 973453 bytes, 72 tensors)

tokenTuringMachineUnit.tokenLearner1.norm.weight f4 [16]
0	0x3f8027b9	1.0012122
1	0x3f784e41	0.96994406
2	0x3f7ed725	0.99547035
3	0x3f7cc22c	0.9873378
4	0x3f7d1e7e	0.9887465
5	0x3f7f4a91	0.99723154
6	0x3f79e7a5	0.97619087
7	0x3f798da5	0.9748176
8	0x3f811559	1.008464
9	0x3f7ef40c	0.99591136
10	0x3f817645	1.0114218
11	0x3f808b2e	1.0042474
12	0x3f7f108a	0.9963461
13	0x3f79ab26	0.97526777
14	0x3f7f0fe2	0.9963361
15	0x3f7dda18	0.9916091

tokenTuringMachineUnit.tokenLearner1.norm.bias f4 [16]
0	0xb42e63db	-1.624134e-07
1	0xb6849d24	-3.9522e-06
2	0xb701b161	-7.730298e-06
3	0xb57edabf	-9.494069e-07
4	0xb66a2bcb	-3.4894208e-06
5	0xb50b991f	-5.2004356e-07
6	0x35357942	6.760421e-07
7	0xb69b9179	-4.636295e-06
8	0x356cb337	8.8177643e-07
9	0xb61b0e54	-2.310514e-06
10	0x34d0c5a0	3.888681e-07
11	0xb61d33ed	-2.3425048e-06
12	0xb5c54bcb	-1.4699702e-06
13	0x35d76cec	1.6050449e-06
14	0x337e17cf	5.9160637e-08
15	0x360248e9	1.9413949e-06

tokenTuringMachineUnit.tokenLearner1.attention_maps.0.weight f4 [16, 16, 1]
0	0x3e78d4ee	0.24299976
1	0x3e07af41	0.13250448
2	0xbe4fd6fe	-0.20296857
3	0x3e762a26	0.24039516
4	0xbe271fdc	-0.16320747
5	0xbe08cad1	-0.13358618
6	0x3cb6eb10	0.022328883
7	0xbddc1db5	-0.10747854
8	0x3e4deef7	0.20110689
9	0xbdfed9fc	-0.12443921
10	0x3b85a7fc	0.004078863
11	0x3e829583	0.25504693
12	0xbdbe10f7	-0.092805795
13	0x3daf904d	0.08572445
14	0xbdae490c	-0.08510026
15	0xbd03ed4d	-0.03220873
16	0x3d464320	0.04840386
17	0x3d97ae32	0.07406272
18	0xbe5820e9	-0.21106304
19	0x3e139361	0.1441169
20	0xbe389e6b	-0.18029182
21	0xbcc025d3	-0.023455536
22	0xbe1a54cd	-0.15071411
23	0x3e3f6428	0.1869055
24	0xbe89ef81	-0.2694054
25	0x3e4aa4cf	0.19789432
26	0x3e5646ec	0.20925492
27	0xbd24e02f	-0.04025286
28	0x3e6e4e34	0.2327202
29	0x3e548ae9	0.20756115
30	0x3d9d8123	0.076906465
31	0x3e3043ef	0.17213415
32	0xbe11a9a2	-0.14224866
33	0xbe394663	-0.18093257
34	0x3bb7c443	0.005608113
35	0xbdfb44e8	-0.12269002
36	0x3e14f404	0.1454621
37	0xbe637936	-0.22214207
38	0xbe231fc0	-0.1593008
39	0xbe192513	-0.14955549
40	0x3d8476c4	0.06467965
41	0xbde5373e	-0.11192177
42	0x3e60e3cc	0.21961898
43	0xbe1704f1	-0.14747979
44	0x3a2d7cfa	0.0006618049
45	0xbe4f8267	-0.20264588
46	0x3e312d7e	0.1730251
47	0xbe3b3ec4	-0.18285662
48	0x3dee2ac8	0.116292536
49	0xbd40aadd	-0.047037948
50	0xbe0fd563	-0.14046244
51	0xbdad3907	-0.08458143
52	0xbb5f22ef	-0.0034047922
53	0x3e42a04b	0.1900646
54	0xbd8cae09	-0.06869132
55	0xbe7ba9ff	-0.24576567
56	0xbd2519a1	-0.040307645
57	0xbddf470d	-0.10902224
58	0x3e6689af	0.2251346
59	0x3d4c45a4	0.049871102
60	0xbe5bdc75	-0.21470816
61	0x3e353231	0.17694928
62	0x3c9c8583	0.019106632
63	0x3df30c2e	0.118675575
64	0xbd9eed37	-0.07760089
65	0xbd4c18ca	-0.04982833
66	0xbe4e0249	-0.20118059
67	0xbe03ae91	-0.1285956
68	0xbd114691	-0.035467688
69	0x3d437a38	0.04772398
70	0xbde1e223	-0.1102946
71	0x3dbe6aba	0.092977
72	0xbe064bd9	-0.13114871
73	0x3e62806d	0.22119303
74	0xbddaff45	-0.1069322
75	0xbe2a67e8	-0.166412
76	0xbde9c540	-0.114145756
77	0xbd1c818e	-0.03820949
78	0xbe1203de	-0.14259288
79	0x3e3532e6	0.17695197
80	0xbd41780e	-0.047233634
81	0xbc24689a	-0.010034705
82	0x3e337b25	0.17527445
83	0xbe6187ff	-0.22024535
84	0x3e3577f8	0.17721546
85	0xbdc16bb9	-0.094443746
86	0xbe595e14	-0.21227294
87	0x3d681a93	0.05666597
88	0x3c76084a	0.015016625
89	0xbe565164	-0.20929486
90	0x3d3268bc	0.043556914
91	0x3e5ee880	0.21768379
92	0x3e13a53f	0.14418505
93	0xbd3c75e6	-0.046010874
94	0xbe09b2b0	-0.1344707
95	0xbdb3d113	-0.08780112
96	0xbe7562a2	-0.23963407
97	0x3d849305	0.06473354
98	0x3dcf9fca	0.10137899
99	0xbd904182	-0.070437446
100	0x3da04bb8	0.07826942
101	0xbcda67f6	-0.0266609
102	0xbe05e3e8	-0.1307522
103	0xbd715332	-0.05891723
104	0xbe79d09f	-0.24395989
105	0x3e75c340	0.24000263
106	0x3e141780	0.1446209
107	0xbdb481ff	-0.08813857
108	0xbdd5c09a	-0.104371265
109	0x3e30d3c5	0.17268284
110	0x3e56453b	0.20924847
111	0x3e6bc0bf	0.23022746
112	0x3e3f0ab1	0.18656422
113	0xba8e80fd	-0.0010872182
114	0x3d793c84	0.060848728
115	0xbe4a0a27	-0.19730435
116	0xbd772b90	-0.06034428
117	0x3df86402	0.1212845
118	0xbda875e2	-0.08225609
119	0xbd5a1f94	-0.05325277
120	0xbd837c6c	-0.06420216
121	0xbdcb49b2	-0.09926166
122	0x3e5a026a	0.21289983
123	0xbd8d5fad	-0.06903014
124	0x3e79df9f	0.24401711
125	0x3d13b638	0.03606245
126	0x3e05cabb	0.13065617
127	0xbe1379a0	-0.14401865
128	0x3de5c626	0.112194344
129	0xbe49e3c1	-0.19715787
130	0x3e67d022	0.2263799
131	0xbd8071b8	-0.0627169
132	0xbe00b4c7	-0.12568961
133	0x3e7ab6e6	0.24483833
134	0xbcbd620d	-0.023118043
135	0xbd9f2e1c	-0.077724665
136	0xbde45a03	-0.11149981
137	0x3e06f180	0.13178062
138	0x3d651dba	0.055936553
139	0x3e636c1b	0.22209208
140	0x3e741af4	0.23838407
141	0x3d9b7969	0.075915165
142	0xbe08b817	-0.13351475
143	0x3e4a3753	0.19747667
144	0x3df4020c	0.11914453
145	0xbd87a2ca	-0.066228464
146	0xbe6d29b1	-0.23160435
147	0xbe323ab2	-0.17405203
148	0xbe0d1593	-0.13777761
149	0x3e78e440	0.2430582
150	0xbd5c42ea	-0.05377475
151	0x3e036008	0.12829602
152	0xbdf67b69	-0.12035257
153	0x3d6c070b	0.057623904
154	0xbdff43e1	-0.12464119
155	0xbdfcb79f	-0.123397104
156	0x3dd417e6	0.10356121
157	0x3d2e9e33	0.04263134
158	0xbc8cc3ae	-0.017183151
159	0x3e3c00c1	0.18359663
160	0x3c8971eb	0.016777953
161	0x3e5730d9	0.21014728
162	0xbca2d9a3	-0.019879168
163	0xbe6eb65e	-0.23311755
164	0xbe6d62b8	-0.2318219
165	0x3e5154d8	0.20442522
166	0x3cec11fe	0.028817173
167	0xbd3af3fd	-0.04564284
168	0xbd9bd7a9	-0.07609493
169	0x3e259065	0.16168363
170	0x3e3360ca	0.17517391
171	0x3dccfc73	0.10009088
172	0x3db4083f	0.08790635
173	0xbdfb99c8	-0.12285191
174	0xbde85a55	-0.113453545
175	0xbdde32c5	-0.10849527
176	0x3d84bda8	0.064814866
177	0x3e40ccc4	0.18828112
178	0x3e03af5a	0.1285986
179	0x3e0d6464	0.13807827
180	0x3e7bb98b	0.24582498
181	0x3cf98183	0.030457264
182	0xbe7d3410	-0.24726892
183	0x3e259c7f	0.1617298
184	0x3e707ce2	0.23485139
185	0x3e3ace81	0.18242837
186	0xbe00e5dc	-0.12587684
187	0x3cab1900	0.020885944
188	0xbe0bb9b3	-0.13645057
189	0xbd703bd5	-0.05865081
190	0xbe1b3cd9	-0.1515993
191	0xbe0dbc05	-0.13841255
192	0xbe03381c	-0.12814373
193	0x3e2f88c5	0.17142017
194	0xbe6e88e6	-0.2329441
195	0x3e5a90a7	0.21344243
196	0x3c9723a2	0.018449608
197	0x3d0d653b	0.03452037
198	0x3e3c7ffa	0.18408194
199	0xbdbb4773	-0.09144487
200	0x3e82b6f5	0.2553021
201	0x3bc86a9d	0.006116225
202	0xbcf92489	-0.03041293
203	0xbc30de52	-0.010795193
204	0xbd7ccf68	-0.061721236
205	0xbde7d22b	-0.11319383
206	0xbe50e1b8	-0.20398605
207	0xbd25f4d8	-0.040516704
208	0xbce07d5b	-0.027403524
209	0xbde43d9e	-0.11144565
210	0x3e6daa28	0.2320944
211	0x3e3c70bc	0.1840238
212	0xbdcc82b6	-0.09985869
213	0x3ddb3fda	0.10705538
214	0xbe307dae	-0.17235443
215	0xbe53192f	-0.20615076
216	0x3d9ba7c6	0.076003596
217	0x3d53ada7	0.05167928
218	0xbd6238ec	-0.055230066
219	0xbe43a3aa	-0.19105402
220	0xbe5fc17c	-0.21851152
221	0x3e454c1f	0.19267319
222	0x3d29fae2	0.041499026
223	0xbdfdef24	-0.12399128
224	0x3e48a895	0.19595559
225	0xbdd0c577	-0.101939134
226	0xbd3c25ff	-0.045934673
227	0x3e62af93	0.22137289
228	0xbe27931d	-0.16364713
229	0xbe17eccd	-0.14836426
230	0x3d8daeb9	0.06918091
231	0xbdcb4de2	-0.09926964
232	0xbda5a0ca	-0.08087309
233	0x3e6a4aad	0.22880049
234	0xbe757aec	-0.23972672
235	0xbe0901ec	-0.1337964
236	0x3dbacd52	0.09121193
237	0x3da3556e	0.07975279
238	0xbe842937	-0.25812694
239	0x3e063ed0	0.13109899
240	0xbe6f64e4	-0.2337833
241	0x3cf73768	0.030177787
242	0x3ba7dbf5	0.0051226565
243	0x3b92ec70	0.004483752
244	0x3da1f757	0.079085045
245	0xbcacec58	-0.021108791
246	0xbde9ba16	-0.11412446
247	0x3e3f7ce8	0.18699992
248	0x3ca61e22	0.02027804
249	0x3e5b6bcc	0.2142784
250	0xbe202eb0	-0.1564281
251	0xbcd8c362	-0.026460353
252	0xbe445b72	-0.19175509
253	0xbe0e6744	-0.1390658
254	0x3e0aad14	0.13542587
255	0xbe2f94fe	-0.1714668

tokenTuringMachineUnit.tokenLearner1.attention_maps.1.weight f4 [8, 16, 1]
0	0x3e5f1ba7	0.21787892
1	0x3e13e7d9	0.14443912
2	0x3b961b56	0.0045808954
3	0xbe429750	-0.19003034
4	0x3dc352d5	0.09537283
5	0x3e5e452e	0.21706077
6	0xbd8d15dd	-0.06888936
7	0x3e3a3617	0.18184696
8	0xbe673835	-0.22580035
9	0xbd8874b2	-0.06662883
10	0x3e46df51	0.19421126
11	0xbd3cd249	-0.04609898
12	0x3d35dac4	0.044398084
13	0x3dfe03fa	0.12403102
14	0x3df50226	0.119633004
15	0xbd4ffb6d	-0.050776888
16	0xbe274aad	-0.1633708
17	0x3dceeac2	0.1010337
18	0xbe70c861	-0.23513938
19	0x3d1cf7b7	0.038322177
20	0x3e41de11	0.18932368
21	0x3e3a087e	0.18167302
22	0xbcebcfef	-0.028785674
23	0x3d5461a5	0.051850934
24	0xbe10154e	-0.14070627
25	0xbe39d13d	-0.18146224
26	0x3d92a775	0.07160846
27	0xbe840192	-0.25782448
28	0xbdc63cfa	-0.09679599
29	0xbe6695f8	-0.22518146
30	0xbe49866a	-0.19680181
31	0xbcec1d65	-0.02882261
32	0x3da62b14	0.08113685
33	0x3c45a012	0.0120620895
34	0x3d790f33	0.06080551
35	0xbe31e1e4	-0.17371327
36	0x3e10a13b	0.14124005
37	0xbe1fa290	-0.15589356
38	0x3e21e949	0.15811647
39	0x3d4775a8	0.04869619
40	0xbe64c7a6	-0.22341785
41	0x3abc1450	0.0014349315
42	0x3e67d732	0.22640684
43	0x3d56a5f2	0.05240435
44	0xbe451efb	-0.192501
45	0x3e2bbc52	0.16771057
46	0xbe014043	-0.1262217
47	0x3d453d89	0.048154388
48	0x3e752df1	0.23943307
49	0x3b9aff99	0.0047301766
50	0xbe149f82	-0.14513972
51	0x3e81fb3c	0.2538699
52	0xbccdcb0b	-0.025121232
53	0x3e7186ee	0.23586628
54	0x3d0f3f0b	0.03497223
55	0x3dba8bd6	0.09108703
56	0xbd85ac9b	-0.065270625
57	0xbda9d357	-0.08292263
58	0xbdc821ca	-0.0977207
59	0x3e1d2b98	0.15348661
60	0xbd4f4253	-0.05060036
61	0xbddc2bdf	-0.10750555
62	0x3d92af95	0.07162396
63	0x3e25e3fa	0.16200247
64	0x3e572644	0.21010691
65	0x3d33f091	0.043930594
66	0xbdc2a3f6	-0.09503929
67	0xbcf63d57	-0.030058546
68	0xbced927e	-0.029000517
69	0xbdbdc333	-0.09265747
70	0xbdd93015	-0.10604874
71	0x3d5c7b59	0.05382857
72	0x3d8d78ae	0.069077834
73	0x3e56bf90	0.20971513
74	0x3e286466	0.16444549
75	0xbdbb7764	-0.09153631
76	0xbb611b46	-0.0034348532
77	0xbe63294f	-0.22183727
78	0x3d511b4a	0.051051416
79	0xbdeeff69	-0.11669809
80	0xbe0682eb	-0.13135879
81	0x3d9d0205	0.07666401
82	0x3e2ab55d	0.16670747
83	0xbe1e0019	-0.15429725
84	0x3e3e6646	0.18593702
85	0xbdd88ab8	-0.105733335
86	0x3e5af9b7	0.21384321
87	0x3d4a4c91	0.049389426
88	0xbc84ce65	-0.016211698
89	0xbd9a29f7	-0.075275354
90	0x3e266912	0.16251019
91	0x3d3b40e6	0.04571619
92	0x3e28ab6a	0.1647164
93	0x3d35f8cc	0.044426724
94	0x3dc5b01a	0.09652729
95	0xbe712c09	-0.23551954
96	0x3e5e5cc0	0.21715069
97	0x3e28ecfd	0.16496654
98	0x3da131b1	0.07870806
99	0x3e46d6f1	0.19417931
100	0x3d85c33e	0.0653138
101	0xbdbbc96f	-0.0916928
102	0x3dc6a441	0.09699298
103	0x3e7d488d	0.24734707
104	0x3e218d4a	0.15776554
105	0xbb9d8475	-0.00480705
106	0x3e215fca	0.15759197
107	0x3df392d6	0.11893241
108	0xbe72998c	-0.23691386
109	0xbe2664ff	-0.16249464
110	0xbe7ab614	-0.2448352
111	0x3e3315fb	0.17488854
112	0x3e296129	0.1654097
113	0xbc25d423	-0.010121378
114	0x3e1ee508	0.15517056
115	0x3e3d699c	0.18497318
116	0xbe586fc2	-0.21136382
117	0xbd1c666b	-0.03818361
118	0x3e318135	0.17334445
119	0xbe10e582	-0.1415005
120	0xbe2ce064	-0.16882473
121	0x3e6d7ec9	0.23192896
122	0xbe45f55c	-0.19331878
123	0xbe0ec70b	-0.13943116
124	0xbd91aaaa	-0.0711263
125	0xbd2f096f	-0.042733606
126	0xbd4a6641	-0.049413923
127	0x3d4308fe	0.047615997

tokenTuringMachineUnit.tokenLearner1.feat_conv.weight f4 [16, 16, 1]
0	0xbca1a972	-0.019734118
1	0x3da364a5	0.07978181
2	0x3d988eba	0.07449098
3	0x3e70dbf5	0.23521407
4	0xbd7570f7	-0.059922185
5	0x3ceb65eb	0.028735122
6	0xbe5e99e1	-0.21738388
7	0xbe451a6a	-0.19248357
8	0xbd1a390f	-0.03765207
9	0x3da5cbe8	0.08095533
10	0xbd97f689	-0.0742007
11	0xbdb293fa	-0.087196305
12	0x3d775226	0.060381077
13	0x3dc3929c	0.09549448
14	0x3d8cb13e	0.06869744
15	0xbdea88d3	-0.114518784
16	0xbdf82ec6	-0.12118296
17	0xbe185119	-0.14874686
18	0x3e4645d5	0.19362576
19	0x3e0c62ca	0.1370956
20	0xbe59e67c	-0.21279329
21	0xbdd20f1e	-0.102567896
22	0x3b212ac2	0.0024592136
23	0x3e57d3e7	0.21076928
24	0xbe71973b	-0.23592846
25	0x3d8b91b2	0.068148986
26	0x3df0b684	0.11753562
27	0x3d3b922a	0.04579369
28	0x3e2f9e0f	0.17150138
29	0xbdf61c29	-0.1201709
30	0x3e6fcae7	0.23417245
31	0x3d4df937	0.050286498
32	0x3e2a144b	0.16609304
33	0xbe08a819	-0.13345374
34	0xbdab5228	-0.083652794
35	0xbe187311	-0.14887644
36	0xbe77e632	-0.24208906
37	0xbe3bb16a	-0.18329397
38	0x3b3b6e54	0.0028599696
39	0x3ddb0771	0.10694779
40	0xbe3d02d9	-0.18458118
41	0xbe35e27a	-0.17762175
42	0xbe2a77b1	-0.16647221
43	0x3dd6b4ed	0.104837276
44	0x3e3458db	0.1761202
45	0xbdf331b2	-0.11874713
46	0xbc24183d	-0.0100155445
47	0xbe55aff9	-0.2086791
48	0xbddfc22a	-0.10925706
49	0x3e0851a7	0.13312398
50	0xbd66ebad	-0.0563771
51	0x3deb56a7	0.11491137
52	0x3e138996	0.14407954
53	0xbd986faa	-0.07443173
54	0xbe683082	-0.22674754
55	0x3e5693f7	0.20954882
56	0x3e6a9fe2	0.22912553
57	0xbc8092ef	-0.015695063
58	0xbd9217b4	-0.07133427
59	0xbe332fdc	-0.17498726
60	0xbd91878d	-0.071059324
61	0xbd21de1c	-0.03951846
62	0x3e33a3d4	0.17542964
63	0xbe4302be	-0.19044015
64	0xbdcb5615	-0.09928528
65	0xbd4ab2a9	-0.04948679
66	0x3e6abd00	0.2292366
67	0xbe375bf7	-0.17906176
68	0x3e567b84	0.20945555
69	0xbd26abac	-0.040691063
70	0x3d4be312	0.049777098
71	0xbe056344	-0.13026148
72	0x3da80262	0.082035795
73	0xbd6d03ac	-0.05786483
74	0xbe1e5b41	-0.15464498
75	0xbdb4d02e	-0.088287696
76	0x3e5866f4	0.21133024
77	0x3e433601	0.1906357
78	0x3e54ef64	0.20794445
79	0x3e027ed7	0.12743698
80	0xbd027585	-0.031850357
81	0x3e4d5b6f	0.2005441
82	0xbe30df60	-0.17272711
83	0x3e6ccedd	0.23125787
84	0xbe6b9d4a	-0.2300922
85	0xbe63e454	-0.22255069
86	0x3d74b8d4	0.05974658
87	0x3e42f105	0.19037254
88	0xbe6d0e3f	-0.23149966
89	0x3e0e0bd6	0.13871703
90	0x3d80537c	0.062659234
91	0x3d1f5736	0.03890153
92	0x3c6b868f	0.014375343
93	0xbd85f6ab	-0.06541189
94	0x3e2fb0b4	0.1715725
95	0x3e09e07c	0.1346454
96	0xbe7e393f	-0.24826525
97	0xbe2de5e7	-0.16982232
98	0x3e709ef4	0.23498136
99	0xbdd35790	-0.103194356
100	0xbe522a8b	-0.20524041
101	0xbbc6a9f6	-0.0060627414
102	0x3d3518cc	0.0442131
103	0x3e2d970f	0.16952156
104	0xbe80a4e5	-0.25125805
105	0xbd7319c0	-0.05935073
106	0x3d913197	0.07089537
107	0xbd7c68d8	-0.061623424
108	0xbdc1a00a	-0.09454353
109	0xbd43a77c	-0.047767147
110	0xbe18fbe1	-0.14939834
111	0x3e15ed1a	0.14641228
112	0x3d88ce10	0.06679928
113	0x3e158467	0.14601289
114	0x3ac12e8e	0.0014738606
115	0xbe7236f7	-0.2365378
116	0x3e04ed8d	0.12981243
117	0x3e523093	0.20526342
118	0xbe46863c	-0.19387144
119	0x3e7c0c43	0.24614052
120	0xbe5c41df	-0.21509503
121	0x3d3e4f3e	0.04646229
122	0x3d8c5ecf	0.06854021
123	0xbe2f9ad4	-0.17148906
124	0xbe3a178c	-0.18173045
125	0xbd56024f	-0.052248295
126	0x3e730987	0.23734103
127	0xbdf0503d	-0.11734054
128	0xbc6ce527	-0.014458931
129	0xbd3bcc71	-0.045849267
130	0x3bea5342	0.0071510384
131	0xbe437395	-0.1908706
132	0xbdb2f241	-0.087376125
133	0xbcbafc16	-0.022825282
134	0xbe33840e	-0.17530844
135	0x3e84d935	0.25946966
136	0xbe0061e9	-0.1253735
137	0xbe27bf42	-0.16381553
138	0x3d37543b	0.044758063
139	0x3df76340	0.12079477
140	0xbe3ecbba	-0.18632403
141	0xbe13fcea	-0.14451948
142	0x3d8b645a	0.0680625
143	0xbdf5a3e9	-0.11994154
144	0x3ce1b683	0.027552849
145	0x3e481265	0.19538267
146	0x3df1b5c4	0.11802247
147	0xbe35d200	-0.1775589
148	0x3d96f185	0.07370285
149	0xbd5add10	-0.053433478
150	0xbcd0588c	-0.025432847
151	0xbe0ffdf7	-0.14061724
152	0xbb8b7c81	-0.0042567854
153	0x3ca33d3d	0.019926662
154	0x3e3578b5	0.17721827
155	0x3c9856dd	0.018596107
156	0xbd6808fa	-0.056649186
157	0x3e0b94c4	0.13630968
158	0x3ddf9460	0.10916972
159	0x3e0a6c7c	0.13517946
160	0xbc37e3a2	-0.0112237055
161	0x3cb80073	0.022461152
162	0xbdd0cfc7	-0.101958804
163	0xbe6b8f8b	-0.23003976
164	0x3de25c17	0.11052721
165	0xbae57fa0	-0.0017509349
166	0xbdd137ce	-0.10215722
167	0x3e31d417	0.17366062
168	0xbd703808	-0.058647186
169	0xbdf3496b	-0.11879238
170	0xbe2489bb	-0.16068165
171	0xbdb2c42f	-0.08728825
172	0x3e637283	0.22211652
173	0x3e78a61e	0.24282119
174	0xbe0f084c	-0.13968009
175	0x3e84409c	0.25830543
176	0xbdd08d2a	-0.10183175
177	0xbe62fcab	-0.22166698
178	0xbdfe8958	-0.1242854
179	0x3d88eee4	0.0668619
180	0xbe038841	-0.12844945
181	0x3d8b5d7a	0.068049386
182	0x3e1df9be	0.154273
183	0x3e32a288	0.17444813
184	0x3d4dfab5	0.05028792
185	0x3d9ddc77	0.07708066
186	0xbe4157fd	-0.18881221
187	0xbe6df78f	-0.23238967
188	0x3db9ab57	0.090658836
189	0xbe5a92f7	-0.21345125
190	0xbcca928e	-0.024728086
191	0x3dcd9b7a	0.100394204
192	0x3e121fae	0.14269897
193	0xbd95f78d	-0.07322607
194	0x3e27adcc	0.16374892
195	0x3d81be2d	0.06335101
196	0x3e24f973	0.16110782
197	0xbdc17072	-0.09445275
198	0x3e0b76de	0.13619563
199	0xbddd429b	-0.108037196
200	0x3dca8bfe	0.09889983
201	0xb9d31adf	-0.00040265077
202	0x3d5f54e7	0.05452433
203	0x3d5b6f95	0.05357321
204	0x3e25c152	0.16187027
205	0xbe5016d4	-0.20321208
206	0xbe0d22de	-0.13782832
207	0xbe2e31c0	-0.17011166
208	0xbe3244c1	-0.1740904
209	0xbe70f8fe	-0.23532483
210	0xbd179237	-0.037004676
211	0xbe2119f3	-0.15732555
212	0xbdc8e2eb	-0.09808906
213	0xbd83adc1	-0.06429625
214	0x3dd6e5ce	0.104930505
215	0xbe39e6d0	-0.18154454
216	0xbe354dc9	-0.17705454
217	0xbda52503	-0.080637
218	0xbe7b388e	-0.24533293
219	0xbd2d55ae	-0.04231804
220	0xbe6a6215	-0.22888978
221	0x3d91a8e0	0.071122885
222	0x3b4a07a1	0.00308273
223	0xbddf1d1d	-0.10894225
224	0xbe817f8a	-0.25292617
225	0xbdb49ddb	-0.08819171
226	0x3e671228	0.2256552
227	0xbd176de8	-0.03697005
228	0x3e0e8778	0.13918865
229	0xbd3664e6	-0.044529818
230	0x3e4bc604	0.19899756
231	0x3ca2d1eb	0.019875487
232	0xbd49a307	-0.04922774
233	0x3e74717c	0.23871416
234	0xbe506703	-0.20351796
235	0xbe23e731	-0.16006161
236	0x3c1ed5b7	0.009694508
237	0xbd8df853	-0.0693213
238	0xbe5721d0	-0.21008992
239	0x3e345c34	0.17613298
240	0xbdb4bb73	-0.088248156
241	0xbbb9f214	-0.00567461
242	0xbe6afcba	-0.2294797
243	0x3e29a2b8	0.16565979
244	0xbe3d18c9	-0.18466486
245	0x3e28b41b	0.16474955
246	0x3df9f9d7	0.12205856
247	0x3e03c073	0.12866382
248	0xbe6e0be4	-0.23246723
249	0x3d61f5a8	0.055165917
250	0xbc5aa17d	-0.013344166
251	0x3db3c617	0.08778017
252	0x3e64e372	0.22352389
253	0xbe5ac74e	-0.21365091
254	0x3ad35856	0.0016124349
255	0xbe373be2	-0.17893937

tokenTuringMachineUnit.tokenLearner2.norm.weight f4 [16]
0	0x3f776fe8	0.9665513
1	0x3f783bbe	0.9696616
2	0x3f78af82	0.97142804
3	0x3f7871cc	0.9704864
4	0x3f777f8b	0.9667899
5	0x3f779a12	0.9671947
6	0x3f76ea8d	0.96451646
7	0x3f76bf6c	0.96385837
8	0x3f76b95c	0.96376586
9	0x3f79bef6	0.9755701
10	0x3f79b891	0.9754725
11	0x3f78db86	0.97209966
12	0x3f7858ff	0.970108
13	0x3f76d5af	0.96419805
14	0x3f77e6ce	0.96836555
15	0x3f795930	0.97401714

tokenTuringMachineUnit.tokenLearner2.norm.bias f4 [16]
0	0xb19262fd	-4.260413e-09
1	0xb66777c9	-3.4491406e-06
2	0xb581cc49	-9.670704e-07
3	0x351667b9	5.603029e-07
4	0xb560b6f9	-8.3712763e-07
5	0x35a543a7	1.2313147e-06
6	0xb5563486	-7.9797644e-07
7	0x351a88df	5.7568644e-07
8	0xb5c03852	-1.4321506e-06
9	0x35cea5ef	1.5396489e-06
10	0x3500344b	4.775981e-07
11	0xb5fc130f	-1.878101e-06
12	0xb5393343	-6.8992466e-07
13	0xb61399b8	-2.1994183e-06
14	0xb487d5c9	-2.530126e-07
15	0xb5d4e5f7	-1.586216e-06

tokenTuringMachineUnit.tokenLearner2.attention_maps.0.weight f4 [16, 16, 1]
0	0x3e0e22b3	0.13880424
1	0x3dd24af8	0.102682054
2	0x3e06c159	0.13159694
3	0x3e6f9c50	0.23399472
4	0xbdfa40cf	-0.122193925
5	0xbe5702ee	-0.20997211
6	0x3d99cb86	0.07509522
7	0x3d2d0416	0.042240225
8	0x3cef371d	0.029201085
9	0xbe3791a1	-0.17926647
10	0xbcaccadb	-0.021092823
11	0x3c41f292	0.011837618
12	0xbdbbf499	-0.09177513
13	0xbe2a3dfc	-0.16625208
14	0xbe28c0fc	-0.16479868
15	0xbe5f3683	-0.21798138
16	0xbe16b014	-0.14715606
17	0x3dac1bc7	0.084037356
18	0xbc9f05e4	-0.019411989
19	0x3d986e84	0.07442954
20	0x3e1dd1c0	0.15412045
21	0xbe4e8414	-0.20167571
22	0x3e340fdd	0.17584176
23	0xbd398c28	-0.04529968
24	0xbd48d6dc	-0.04903303
25	0x3e01ebc8	0.126876
26	0xbe3705c1	-0.17873289
27	0xbcc4f106	-0.02404071
28	0xbd8b3a47	-0.06798225
29	0xbdbd643c	-0.09247634
30	0xbdb1f702	-0.08689691
31	0x3e106fa2	0.14105085
32	0x3e6c6c6d	0.23088236
33	0x3e67e5c4	0.22646242
34	0xbdc1f142	-0.094698444
35	0xbd8f7662	-0.070050016
36	0xbdfb92fa	-0.12283893
37	0xbe65a688	-0.22426808
38	0x3ba58215	0.0050509074
39	0xbd97eb36	-0.0741791
40	0xbe57ba79	-0.21067227
41	0x3e2909b4	0.16507608
42	0x3e004e4d	0.1252987
43	0xbe1c399c	-0.15256351
44	0x3d7862fb	0.06064127
45	0x3dc4e918	0.096147716
46	0x3e7471fe	0.2387161
47	0xbe36f61e	-0.17867324
48	0xbdaa1352	-0.08304466
49	0x3dc6e701	0.09712029
50	0x3e45de93	0.19323187
51	0xbe010791	-0.12600543
52	0x3e5d1e08	0.21593487
53	0x3e5bc775	0.21462806
54	0xbd18ed6f	-0.03733581
55	0xbdee7e04	-0.11645129
56	0xbc1e59e0	-0.009664983
57	0xbc9aea36	-0.018910509
58	0xbc76e5c3	-0.015069428
59	0xbe3389b1	-0.17532994
60	0x3de0dbee	0.10979448
61	0xbdba2c69	-0.09090502
62	0xbe074778	-0.13210857
63	0x3e6bc185	0.2302304
64	0xbc4a6e73	-0.012355435
65	0x3d0a20cf	0.033722695
66	0xbdc9c059	-0.098511405
67	0xbdba2fdf	-0.09091162
68	0xbe71a759	-0.23598994
69	0x3daa7c68	0.0832451
70	0x3c9d7cc2	0.019224528
71	0xbe44e73d	-0.19228835
72	0x3d471f2c	0.048613712
73	0x3e70322e	0.23456642
74	0x3e2cebb2	0.16886786
75	0x3e6334a6	0.22188053
76	0xbe4bb1c5	-0.19892032
77	0xbde16362	-0.11005284
78	0xbe4c1186	-0.1992856
79	0x3d6496f8	0.055808038
80	0xbde3c631	-0.111217864
81	0xbe6d2a5b	-0.23160689
82	0x3d3f3c16	0.04668816
83	0x3e1c11d6	0.15241179
84	0xbd9cfd34	-0.07665482
85	0x3c69d13e	0.014271079
86	0x3d08aba1	0.033366803
87	0x3dd9b384	0.10629943
88	0x3e34f0eb	0.17670028
89	0x3c5fd1d1	0.013660864
90	0xbe034d7c	-0.12822527
91	0xbe5db493	-0.21650915
92	0xbdca7a2a	-0.09886582
93	0x3d5425ff	0.05179405
94	0xbceea027	-0.029129101
95	0x3e6ec47d	0.23317142
96	0x3d7616f7	0.060080495
97	0xbe100734	-0.14065248
98	0xbe5d0fcb	-0.21588056
99	0xbe27bf90	-0.16381669
100	0xbd35f074	-0.044418767
101	0x3d44e6c4	0.048071638
102	0x3e44435a	0.19166318
103	0xbe12a300	-0.14319992
104	0xbd9564ba	-0.07294603
105	0x3e0f9a7e	0.14023778
106	0xbc9c049a	-0.019045163
107	0xbd80d13b	-0.062899075
108	0xbda0ce4a	-0.078518465
109	0xbe154b09	-0.14579405
110	0x3e226201	0.15857698
111	0x3e263e82	0.16234782
112	0x3d9e2e39	0.0772366
113	0xbcfb23f4	-0.030656792
114	0x3e50fd8f	0.20409225
115	0xbda7d9ee	-0.08195864
116	0xbe3e4fc8	-0.18585122
117	0xbcaf88eb	-0.021427592
118	0x3d8c4a21	0.068500765
119	0xbc9a0089	-0.018799083
120	0x3d65843b	0.056034308
121	0x3d1902f1	0.03735632
122	0x3ddd1a72	0.1079606
123	0x3cc78c0f	0.024358777
124	0xbd0d718c	-0.034532115
125	0x3e5b1c5d	0.21397538
126	0x3df4a5da	0.11945696
127	0x3df09cfe	0.11748694
128	0xbdf6b469	-0.12046129
129	0x3e5b2284	0.21399885
130	0xbe498c3e	-0.19682404
131	0x3e5701f3	0.20996837
132	0xbe5a154f	-0.21297191
133	0x3db64b6b	0.089011036
134	0xbd7a8fa9	-0.06117216
135	0xbe1ee9c7	-0.15518866
136	0xbe4c75a6	-0.19966754
137	0xbe59f4ff	-0.21284865
138	0xbe1217da	-0.14266911
139	0x3de6f691	0.112774976
140	0xbe576391	-0.21034075
141	0x3bdf3a8d	0.0068123997
142	0x3d996b0a	0.07491119
143	0xbdcb466c	-0.09925541
144	0xbba6ffc4	-0.0050964076
145	0x3e474d6d	0.1946313
146	0xbe29317a	-0.1652278
147	0x3e57564e	0.21029016
148	0x3e22250b	0.15834443
149	0x3e087250	0.13324857
150	0x3e292966	0.16519699
151	0xbe03ef57	-0.1288427
152	0x3cd8721b	0.026421597
153	0x3d19beb7	0.037535395
154	0xbe6d7c45	-0.23191936
155	0xbe4faf9b	-0.20281832
156	0x3e578b2e	0.21049187
157	0x3d14b999	0.036309812
158	0xbd89a72b	-0.06721338
159	0x3e27a324	0.16370827
160	0xbdc0f38f	-0.09421455
161	0xbc857694	-0.016291894
162	0x3da8e0aa	0.08245976
163	0x3e4c24f8	0.19935977
164	0x3e04ad6b	0.12956779
165	0x3c2fdb39	0.010733419
166	0x3db3f58a	0.08787067
167	0x3dffdb45	0.12492994
168	0xbe0d65b5	-0.1380833
169	0xbdf84963	-0.121233724
170	0xbe302864	-0.17202908
171	0x3dcd0684	0.100110084
172	0xbddc2267	-0.10748749
173	0xbe3eb966	-0.18625411
174	0xbe5c28d6	-0.21499953
175	0x3dc8d4e3	0.0980623
176	0xbdb15bc0	-0.08660078
177	0x3e191f44	0.14953333
178	0x3e3f5a84	0.18686873
179	0xbe58c488	-0.2116872
180	0xbd5fe09e	-0.05465757
181	0xbe2bbfec	-0.16772431
182	0xbe047b1e	-0.1293759
183	0xbd883673	-0.0665101
184	0xbd3c7c64	-0.046017066
185	0xbda71e1d	-0.081600405
186	0xbdde85c1	-0.10865355
187	0x3e3724ca	0.17885128
188	0x3e1a9b1b	0.1509823
189	0x3c88f473	0.016718125
190	0xbc822d50	-0.015890747
191	0x3db69668	0.089154065
192	0xbd8936ca	-0.06699903
193	0x3de47671	0.111554034
194	0x3e535257	0.20636879
195	0xbbdd01bb	-0.006744591
196	0x3df13806	0.11778264
197	0xbbe9de2e	-0.0071370816
198	0x3e24c9e0	0.16092634
199	0xbe07499a	-0.1321167
200	0x3dd2cf15	0.10293404
201	0xbd2d5c2a	-0.042324223
202	0x3e450891	0.19241549
203	0x3cecdeb3	0.028914785
204	0xbe6f26d0	-0.2335465
205	0x3e0f8e9d	0.14019246
206	0xbda9151f	-0.08255982
207	0xbab0d9ff	-0.0013492702
208	0x3e53aec6	0.2067214
209	0x3e174281	0.14771463
210	0x3e214dc3	0.1575232
211	0x3d8c6e61	0.068569906
212	0x3e36048c	0.17775172
213	0x3d919800	0.0710907
214	0xbe3ed53a	-0.18636027
215	0x3adebdd3	0.0016993828
216	0x3e1b4d13	0.1516612
217	0xbe624497	-0.22096477
218	0xbde282bb	-0.11060091
219	0xbe07ecec	-0.13273972
220	0xbd20447c	-0.03912781
221	0x3e434e53	0.19072847
222	0x3e14f3a8	0.14546072
223	0x3e07a89e	0.13247916
224	0xbd85147e	-0.06498049
225	0x3dfa4bb7	0.12221473
226	0x3d13fbf0	0.03612894
227	0xbe6d495c	-0.23172516
228	0x3e5c046d	0.21486063
229	0xbe4ab40c	-0.19795245
230	0x3cd05e8e	0.025435712
231	0xbe5168f7	-0.20450197
232	0x3e364f70	0.1780374
233	0xbda30b15	-0.07961098
234	0xbd344f1c	-0.044020757
235	0x3e227daf	0.15868257
236	0xbe4ef01e	-0.20208785
237	0xbdf86b76	-0.121298715
238	0xbe3634f1	-0.17793633
239	0xbcefaedc	-0.029258184
240	0xbe34ef1c	-0.17669338
241	0x3e3ab341	0.18232442
242	0xbe06d077	-0.1316546
243	0x3df91dc5	0.12163881
244	0x3e1666a7	0.14687596
245	0x3d8c8cb0	0.068627715
246	0xbd5a57a2	-0.05330623
247	0xbe5be3af	-0.21473573
248	0x3d9ed35b	0.077551566
249	0x3cc631b6	0.024193626
250	0x3e6e1795	0.23251183
251	0xbd82195b	-0.063524924
252	0xbdbcce9e	-0.092190966
253	0x3e7811d2	0.24225548
254	0xbdd7b3a1	-0.10532308
255	0x3d954dda	0.0729024

tokenTuringMachineUnit.tokenLearner2.attention_maps.1.weight f4 [128, 16, 1]
0	0xbe2f6d5c	-0.17131561
1	0x3d59ad70	0.05314392
2	0x3df81750	0.121138215
3	0xbe39c67b	-0.1814212
4	0xbdda64f6	-0.10663788
5	0xbd9cd7fe	-0.07658385
6	0x3db585c5	0.08863405
7	0xbd2ae7c0	-0.04172492
8	0xbdc08d48	-0.09401947
9	0x3ccca027	0.02497871
10	0xbe265247	-0.16242324
11	0x3e16a129	0.14709915
12	0xbe1d6a8d	-0.15372677
13	0xbd66e277	-0.056368317
14	0x3dc3532f	0.095373504
15	0x3c06a878	0.008218877
16	0xbe4e67cc	-0.20156783
17	0x3af099ff	0.0018356441
18	0xbdd6bed8	-0.10485619
19	0x3dcf15b6	0.10111563
20	0xbd336999	-0.043801878
21	0x3b28f9ef	0.0025783738
22	0xbcd8bdce	-0.026457693
23	0xbca43c81	-0.020048382
24	0x3e3c4742	0.18386558
25	0x3d6a1315	0.057147104
26	0xbe250131	-0.16113736
27	0xbdf55aea	-0.11980231
28	0xbd0a07bc	-0.033698782
29	0x3d8bbc2f	0.068230025
30	0x3e54d461	0.20784141
31	0xbdc19073	-0.094513796
32	0xbde84335	-0.11340944
33	0xbe62be4e	-0.22142908
34	0x3e511133	0.20416717
35	0xbd5dbc30	-0.054134548
36	0xbe4502df	-0.19239376
37	0xbe5b41bf	-0.21411799
38	0x3ddd5a7a	0.10808273
39	0x3cbd7e70	0.02313158
40	0x3e489134	0.1958664
41	0xbc3e2273	-0.011604893
42	0xbdab76c3	-0.083722614
43	0x3e1c800a	0.15283218
44	0xbd8723ba	-0.06598611
45	0xbca0cd33	-0.019629097
46	0x3ce89398	0.02839069
47	0x3c88bef2	0.016692612
48	0xbe64d39d	-0.22346349
49	0x3d22e204	0.039766327
50	0xbd07461f	-0.033025857
51	0x3d7cf48f	0.061756667
52	0x3e02619b	0.12732546
53	0xbe0feeba	-0.1405591
54	0x3d33060f	0.04370695
55	0xbcfe20e9	-0.031021552
56	0xbddc0287	-0.107426696
57	0xbe352776	-0.17690834
58	0x3bbf60ba	0.005840388
59	0x3d016f7f	0.03160047
60	0xbd364f66	-0.044509314
61	0xbe2a7cd6	-0.16649184
62	0xbe3999d2	-0.18125084
63	0xbc6adab1	-0.014334367
64	0x3e5e7989	0.2172605
65	0x3cc29962	0.02375478
66	0x3e5d6d61	0.21623756
67	0x3d129a21	0.03579152
68	0xbda40f0c	-0.080106825
69	0x3da0ca8b	0.07851132
70	0xbe27f5dd	-0.16402383
71	0xbcdd91b0	-0.027047008
72	0x3e58d126	0.21173534
73	0xbbb60c4f	-0.0055556665
74	0x3d7f9db0	0.062406242
75	0x3e000f1a	0.12505761
76	0xbcba2969	-0.022724824
77	0xbe04393a	-0.12912455
78	0x3decac61	0.11556316
79	0xbdf16d8f	-0.11788475
80	0xbdb8ad02	-0.090173736
81	0xbe4ae8b4	-0.19815332
82	0xbe564a8d	-0.20926876
83	0x3e3feee4	0.18743473
84	0x3e20a8bf	0.15689372
85	0xbcda829c	-0.026673608
86	0xbc1e710a	-0.009670505
87	0x3e0afd07	0.13573085
88	0xbe4f04de	-0.202167
89	0x3e1a1a9f	0.15049218
90	0x3db6a57e	0.08918284
91	0xbc98ba01	-0.018643381
92	0xbdd51eba	-0.10406251
93	0x3e2f914f	0.17145275
94	0xbd9095b5	-0.07059804
95	0x3e5d3995	0.21603997
96	0x3ddc26e2	0.10749604
97	0xbde9a7c2	-0.114089504
98	0x3e496d3a	0.19670573
99	0x3dbb823c	0.091556996
100	0xbd3ccd4e	-0.04609423
101	0x3d07607d	0.033051003
102	0xbcf2a749	-0.029620783
103	0x3e2d4c2f	0.16923593
104	0x3b3021b1	0.002687555
105	0x3ccaf3ec	0.024774514
106	0x3e2057a9	0.1565844
107	0x3e59bebe	0.21264169
108	0xbe480676	-0.19533715
109	0x3e0199d6	0.1265634
110	0x3c0ee586	0.008721715
111	0xbdd69c3d	-0.10479019
112	0xbe0e8be4	-0.13920552
113	0x3e5253b2	0.2053974
114	0x3e38d3eb	0.1804959
115	0x3e32c217	0.17456852
116	0x3e51505c	0.20440811
117	0xbe032f8a	-0.12811103
118	0xbe32c5d0	-0.17458272
119	0xbdba4baf	-0.09096467
120	0xbe3dba5b	-0.1852812
121	0xbe091ed6	-0.13390669
122	0xbe1a7fb8	-0.15087783
123	0x3d11e01a	0.03561411
124	0xbdd95925	-0.10612706
125	0x3cd0fb81	0.025510551
126	0x3d8f0b39	0.069845624
127	0xbe11bb5b	-0.14231627
128	0x3dc23957	0.09483593
129	0x3e53eb6f	0.2069528
130	0x3e2c062d	0.16799231
131	0xbe1b57c2	-0.15170196
132	0x3e598cad	0.2124507
133	0xbd55a2f4	-0.052157357
134	0xbe005710	-0.12533212
135	0x3e036b3c	0.12833875
136	0xbe48c062	-0.19604638
137	0xbd8936dd	-0.066999175
138	0xbd865e7e	-0.06560992
139	0xbe08fb5d	-0.13377137
140	0x3d27d70a	0.04097656
141	0xbc54f4c8	-0.0129978135
142	0xbe040a75	-0.12894614
143	0x3e112d1f	0.14177369
144	0xbdf64324	-0.12024525
145	0xbcca1110	-0.02466634
146	0xbc91f005	-0.017814646
147	0xbe23dff0	-0.16003394
148	0x3e03e10f	0.12878822
149	0xbd02237d	-0.031772126
150	0x3dc751c6	0.09732394
151	0x3e1aac2f	0.15104745
152	0x3e2972f5	0.16547759
153	0xbe079a86	-0.1324254
154	0x3d72d091	0.059280936
155	0x3db810ba	0.08987565
156	0x3e148013	0.14501981
157	0x3bd7f0f1	0.0065900018
158	0x3e00b906	0.12570581
159	0xbe055539	-0.13020791
160	0xbe301b25	-0.17197855
161	0xbd3dcdc2	-0.046338804
162	0xbe44f898	-0.19235456
163	0xbe631e93	-0.22179632
164	0x3e1bf462	0.15229943
165	0xbd66ada7	-0.05631795
166	0x3ddf2d90	0.10897362
167	0xbe3afcc3	-0.18260483
168	0x3dd1341d	0.10215018
169	0xbe542137	-0.20715795
170	0xbde1af18	-0.110197246
171	0xbe63a7b4	-0.22231942
172	0x3d40fe33	0.047117423
173	0xbd8b7aff	-0.06810569
174	0xbcd5aa1e	-0.026082095
175	0x3d8212b6	0.06351225
176	0xbe33b73f	-0.17550372
177	0x3c44c7ca	0.012010524
178	0x3e45d25b	0.19318525
179	0xbe05cc37	-0.13066183
180	0x3d7246a6	0.059149407
181	0xbdfe0218	-0.12402743
182	0xbe4b24d9	-0.19838275
183	0x3c105916	0.008810302
184	0x3e0dfc57	0.13865791
185	0xbe22ca51	-0.1589749
186	0x3db0c81d	0.086319186
187	0xbd5cb018	-0.053878874
188	0xbe092e11	-0.13396479
189	0x3e35ba3a	0.17746821
190	0x3e283a15	0.16428407
191	0xbe158c60	-0.1460433
192	0x3e674ae9	0.2258717
193	0xbe2eb80a	-0.17062393
194	0xbe148796	-0.14504847
195	0x3d17f524	0.03709902
196	0x3e0ba83a	0.13638392
197	0x3de6fe0f	0.112789266
198	0x3e36c8c7	0.17850028
199	0xbda9964c	-0.0828062
200	0x3e23775a	0.15963498
201	0x3e291e76	0.16515526
202	0x3dafee54	0.08590379
203	0xbe472e2b	-0.19451205
204	0x3e3d3436	0.18476948
205	0xbd367f1b	-0.04455481
206	0xbd893e84	-0.06701377
207	0xbdfbea68	-0.12300569
208	0xbe64e493	-0.22352819
209	0x3dac8a18	0.08424777
210	0x3a1f53f8	0.0006077881
211	0xbe057019	-0.13031043
212	0xbdfc9dc1	-0.12334777
213	0x3dc83959	0.09776563
214	0xbe234099	-0.15942611
215	0x3da20662	0.07911374
216	0xbd653b9e	-0.05596506
217	0x3de86495	0.113473095
218	0x3dde506d	0.10855184
219	0xbe32f533	-0.17476349
220	0xbe1113cd	-0.1416771
221	0xbcb9fe07	-0.022704137
222	0x3dc893e7	0.09793835
223	0xbdd03553	-0.10166421
224	0x3c99a262	0.018754188
225	0x3d619207	0.055070903
226	0xbe1c637b	-0.15272324
227	0x3e45c97e	0.19315144
228	0xbe6a167e	-0.22860143
229	0x3d8ffff7	0.07031243
230	0xbe214e1e	-0.15752456
231	0x3e66d4f8	0.22542179
232	0x3e3a710e	0.1820719
233	0xbe35c7ad	-0.17751952
234	0xbe133a0f	-0.14377616
235	0x3d4b4ce7	0.049633887
236	0xbdc527e2	-0.09626748
237	0x3c0d0ed3	0.008609491
238	0x3e54bea1	0.20775844
239	0xbd57d99d	-0.052697767
240	0xbc4e14a6	-0.012578165
241	0x3e588094	0.21142799
242	0xbcdca2f4	-0.02693317
243	0xbe5b6418	-0.21424901
244	0x3e45c4e4	0.19313389
245	0xbe63b6da	-0.22237721
246	0x3d5d95c9	0.054097924
247	0xbc14c4af	-0.009080096
248	0xbe547a98	-0.20749891
249	0xbe667e8e	-0.22509214
250	0xbe4b2f81	-0.1984234
251	0x3df9b13a	0.121920064
252	0x3dbf127b	0.09329697
253	0x3dbbc8e5	0.09169177
254	0x3e52e8f0	0.20596671
255	0x3d689b70	0.05678886

tokenTuringMachineUnit.tokenLearner2.feat_conv.weight f4 [16, 16, 1]
0	0xbe2fdc3e	-0.1717386
1	0xbe6dbd61	-0.23216774
2	0x3d16ea9a	0.036844827
3	0xbd2b8672	-0.041876264
4	0xbe66410d	-0.22485752
5	0x3df85fc2	0.12127639
6	0x3ccbe069	0.02488728
7	0x3e7e457b	0.24831192
8	0xbe621ec8	-0.22082055
9	0xbd575d66	-0.052579306
10	0xbd0c21ef	-0.03421205
11	0xbe1eed0e	-0.15520117
12	0xbb4ef1b7	-0.0031577179
13	0x3e6ac83c	0.22927946
14	0x3d4bbfb2	0.04974336
15	0xbcc12dc4	-0.023581393
16	0x3e404de6	0.18779716
17	0x3df5e061	0.120056875
18	0xbe6228a4	-0.22085816
19	0x3d6dfec2	0.058104284
20	0x3e528bb2	0.20561102
21	0x3de71b6a	0.11284526
22	0x3d895106	0.06704907
23	0x3e31b48c	0.1735403
24	0xbdae32df	-0.08505797
25	0x3dd9583f	0.10612535
26	0x3d6dc974	0.05805345
27	0x3c85fa89	0.016354816
28	0x3c05fb99	0.008177661
29	0xbe4706b1	-0.19436146
30	0xbe5c75bd	-0.21529289
31	0x3da3e0fa	0.08001895
32	0x3e7c08dc	0.24612755
33	0x3dfd17dd	0.12358067
34	0xbd56f1b5	-0.052476604
35	0x3e5c623a	0.21521845
36	0x3e29329f	0.16523217
37	0x3e25033a	0.16114512
38	0x3e5ebc4b	0.21751516
39	0xbd924ac6	-0.07143168
40	0xbdd0bed2	-0.10192646
41	0xbe40bb3e	-0.18821427
42	0xbda28fb2	-0.07937564
43	0xbe075026	-0.13214168
44	0x3ca1dc93	0.019758498
45	0xbe54c5a0	-0.20778513
46	0x3cbf70a0	0.023369133
47	0x3e67c0e9	0.22632183
48	0x3e09a76c	0.13442773
49	0xbd91c0d1	-0.07116855
50	0xbe69ae8b	-0.22820489
51	0x3e1b21cb	0.1514961
52	0x3e3c09a2	0.1836305
53	0xbe25ec4e	-0.16203424
54	0xbd826401	-0.063667305
55	0xbe72f4a5	-0.23726137
56	0x3e66062d	0.22463293
57	0xbd91acde	-0.0711305
58	0x3d5c7ca9	0.053829823
59	0xbe015329	-0.1262938
60	0x3d9366dd	0.07197354
61	0xbdc73d80	-0.09728527
62	0x3d25d8d7	0.040489998
63	0x3db616d6	0.08891074
64	0x3e22111b	0.15826838
65	0xbdab3c0e	-0.08361064
66	0x3da3648e	0.07978164
67	0x3e354086	0.17700395
68	0xbd11eaf4	-0.03562446
69	0x3bdc7326	0.006727594
70	0x3cd1ccfd	0.025610441
71	0x3d44cb7c	0.04804562
72	0x3d587fa2	0.052856095
73	0x3d4a1944	0.0493405
74	0x3e752d0b	0.23942964
75	0xbe3c9072	-0.18414477
76	0x3e1b4894	0.15164405
77	0xbe598ce6	-0.21245155
78	0x3cca3390	0.02468279
79	0x3dee2807	0.11628728
80	0x3e5f0749	0.21780123
81	0x3e617bd1	0.22019888
82	0xbdee2770	-0.11628616
83	0xbd98fb56	-0.074698135
84	0x3e7e9a6a	0.24863592
85	0xbcd4bfca	-0.025970358
86	0xbdbd0b81	-0.0923071
87	0x3b8e6689	0.0043457192
88	0x3e4613bb	0.19343464
89	0x3e4f33e2	0.20234635
90	0x3e574cf1	0.21025445
91	0x3e6d9054	0.23199588
92	0xbe06476e	-0.13113186
93	0xbe76703e	-0.24066254
94	0x3d4e8649	0.050421033
95	0x3ccc4ca2	0.024938885
96	0xbdb682e8	-0.08911687
97	0x3daa60cd	0.083192445
98	0x3d6facc1	0.05851436
99	0xbdefee11	-0.117153294
100	0x3e5d8ac3	0.21634965
101	0xbe53d07f	-0.20685004
102	0xbdaf0a7d	-0.08546922
103	0xbe4112b5	-0.18854792
104	0x3e520101	0.20508195
105	0xbda14dd0	-0.0787617
106	0xbdaf132a	-0.08548577
107	0xbdee4e2a	-0.11636002
108	0xbe69f32e	-0.22846672
109	0x3e2b9b40	0.16758442
110	0x3e3a304c	0.18182486
111	0xbc214fa4	-0.009845648
112	0x3e29d3ce	0.16584703
113	0x3e411e4b	0.18859212
114	0x3dabfb22	0.08397509
115	0xbe32d717	-0.17464863
116	0x3e088382	0.13331416
117	0xbe05357a	-0.13008681
118	0x3ddb17ca	0.10697897
119	0xbe4b6790	-0.19863725
120	0x3e46437d	0.19361682
121	0xbe1a3ccd	-0.15062256
122	0xbe5cc66a	-0.21560064
123	0xbe5a96e7	-0.21346627
124	0x3e55e6a4	0.20888764
125	0x3e2c31f7	0.16815935
126	0xbdcc48b9	-0.09974808
127	0x3dda784c	0.10667476
128	0xbd9d4206	-0.076786086
129	0xbe16c151	-0.14722182
130	0xbe2d3be3	-0.16917376
131	0xbdce33e8	-0.10068494
132	0x3dbe0071	0.09277428
133	0x3e79c1af	0.2439029
134	0xbe6c41cd	-0.23071976
135	0xbcd9cf73	-0.026588177
136	0xbc397ec9	-0.011321732
137	0x3dffaf04	0.124845535
138	0xbe180219	-0.1484455
139	0xbd48e75f	-0.049048778
140	0x3d148849	0.036262784
141	0x3d585792	0.05281789
142	0x3e1ec65a	0.15505353
143	0xbe279dfa	-0.16368857
144	0x3e35d7d3	0.17758112
145	0xbd93a468	-0.072090924
146	0xbe0d8dbe	-0.13823602
147	0xbdf6b9eb	-0.1204718
148	0x3e2c7bec	0.16844147
149	0x3dc0087f	0.093766205
150	0x3c8a06ca	0.01684894
151	0xbd85eb7a	-0.06539054
152	0xbd4d3527	-0.05009952
153	0x3e5146be	0.20437142
154	0xbdba9aee	-0.09111582
155	0xbe409c23	-0.18809561
156	0xbcb36f5b	-0.021903684
157	0x3db6329e	0.08896373
158	0x3e781ae6	0.24229011
159	0xbdb0396b	-0.086047016
160	0x3df9ddcb	0.12200507
161	0x3df94739	0.12171788
162	0xbe248456	-0.16066107
163	0x3df3a024	0.11895779
164	0xbe81656a	-0.25272685
165	0x3e1ba413	0.15199308
166	0x3dee6e5e	0.116421446
167	0xbd96c3d9	-0.07361574
168	0xbd858c83	-0.06520941
169	0xbe0d65d7	-0.1380838
170	0x3e6bca2e	0.23026344
171	0x3d719b61	0.05898607
172	0xbd997114	-0.07492271
173	0x3e84c7cd	0.25933686
174	0x3e30897c	0.17239946
175	0x3e10d2ab	0.14142863
176	0x3d212e4f	0.039350804
177	0xbe147956	-0.14499411
178	0x3d9c12e7	0.07620793
179	0x3e0cb04a	0.13739124
180	0x3e67a187	0.22620212
181	0xbe5ea1c4	-0.21741396
182	0xbdbddb36	-0.09270327
183	0xbdc31ca2	-0.09526946
184	0x3dbf7c37	0.09349864
185	0xbe678e2a	-0.22612825
186	0xbd63ae43	-0.05558611
187	0x3c8fc7a2	0.017551247
188	0x3a120783	0.00055705773
189	0xbd83de89	-0.064389296
190	0xbe29f70f	-0.16598152
191	0x3e579a6a	0.21054998
192	0x3e3b3dc1	0.18285276
193	0xbe7095c6	-0.23494634
194	0xbd69ef55	-0.05711301
195	0x3d1239f4	0.0356998
196	0x3e415326	0.18879375
197	0x3e01e46f	0.12684797
198	0x3e21e582	0.15810207
199	0xbe0d1b9f	-0.13780068
200	0xbe5d7b5d	-0.2162909
201	0x3e1103dd	0.1416163
202	0xbe740067	-0.23828278
203	0x3dbe5e2c	0.092953056
204	0xbda4c339	-0.08045048
205	0xbe1e57c5	-0.15463169
206	0xbdec695d	-0.11543534
207	0x3e7a221d	0.24427076
208	0xbd2d67f6	-0.042335473
209	0xbd080b0b	-0.033213656
210	0x3e01ca36	0.12674794
211	0xbe09a5dd	-0.13442178
212	0x3e2b8e01	0.16753389
213	0x3d978d42	0.0739999
214	0x3d91632a	0.07098992
215	0xbde7d648	-0.11320168
216	0xbd851e37	-0.06499904
217	0xbe37af28	-0.1793791
218	0xbe00b66b	-0.12569587
219	0x3e4a3e5f	0.19750355
220	0xbe574e3d	-0.2102594
221	0x3dc2cedc	0.095121115
222	0xbe1fc923	-0.15604071
223	0x3ddf5307	0.10904508
224	0x3d4f2149	0.050568853
225	0xbd1c055b	-0.038091045
226	0x3dffa824	0.12483242
227	0x3d6f3c7c	0.05840729
228	0xbe2cda9e	-0.16880271
229	0x3e69741a	0.22798195
230	0x3d3c9784	0.046042934
231	0xbe5c8ca3	-0.21538024
232	0xbe4e4e0f	-0.20146964
233	0xbe2f2913	-0.17105512
234	0x3d5418d6	0.051781498
235	0x3e1d3de0	0.15355635
236	0xbe72a055	-0.23693974
237	0xbe024b18	-0.12723958
238	0xbad302b4	-0.0016098828
239	0x3e20f5f7	0.15718828
240	0x3e71cbf3	0.23612957
241	0x3d5a9d58	0.05337271
242	0xbe167cf1	-0.14696099
243	0x3e627699	0.22115554
244	0xbd0ddef5	-0.034636457
245	0xbdf8cfdb	-0.1214902
246	0xbe0f5e3e	-0.14000794
247	0xbe14a5cf	-0.14516376
248	0x3e64146d	0.22273417
249	0xbe36cf2e	-0.1785247
250	0xbd0175e1	-0.03160656
251	0x3dc3c065	0.09558181
252	0xbd73fd08	-0.05956748
253	0xbcdcb4d5	-0.026941696
254	0xbe3d119a	-0.18463746
255	0xbda741c5	-0.081668414

tokenTuringMachineUnit.transformerBlock.self_attn.in_proj_weight f4 [48, 16]
0	0x3e838f19	0.25695112
1	0xbc91ad30	-0.017782778
2	0xbe75bba0	-0.23997355
3	0xbe30df87	-0.17272769
4	0xbd0946b0	-0.03351468
5	0xbe3ba652	-0.18325165
6	0x3e8b7141	0.27234843
7	0xbe8d4747	-0.27593443
8	0x3e521086	0.20514116
9	0xbc141580	-0.009038329
10	0x3c969d30	0.0183855
11	0x3e914533	0.28373107
12	0x3c8c5140	0.017128587
13	0xbe568694	-0.20949775
14	0x3e97797d	0.29584876
15	0xbe469466	-0.19392547
16	0x3e90d2d5	0.28285852
17	0xbddacba4	-0.106833726
18	0xbe76fce6	-0.2411991
19	0x3e1bba36	0.15207753
20	0x3e01cb68	0.1267525
21	0x3e0ce580	0.13759422
22	0x3e22b950	0.15891004
23	0x3e4ba15a	0.1988577
24	0x3d0aab30	0.033854663
25	0x3e8d8f85	0.2764856
26	0x3d75ebf8	0.06003949
27	0xbe59b359	-0.21259822
28	0xbdd5bd12	-0.10436453
29	0x3e7dfdc2	0.24803832
30	0x3e901c01	0.28146365
31	0x3e19fe0e	0.1503832
32	0xbe774d95	-0.24150689
33	0x3e28e6a0	0.16494226
34	0x3e4aa4ee	0.19789478
35	0xbe8d4b7c	-0.27596653
36	0xbdf9b82e	-0.121933326
37	0x3e015952	0.12631729
38	0x3dfd4f24	0.123686105
39	0xbe3b3bf8	-0.18284595
40	0x3e4b73ae	0.19868347
41	0x3df9f188	0.122042716
42	0x3d38a080	0.04507494
43	0x3e156ac8	0.14591515
44	0xbde513ca	-0.11185415
45	0x3e801953	0.2501932
46	0x3e659bbe	0.22422692
47	0xbe96345b	-0.2933682
48	0xbe69bb8e	-0.22825453
49	0xbd035d08	-0.032071143
50	0xbda7e86a	-0.08198626
51	0xbd8280fe	-0.063722596
52	0xbde0520c	-0.10953149
53	0xbcc1b1e0	-0.023644388
54	0xbe923292	-0.28554207
55	0x3e71570a	0.23568359
56	0xbe6d2986	-0.23160371
57	0xbe1c670e	-0.15273687
58	0xbd539448	-0.051655084
59	0xbdeb79d0	-0.11497843
60	0xbe58128d	-0.21100827
61	0x3e062076	0.1309832
62	0x3d6b0158	0.05737433
63	0xbe96bc71	-0.29440644
64	0x3e28106e	0.16412517
65	0xbc3edf60	-0.011649936
66	0x3e9c59c9	0.3053725
67	0x3e928ee3	0.2862464
68	0x3d885a6c	0.066578716
69	0xbe916854	-0.2839991
70	0xbe7a28d4	-0.24429637
71	0x3e901c5d	0.2814664
72	0xbdf40220	-0.11914468
73	0x3dad1df8	0.08452982
74	0x3e449280	0.1919651
75	0xbe96eea5	-0.29478946
76	0xbe34f756	-0.17672476
77	0x3d86dc28	0.0658496
78	0x3e47455a	0.1946005
79	0x3e855b87	0.26046392
80	0x3e650fa6	0.2236925
81	0xbe2fcc5a	-0.17167798
82	0x3cdae1b0	0.026718944
83	0xbdb3b2da	-0.087743476
84	0x3d8840ec	0.06653008
85	0xbe2a3dcb	-0.16625135
86	0x3e8798e9	0.2648385
87	0xbdc56830	-0.09639013
88	0xbe941a6a	-0.28926402
89	0xbe985a1f	-0.29756257
90	0x3e59edca	0.21282116
91	0xbe2eeecf	-0.17083286
92	0x3e045402	0.12922671
93	0x3e13e9ea	0.144447
94	0xbe19573d	-0.14974685
95	0xbddafdea	-0.106929615
96	0xbd681718	-0.05666265
97	0x3e236c34	0.15959245
98	0xbe8d3809	-0.27581814
99	0x3db084b4	0.08619061
100	0xbe27c96c	-0.1638543
101	0xbe38741e	-0.18013045
102	0xbe3599b1	-0.1773441
103	0x3c9b1520	0.018930972
104	0x3e65d586	0.22444734
105	0x3e93faf3	0.28902397
106	0xbde42c90	-0.11141312
107	0xbe9959a7	-0.29951212
108	0xbdc5efca	-0.09664877
109	0xbe9357c6	-0.28777903
110	0xbe71ba84	-0.23606306
111	0xbd89a51a	-0.06720944
112	0xbd063f10	-0.032774985
113	0xbddb7dd2	-0.10717358
114	0xbd6bc8a4	-0.057564393
115	0x3e69dfb2	0.22839239
116	0xbdf371d6	-0.11886947
117	0xbe33a4a8	-0.1754328
118	0xbd1a2910	-0.037636817
119	0x3dde44c8	0.10852963
120	0x3e419370	0.18903899
121	0xbd8c5816	-0.068527386
122	0xbe09a3b6	-0.13441357
123	0x3e905d91	0.28196386
124	0x3d7ab150	0.061204255
125	0xbe83bf0e	-0.257317
126	0xbe8cf4a0	-0.27530384
127	0x3e059b00	0.13047409
128	0x3e849325	0.25893512
129	0xbe6368e6	-0.22207984
130	0x3e1a8462	0.15089563
131	0x3e457dc0	0.19286251
132	0xbcee3880	-0.029079676
133	0x3e6d991e	0.23202941
134	0x3e97aff1	0.2962642
135	0x3d977720	0.07395768
136	0x3e4e45c2	0.20143798
137	0xbdd5f3f4	-0.10446921
138	0xbe83a2b4	-0.2571007
139	0xbe0b4517	-0.13600574
140	0x3e147580	0.14497948
141	0x3e91427d	0.2837104
142	0x3e360cf8	0.17778385
143	0x3d08a5a0	0.033361077
144	0x3d57bc30	0.052669704
145	0x3e85b603	0.26115426
146	0xbe216ac7	-0.15763389
147	0xbe3c583f	-0.18393038
148	0xbe45adc0	-0.19304562
149	0x3d2e1c80	0.04250765
150	0x3d43c4b8	0.047795027
151	0x3e05291a	0.1300396
152	0x3e213906	0.15744409
153	0xbe828a22	-0.25496012
154	0xbe4450a0	-0.19171381
155	0x3d59dbf0	0.053188264
156	0x3d5741c0	0.05255294
157	0xbc945150	-0.01810518
158	0xbd9a1b50	-0.07524741
159	0x3e88e125	0.26734272
160	0x3e61bd32	0.22044829
161	0x3e09f372	0.13471773
162	0xbe89074c	-0.2676338
163	0x3d7b9a40	0.0614264
164	0x3e799356	0.2437261
165	0xbe771211	-0.24127986
166	0xbe116fae	-0.14202759
167	0x3e9441e1	0.28956512
168	0x3e53362e	0.20626137
169	0xbdfb1628	-0.12260085
170	0xbe152b4a	-0.14567295
171	0xbcc5ddf0	-0.02415368
172	0x3e943c15	0.2895209
173	0xbdf519e2	-0.119678274
174	0x3d1d9ab8	0.03847763
175	0x3d3b13a0	0.045673013
176	0xbe3d1ea8	-0.18468726
177	0xbdb8591e	-0.09001373
178	0x3e4bbade	0.19895503
179	0xbe4908e9	-0.19632305
180	0x3e6c8fda	0.2310175
181	0x3dee16cc	0.11625442
182	0x3e12082c	0.1426093
183	0x3db6baf0	0.08922374
184	0xbe8e8455	-0.27835336
185	0xbe9b98e2	-0.30390078
186	0xbe381c74	-0.17979604
187	0x3e092f96	0.13397059
188	0xbe997120	-0.2996912
189	0xbd568e30	-0.052381694
190	0x3e8ebf0b	0.2788013
191	0xbc8a3c50	-0.016874462
192	0xbe29e25e	-0.16590258
193	0x3e8d3f8b	0.27587542
194	0xbe99729b	-0.2997025
195	0xbe95527d	-0.29164496
196	0x3e905cd1	0.28195813
197	0xbe094f05	-0.1340905
198	0xbc883940	-0.016628861
199	0x3da84fcc	0.08218345
200	0xbde144d6	-0.109994575
201	0xbe0cf295	-0.13764413
202	0xbe511ffe	-0.2042236
203	0x3e90e895	0.28302446
204	0x3e96afed	0.29431096
205	0xbe9c97f9	-0.30584696
206	0x3e94ac57	0.29037735
207	0x3e8a6c8b	0.27035937
208	0x3e34e2f2	0.17664698
209	0xbe96a271	-0.29420808
210	0xbe2abb79	-0.16673078
211	0x3e9b04ef	0.30277202
212	0xbe8fdb26	-0.28096884
213	0x3b945580	0.004526794
214	0x3df6208c	0.120179266
215	0xbcc17510	-0.02361539
216	0xbe1fe6f5	-0.15615447
217	0xbe513c49	-0.20433153
218	0xbd8dd8b2	-0.06926097
219	0xbe6e627a	-0.23279753
220	0x3e631332	0.22175291
221	0xbe6ac256	-0.22925696
222	0x3d916470	0.07099235
223	0x3e9a77cf	0.30169532
224	0xbe9205c6	-0.2852003
225	0xbc614360	-0.013748974
226	0xbe4d4024	-0.20043999
227	0x3d6d37d8	0.057914585
228	0x3e51662a	0.20449129
229	0xbe8fab7b	-0.28060517
230	0xbdeaf450	-0.1147238
231	0xbe5f6602	-0.21816257
232	0x3d2896a8	0.041159302
233	0x3d8437dc	0.06455967
234	0xbe404dd2	-0.18779686
235	0x3e5ea0ca	0.21741024
236	0xbe0e7516	-0.13911852
237	0xbe63fbc2	-0.22264007
238	0xbdbea560	-0.093088865
239	0x3e078248	0.13233292
240	0xbe7ff041	-0.24993993
241	0x3c0063c0	0.007836282
242	0x3e942f71	0.28942445
243	0x3e695822	0.22787526
244	0xbe697f8a	-0.22802559
245	0xbd323778	-0.04350993
246	0xbe5d7556	-0.21626791
247	0xbdfca14a	-0.12335451
248	0xbe103219	-0.1408161
249	0xbe9bac37	-0.30404827
250	0xbd2219a8	-0.03957525
251	0xbddab932	-0.106798545
252	0xbd9445a8	-0.072398484
253	0x3ddbd8c4	0.10734704
254	0x3e28b73a	0.16476145
255	0x3d2b4260	0.041811347

tokenTuringMachineUnit.transformerBlock.self_attn.in_proj_bias f4 [48]
0	0x00000000	0.0
1	0x00000000	0.0
2	0x00000000	0.0
3	0x00000000	0.0
4	0x00000000	0.0
5	0x00000000	0.0
6	0x00000000	0.0
7	0x00000000	0.0
8	0x00000000	0.0
9	0x00000000	0.0
10	0x00000000	0.0
11	0x00000000	0.0
12	0x00000000	0.0
13	0x00000000	0.0
14	0x00000000	0.0
15	0x00000000	0.0
16	0x00000000	0.0
17	0x00000000	0.0
18	0x00000000	0.0
19	0x00000000	0.0
20	0x00000000	0.0
21	0x00000000	0.0
22	0x00000000	0.0
23	0x00000000	0.0
24	0x00000000	0.0
25	0x00000000	0.0
26	0x00000000	0.0
27	0x00000000	0.0
28	0x00000000	0.0
29	0x00000000	0.0
30	0x00000000	0.0
31	0x00000000	0.0
32	0x00000000	0.0
33	0x00000000	0.0
34	0x00000000	0.0
35	0x00000000	0.0
36	0x00000000	0.0
37	0x00000000	0.0
38	0x00000000	0.0
39	0x00000000	0.0
40	0x00000000	0.0
41	0x00000000	0.0
42	0x00000000	0.0
43	0x00000000	0.0
44	0x00000000	0.0
45	0x00000000	0.0
46	0x00000000	0.0
47	0x00000000	0.0
