check_point/lapalce_noise_ttm_epoch_5.pth (torch, 973453 bytes, 72 tensors)

tokenTuringMachineUnit.tokenLearner1.norm.weight f4 [16]
0.99328464 0.95550907 0.9742271 1.0015278 0.99386793 0.98903245 0.96739674 0.9656157
1.0229445 1.0077795 1.0247928 1.0226697 0.9857787 0.98637307 1.0047008 0.98881847
00000000: e747 7e3f 3e9c 743f f266 793f 1032 803f
00000010: 216e 7e3f 3b31 7d3f 50a7 773f 9732 773f
00000020: d8ef 823f ebfe 803f 692c 833f d7e6 823f
00000030: fe5b 7c3f f282 7c3f 099a 803f 3523 7d3f

tokenTuringMachineUnit.tokenLearner1.norm.bias f4 [16]
-3.0341864e-06 -5.195818e-07 -4.4938002e-07 -8.845595e-06 -1.1476997e-06 -1.75814e-06 -9.288677e-08 8.2705486e-07
8.8093356e-07 -2.2423624e-06 -6.338969e-06 -4.740235e-06 6.341509e-07 -1.8176186e-06 3.1295854e-06 2.2765028e-06
00000000: ed9e 4bb6 6479 0bb5 5242 f1b4 8b67 14b7
00000010: a90a 9ab5 3bf9 ebb5 0b79 c7b3 c702 5e35
00000020: 4b79 6c35 7e7b 16b6 54b3 d4b6 4f0e 9fb6
00000030: 853a 2a35 e6f4 f3b5 de05 5236 05c6 1836

tokenTuringMachineUnit.tokenLearner1.attention_maps.0.weight f4 [16, 16, 1]
0.24620059 0.118078806 -0.18740986 0.22431755 -0.16958617 -0.14514418 0.02918863 -0.10637146
0.18391967 -0.118696555 0.010881052 0.2690756 -0.10108757 0.10223403 -0.07802538 -0.028076509
0.058716934 0.061657578 -0.19178274 0.12399381 -0.18378197 -0.032044347 -0.15282154 0.18618082
-0.28608587 0.19824383 0.22254542 -0.021836141 0.2281294 0.22360866 0.0879861 0.17299809
-0.14761947 -0.16867432 -0.011814983 -0.103744395 0.14939481 -0.21144299 -0.15667091 -0.15433484
0.07995819 -0.11418437 0.21196517 -0.16200598 0.006964413 -0.21742664 0.1667453 -0.18568945
0.12485875 -0.051038604 -0.12599559 -0.09873054 -0.0049057845 0.17998531 -0.06951596 -0.23594241
-0.05421583 -0.114724964 0.23371758 0.06736797 -0.21368279 0.18888092 0.028414046 0.11726644
-0.07289159 -0.06008535 -0.19061188 -0.13877594 -0.038335547 0.04214225 -0.11632736 0.09386247
-0.1434073 0.22389634 -0.09830311 -0.15530418 -0.11744557 -0.03215044 -0.1358212 0.17745532
-0.03823937 -0.009913428 0.18952224 -0.2388272 0.17842408 -0.099187545 -0.21674044 0.06108716
0.005481974 -0.21728213 0.05192617 0.23012798 0.14546648 -0.030801676 -0.12713419 -0.08895692
-0.22604917 0.061937246 0.110917844 -0.086222015 0.08036255 -0.030203382 -0.13530466 -0.059165053
-0.2532293 0.2306574 0.15961394 -0.069808505 -0.09973714 0.18662412 0.22036767 0.22643171
0.18868779 -0.018193822 0.075789526 -0.20512319 -0.069633305 0.109960064 -0.0790587 -0.04718346
-0.082575634 -0.088901885 0.22229889 -0.053895447 0.2338414 0.043076545 0.13889723 -0.13989678
0.100322545 -0.19378044 0.21125337 -0.042327236 -0.12820914 0.2502255 -0.018276155 -0.07326837
-0.100916706 0.14028457 0.043834347 0.20507854 0.23673978 0.05731419 -0.14251041 0.19830279
0.11669567 -0.071797274 -0.22924593 -0.17163281 -0.13947399 0.2386624 -0.0443462 0.12120273
-0.12289834 0.060831428 -0.12725665 -0.124506526 0.10015375 0.04831147 -0.018316494 0.18597613
0.015257359 0.19616751 -0.012176192 -0.23308599 -0.23845854 0.19570127 0.032484025 -0.04877205
-0.09174132 0.17104484 0.18094376 0.108530186 0.079448245 -0.11640468 -0.10814468 -0.104559764
0.051906187 0.18687524 0.11280551 0.16022776 0.24085712 0.03576644 -0.23933005 0.16594277
0.24410516 0.19371878 -0.13779432 0.0047699013 -0.14032866 -0.077584244 -0.16233888 -0.13587472
-0.13639593 0.1866518 -0.24959981 0.23018017 0.023606496 0.047515403 0.1823352 -0.095108904
0.27369383 0.0034947437 -0.043201074 -0.031215943 -0.05473365 -0.12974057 -0.21528962 -0.042814665
-0.037642475 -0.09898546 0.21323663 0.20340891 -0.09529351 0.11765647 -0.1705881 -0.2109582
0.09354486 0.052039076 -0.06775385 -0.21114095 -0.21362695 0.17531852 0.030719643 -0.12558292
0.18696068 -0.09425542 -0.057888594 0.23474082 -0.16289468 -0.14212944 0.07317388 -0.10228644
-0.06692106 0.23196569 -0.25016192 -0.14954706 0.09073422 0.06880078 -0.26712242 0.13231741
-0.23188615 0.024672572 0.00810268 0.008320562 0.07478456 -0.024326693 -0.10931166 0.19524547
0.014559012 0.21804589 -0.156418 -0.021194963 -0.19420865 -0.14295654 0.13285528 -0.1699184
00000000: 021c 7c3e 4dd3 f13d 5fe8 3fbe 80b3 653e
00000010: ffa7 2dbe ada0 14be fe1c ef3c 48d9 d9bd
00000020: 7055 3c3e 2e17 f3bd 7146 323c 47c4 893e
00000030: 0007 cfbd 1360 d13d c5cb 9fbd b500 e6bc
00000040: 2b81 703d a88c 7c3d b262 44be 77f0 fd3d
00000050: 5731 3cbe ef40 03bd 407d 1cbe 2fa6 3e3e
00000060: d979 92be 6e00 4b3e f2e2 633e b5e1 b2bc
00000070: c19a 693e abf9 643e 0e32 b43d 6926 313e
00000080: 8f29 17be f6b8 2cbe a193 41bc f177 d4bd
00000090: f4fa 183e 8384 58be 576e 20be f409 1ebe
000000a0: 1fc1 a33d 7fd9 e9bd 660d 593e e5e4 25be
000000b0: bb35 e43b 17a5 5ebe 48bf 2a3e 6025 3ebe
000000c0: f2b5 ff3d db0d 51bd fd04 01be 3d33 cabd
000000d0: b4c0 a0bb 124e 383e 625e 8ebd e39a 71be
000000e0: 6b11 5ebd ecf4 eabd a953 6f3e 38f8 893d
000000f0: a9cf 5abe 006a 413e 93c4 e83c 6329 f03d
00000100: 3048 95bd 0e1c 76bd c32f 43be 481b 0ebe
00000110: bc05 1dbd 5a9d 2c3d 0a3d eebd f73a c03d
00000120: 5dd9 12be 1545 653e 2453 c9bd 0f08 1fbe
00000130: 4e87 f0bd 2eb0 03bd b614 0bbe d9b6 353e
00000140: e3a0 1cbd ee6b 22bc 1e12 423e 1e8f 74be
00000150: cdb4 363e d722 cbbd 35f1 5dbe 8836 7a3d
00000160: 22a2 b33b 357f 5ebe 89b0 543d aba6 6b3e
00000170: 2af5 143e cc53 fcbc 772f 02be 0c2f b6bd
00000180: 6f79 67be e9b1 7d3d e528 e33d 2b95 b0bd
00000190: 1f95 a43d 156d f7bc 4e8d 0abe 0e57 72bd
000001a0: 45a7 81be 7431 6c3e d671 233e c3f7 8ebd
000001b0: fc42 ccbd 651a 3f3e 10a8 613e b7dd 673e
000001c0: 5f37 413e 360b 95bc 8a37 9b3d d00b 52be
000001d0: e89b 8ebd be32 e13d 87e9 a1bd 7243 41bd
000001e0: 6a1d a9bd 3112 b6bd 52a2 633e 79c1 5cbd
000001f0: 1f74 6f3e 0871 303d 133b 0e3e 1a41 0fbe
00000200: e875 cd3d 616e 46be ce52 583e 535f 2dbd
00000210: 4249 03be 8f1d 803e e0b7 95bc ba0d 96bd
00000220: 6bad cebd c2a6 0f3e a58b 333d 1c00 523e
00000230: ea6b 723e 49c2 6a3d 40ee 11be e30f 4b3e
00000240: 24fe ee3d 730a 93bd 72bf 6abe 83c0 2fbe
00000250: 45d2 0ebe eb63 743e 5ca4 35bd 2339 f83d
00000260: 20b2 fbbd 602a 793d 914f 02be 47fd febd
00000270: 691d cd3d 3fe2 453d 790c 96bc 8770 3e3e
00000280: 00fa 793c 23e0 483e a77e 47bc 18ae 6ebe
00000290: 7a2e 74be ea65 483e f80d 053d 33c5 47bd
000002a0: e0e2 bbbd 6126 2f3e 5249 393e 1345 de3d
000002b0: c3b5 a23d 9465 eebd f57a ddbd 6e23 d6bd
000002c0: 959b 543d 395c 3f3e 9306 e73d bf12 243e
000002d0: 40a3 763e d57f 123d f012 75be e7ec 293e
000002e0: b4f6 793e 375e 463e f419 0dbe d54c 9c3b
000002f0: 51b2 0fbe 7de4 9ebd 2a3c 26be be22 0bbe
00000300: 60ab 0bbe a621 3f3e 1897 7fbe 5ab4 6b3e
00000310: 6962 c13c 839f 423d 14b6 3a3e 75c8 c2bd
00000320: 9921 8c3e 1208 653b 9cf3 30bd 94b8 ffbc
00000330: 6430 60bd b6da 04be e274 5cbe 6e5e 2fbd
00000340: ff2e 1abd e4b8 cabd b45a 5a3e 6d4a 503e
00000350: 3e29 c3bd e0f5 f03d a6ae 2ebe 6d05 58be
00000360: 7394 bf3d ed26 553d 88c2 8abd 5535 58be
00000370: 06c1 5abe b386 333e c3a7 fb3c cf98 00be
00000380: 9f72 3f3e fc08 c1bd 971c 6dbd e65f 703e
00000390: ddcd 26be 618a 11be 30dc 953d 8e7b d1bd
000003a0: e90d 89bd 6a88 6d3e 3915 80be dd22 19be
000003b0: ddd2 b93d 6ce7 8c3d 45c4 88be 377e 073e
000003c0: 9073 6dbe 221e ca3c 1ac1 043c f752 083c
000003d0: a628 993d c648 c7bc cbde dfbd 6eee 473e
000003e0: ec88 6e3c 6c47 5f3e 0a2c 20be 0fa1 adbc
000003f0: a2de 46be 3363 12be 370b 083e 17ff 2dbe

tokenTuringMachineUnit.tokenLearner1.attention_maps.1.weight f4 [8, 16, 1]
0.21738063 0.14578044 0.00587549 -0.17821425 0.09463904 0.21849802 -0.066102915 0.1829793
-0.22272597 -0.06743941 0.18745944 -0.054711834 0.028743044 0.12508142 0.11881741 -0.05696011
-0.15304984 0.10280111 -0.23018216 0.055703215 0.18356195 0.1901684 -0.027568258 0.05828568
-0.13760583 -0.18662034 0.064583965 -0.27501684 -0.11855904 -0.2333249 -0.20194474 -0.04560852
0.07831055 0.018103946 0.059431877 -0.16351052 0.14405832 -0.15907556 0.16425863 0.04619772
-0.21651244 0.0023809834 0.22014835 0.042184353 -0.20542711 0.17266372 -0.12261341 0.049470402
0.2428143 0.012988419 -0.1456957 0.26839322 -0.025072165 0.23807578 0.04263238 0.09203795
-0.056234375 -0.083975255 -0.10623312 0.1376016 -0.07306692 -0.11257419 0.07254965 0.1516914
0.20395318 0.054964792 -0.099330895 -0.016890477 -0.023026804 -0.09889518 -0.09531294 0.048725296
0.08121466 0.21194974 0.15556334 -0.10907342 -0.024564844 -0.21477155 0.058195375 -0.113100424
-0.12128694 0.07798414 0.17178757 -0.14005396 0.1808032 -0.099922076 0.21324986 0.055085495
-0.01608917 -0.07980155 0.15806639 0.033720393 0.1475209 0.03838403 0.09192659 -0.24688376
0.20825005 0.174263 0.078818604 0.19112253 0.068774596 -0.09655544 0.1042558 0.24497104
0.16521356 -0.0050128 0.16210538 0.11105633 -0.25058702 -0.16044128 -0.2409608 0.18515912
0.17969494 -0.013492775 0.16145058 0.20405704 -0.22161433 -0.025332766 0.16911696 -0.13109083
-0.1702206 0.22417596 -0.20566188 -0.15608184 -0.09110862 -0.054852314 -0.05848424 0.028859641
00000000: 0799 5e3e 7847 153e 2f87 c03b cc7d 36be
00000010: 1dd2 c13d f2bd 5f3e f760 87bd ed5e 3b3e
00000020: 4712 64be ac1d 8abd 5ef5 3f3e 8419 60bd
00000030: 8876 eb3c 5815 003e 8b56 f33d 014f 69bd
00000040: 19b9 1cbe 6389 d23d dfb4 6bbe 0e29 643d
00000050: aaf7 3b3e 81bb 423e d4d6 e1bc f7bc 6e3d
00000060: 8be8 0cbe 6719 3fbe 9944 843d 02cf 8cbe
00000070: 15cf f2bd b9ec 6ebe 9aca 4ebe 00d0 3abd
00000080: 4861 a03d ba4e 943c d76e 733d 4d6f 27be
00000090: 0684 133e b4e4 22be 6a33 283e d239 3d3d
000000a0: 70b5 5dbe 460a 1c3b 926e 613e 80c9 2c3d
000000b0: 7c5b 52be c2ce 303e bd1c fbbd 7aa1 4a3d
000000c0: 50a4 783e 61cd 543c 4131 15be d66a 893e
000000d0: 2464 cdbc 23ca 733e 4a9f 2e3d 657e bc3d
000000e0: 0456 66bd 38fb abbd c090 d9bd 6fe7 0c3e
000000f0: 1ca4 95bd 4c8d e6bd e994 943d fe54 1b3e
00000100: 1ad9 503e c322 613d ff6d cbbd e65d 8abc
00000110: b5a2 bcbc 8e89 cabd 6e33 c3bd 2d94 473d
00000120: df53 a63d 5a09 593e ff4b 1f3e e361 dfbd
00000130: 363c c9bc 13ed 5bbe 465e 6e3d 32a1 e7bd
00000140: 4a65 f8bd 26b6 9f3d 15e9 2f3e 4e6a 0fbe
00000150: 7924 393e f2a3 ccbd 2c5e 5a3e 54a1 613d
00000160: 6fcd 83bc ff6e a3bd 28dc 213e 651e 0a3d
00000170: b80f 173e 9338 1d3d 0244 bc3d 19cf 7cbe
00000180: 803f 553e 0072 323e a66b a13d a0b5 433e
00000190: b2d9 8c3d dcbe c5bd 1184 d53d b0d9 7a3e
000001a0: be2d 293e 6a42 a4bb f4fe 253e 8071 e33d
000001b0: f14c 80be b84a 24be 6ebe 76be 5a9a 3d3e
000001c0: f301 383e cd10 5dbc 4d53 253e 54f4 503e
000001d0: deee 62be a986 cfbc ff2c 2d3e ad3c 06be
000001e0: 4f4e 2ebe 628e 653e 0799 52be ebd3 1fbe
000001f0: 2897 babd d2ac 60bd 2c8d 6fbd 0e6b ec3c

tokenTuringMachineUnit.tokenLearner1.feat_conv.weight f4 [16, 16, 1]
-0.035347432 0.0847207 0.05800829 0.23615985 -0.054923024 0.043328356 -0.23055793 -0.20389745
-0.019183656 0.09385753 -0.09110207 -0.107372664 0.06432123 0.08421394 0.05030771 -0.10715057
-0.12300936 -0.1487281 0.19388528 0.13719438 -0.21578342 -0.10366279 0.00442747 0.21346962
-0.23582543 0.065842025 0.118492424 0.045753017 0.16930358 -0.12059889 0.23241524 0.049576495
0.17965007 -0.13125682 -0.08149722 -0.15839823 -0.23878257 -0.18619443 -0.00096479926 0.10795823
-0.19088462 -0.18037547 -0.1603594 0.112141445 0.17936784 -0.1081017 -0.002124271 -0.20866671
-0.101902135 0.12745783 -0.055660196 0.10988294 0.14013118 -0.08396975 -0.23384403 0.20515336
0.2188652 -0.02427698 -0.06228407 -0.16546404 -0.073606506 -0.03938372 0.1918193 -0.19508192
-0.08376973 -0.04892326 0.2355128 -0.18437226 0.20924108 -0.04874623 0.06201018 -0.11872456
0.06878976 -0.067998596 -0.14487828 -0.07585443 0.21029057 0.20370312 0.21930654 0.12441595
-0.044354394 0.19788842 -0.17729543 0.24124855 -0.23128322 -0.21655576 0.06598746 0.18903676
-0.22116177 0.14211875 0.05208492 0.025159184 0.010663051 -0.07619489 0.1570789 0.13484176
-0.2344275 -0.16985853 0.23779038 -0.11005817 -0.20516308 -0.011509521 0.04535952 0.17268859
-0.25951186 -0.06813453 0.07675689 -0.053934813 -0.093695134 -0.035114653 -0.13919209 0.14467862
0.06159518 0.13752732 0.011709921 -0.22783352 0.12475826 0.19594552 -0.18457124 0.25361773
-0.22497192 0.037507445 0.07623612 -0.16026472 -0.18865585 -0.05848072 0.24235214 -0.12438029
-0.0005151235 -0.043081954 0.008239516 -0.20467664 -0.07985334 -0.022707365 -0.18044865 0.25561908
-0.13274184 -0.15979613 0.04785667 0.12587334 -0.17509422 -0.13008693 0.075177476 -0.11893176
0.036453925 0.19874258 0.116151266 -0.19085832 0.08090422 -0.049879935 -0.035330918 -0.1466631
-0.005009921 0.028401816 0.17689714 0.018862508 -0.046097267 0.14914471 0.11139703 0.13839784
-0.0054392535 0.026092786 -0.10159629 -0.23472151 0.116317764 0.0018339343 -0.102915704 0.17315471
-0.0595448 -0.11456276 -0.16069773 -0.08576282 0.22692753 0.24885094 -0.13871804 0.26003343
-0.116814286 -0.21944393 -0.135876 0.06680587 -0.12771943 0.078641206 0.1408697 0.16347992
0.063897714 0.085200414 -0.20112164 -0.2480423 0.091965936 -0.21975094 -0.03614141 0.10440947
0.15824603 -0.06770656 0.16753456 0.053280186 0.16829956 -0.094328225 0.14358462 -0.106481515
0.08977511 0.0046174205 0.061029505 0.059287168 0.1710579 -0.18684871 -0.13231763 -0.16712406
-0.18106219 -0.23746975 -0.037267 -0.14993778 -0.10233012 -0.06416439 0.104626335 -0.1837907
-0.17105296 -0.08218927 -0.247402 -0.046608973 -0.23216058 0.06061111 0.00058851857 -0.10974816
-0.27530888 -0.09769491 0.2195791 -0.018484196 0.12673856 -0.044623803 0.19770512 0.016337488
-0.035754863 0.23487496 -0.2119943 -0.17293954 -0.00410932 -0.0897824 -0.22313184 0.17198324
-0.09536978 -0.006076953 -0.22892882 0.17276444 -0.18521409 0.16708931 0.1278017 0.13153255
-0.22794639 0.05750254 -0.015619175 0.08406616 0.22173679 -0.21830365 -0.005997465 -0.17824498
00000000: 78c8 10bd 0c82 ad3d 1a9a 6d3d e3d3 713e
00000010: f7f6 60bd 1379 313d 6117 6cbe 7eca 50be
00000020: 0b27 9dbc 6038 c03d b993 babd 33e6 dbbd
00000030: d9ba 833d 5c78 ac3d 750f 4e3d c271 dbbd
00000040: 55ec fbbd 2e4c 18be dd89 463e af7c 0c3e
00000050: 54f6 5cbe 284d d4bd 4f14 913b c897 5a3e
00000060: 397c 71be 2fd8 863d 28ac f23d 8467 3b3d
00000070: eb5d 2d3e 8dfc f6bd 43fe 6d3e b910 4b3d
00000080: 30f6 373e 3068 06be 04e8 a6bd 2533 22be
00000090: 6b83 74be c1a9 3ebe 95ea 7cba 3419 dd3d
000000a0: 4277 43be 59b4 38be 4135 24be 6aaa e53d
000000b0: 34ac 373e 6d64 ddbd 5a37 0bbb baac 55be
000000c0: 11b2 d0bd 4e84 023e f2fb 63bd 4f0a e13d
000000d0: 8c7e 0f3e 55f8 abbd cf74 6fbe b913 523e
000000e0: 331e 603e 84e0 c6bc 951d 7fbd 686f 29be
000000f0: 02bf 96bd d350 21bd 476c 443e 8ec3 47be
00000100: 778f abbd c263 48bd 442a 713e 15cc 3cbe
00000110: 4b43 563e 20aa 47bd 63fe 7d3d dd25 f3bd
00000120: a5e1 8c3d d942 8bbd f95a 14be 9159 9bbd
00000130: 6956 573e 8d97 503e e591 603e cacd fe3d
00000140: f4ac 35bd 43a3 4a3e ef8c 35be dc09 773e
00000150: 82d5 6cbe cbc0 5dbe 6f24 873d da92 413e
00000160: 3b78 62be 9487 113e ff56 553d a21a ce3c
00000170: 14b4 2e3c 110c 9cbd 4bd9 203e f513 0a3e
00000180: c30d 70be 65ef 2dbe 527f 733e 2e66 e1bd
00000190: 4516 52be 6e92 3cbc e7ca 393d 47d5 303e
000001a0: bdde 84be 1e8a 8bbd b732 9d3d c0ea 5cbd
000001b0: 3ce3 bfbd 62d4 0fbd 5f88 0ebe a226 143e
000001c0: 3a4b 7c3d f6d3 0c3e f8da 3f3c 314d 69be
000001d0: 4281 ff3d f1a5 483e 3e00 3dbe 2fda 813e
000001e0: 0a5f 66be 68a1 193d af21 9c3d 6f1c 24be
000001f0: 002f 41be 7b89 6fbd 292b 783e 18bb febd
00000200: 5a09 07ba b476 30bd 09ff 063c c196 51be
00000210: 268a a3bd cc04 babc 88c7 38be 81e0 823e
00000220: 7aed 07be 99a1 23be 5b05 443d f1e4 003e
00000230: e64b 33be 8235 05be a6f6 993d 7f92 f3bd
00000240: b650 153d 2d83 4b3e b7e0 ed3d 5d70 43be
00000250: 1db1 a53d e74e 4cbd 27b7 10bd da2e 16be
00000260: 432a a4bb edaa e83c 8624 353e 8c85 9a3c
00000270: 7dd0 3cbd 64b9 183e 2024 e43d 2ab8 0d3e
00000280: c43b b2bb 8ac0 d53c b711 d0bd d65a 70be
00000290: 0238 ee3d a060 f03a 78c5 d2bd 784f 313e
000002a0: 40e5 73bd e19f eabd f28d 24be 6ba4 afbd
000002b0: b15f 683e c8d2 7e3e 1a0c 0ebe 1a23 853e
000002c0: 543c efbd e9b5 60be 1423 0bbe 84d1 883d
000002d0: e2c8 02be a40e a13d 2640 103e 4867 273e
000002e0: cedc 823d 8e7d ae3d d5f2 4dbe cdfe 7dbe
000002f0: a358 bc3d 6406 61be 0409 14bd a2d4 d53d
00000300: 3f0b 223e bda9 8abd 2e8e 2b3e 533c 5a3d
00000310: b856 2c3e 282f c1bd d907 133e fb12 dabd
00000320: 03dc b73d bb4d 973b 13fa 793d 1ad7 723d
00000330: cd29 2f3e 4555 3fbe 467e 07be 9222 2bbe
00000340: 5e68 39be 452b 73be 48a5 18bd 4a89 19be
00000350: 7492 d1bd 9f68 83bd 5546 d63d a133 3cbe
00000360: 8228 2fbe d952 a8bd f356 7dbe 0de9 3ebd
00000370: 81bb 6dbe 5b43 783d d046 1a3a a5c3 e0bd
00000380: 49f5 8cbe 4514 c8bd 58d9 603e 2b6c 97bc
00000390: c1c7 013e 73c7 36bd 3673 4a3e 32d6 853c
000003a0: b173 12bd 1083 703e 0915 59be 1017 31be
000003b0: 7aa7 86bb d6df b7bd ac7c 64be 601c 303e
000003c0: 3b51 c3bd 2d21 c7bb 516c 6abe 29e9 303e
000003d0: c3a8 3dbe 7619 2b3e 73de 023e 78b0 063e
000003e0: c76a 69be c987 6b3d 91e7 7fbc e12a ac3d
000003f0: f80e 633e fe8a 5fbe 6286 c4bb da85 36be

tokenTuringMachineUnit.tokenLearner2.norm.weight f4 [16]
0.9517866 0.9503443 0.97958523 0.966722 0.95111233 0.95358384 0.9506968 0.94776475
0.94239295 0.98529726 0.9663753 0.96967506 0.9688191 0.9516763 0.9582388 0.95542896
00000000: 49a8 733f c449 733f 19c6 7a3f 187b 773f
00000010: 197c 733f 121e 743f de60 733f b6a0 723f
00000020: aa40 713f 713c 7c3f 5f64 773f a03c 783f
00000030: 8704 783f 0fa1 733f 234f 753f fe96 743f

tokenTuringMachineUnit.tokenLearner2.norm.bias f4 [16]
8.754955e-07 -1.9410936e-06 -3.937378e-06 2.082627e-06 -1.0453664e-06 1.8993572e-06 -8.8357353e-07 1.06512125e-07
-5.0525983e-07 -1.1847936e-06 -1.9133093e-07 1.2911497e-06 8.7707144e-07 -1.8901708e-06 -2.1444189e-06 -1.6659398e-07
00000000: 9803 6b35 bc43 02b6 d21d 84b6 42c3 0b36
00000010: 844e 8cb5 6bed fe35 b62e 6db5 a9bb e433
00000020: 31a1 07b5 3305 9fb5 a570 4db4 914b ad35
00000030: e46f 6b35 c6b1 fdb5 d6e8 0fb6 01e1 32b4

tokenTuringMachineUnit.tokenLearner2.attention_maps.0.weight f4 [16, 16, 1]
0.12463284 0.08331061 0.149697 0.24911255 -0.12601478 -0.2170269 0.09364959 0.056388296
0.010778325 -0.19412224 -0.008758722 0.026035495 -0.10802073 -0.17681788 -0.17423277 -0.2014058
-0.12954088 0.09767179 -0.032691717 0.05480681 0.155087 -0.19111772 0.1550218 -0.055288926
-0.03555126 0.13409993 -0.18380299 -0.029606353 -0.05122414 -0.07500703 -0.070360325 0.12475708
0.23936582 0.2458445 -0.115006015 -0.090322085 -0.117677525 -0.21321836 -0.015673863 -0.091029234
-0.19021405 0.18359785 0.10696121 -0.16489084 0.07939457 0.1138294 0.24805704 -0.19660087
-0.08129517 0.079683505 0.21045122 -0.11701518 0.20872517 0.21424451 -0.01884799 -0.09848685
-0.023286937 -0.036572274 -0.0024223241 -0.16345073 0.09673627 -0.109888546 -0.13571997 0.23445542
-0.010126813 0.022171076 -0.08297365 -0.0879144 -0.23224387 0.07772145 0.03096054 -0.17893851
0.030468673 0.22269866 0.17697941 0.23201938 -0.19659798 -0.09911571 -0.19007085 0.056997113
-0.100400284 -0.22411852 0.047157846 0.14093539 -0.06459249 0.026881851 0.027701523 0.11088795
0.1812419 0.0071941 -0.12342817 -0.21888584 -0.08804656 0.03806135 -0.026334558 0.22177158
0.07354648 -0.12331703 -0.22890396 -0.17677437 -0.036615334 0.054383177 0.17165112 -0.15268701
-0.05684887 0.1504068 -0.028628878 -0.07030636 -0.06123139 -0.12660098 0.16670759 0.14457048
0.0707724 -0.04609237 0.21652187 -0.06587622 -0.17676513 -0.027890805 0.081167825 -0.0075579993
0.036147848 0.024592904 0.11620743 0.0399515 -0.0453349 0.20016322 0.10858043 0.124190316
-0.13235947 0.19262852 -0.1763074 0.22788464 -0.21550167 0.07458165 -0.04046405 -0.13792017
-0.21665424 -0.22767834 -0.12684073 0.12671576 -0.2270605 -0.0068810685 0.05907391 -0.08135883
0.010447156 0.19768403 -0.1669737 0.19093245 0.15271673 0.132624 0.15541053 -0.12870157
0.031076387 0.033358715 -0.22927465 -0.19717835 0.21244112 0.047931682 -0.058018323 0.15681984
-0.094171144 -0.021826059 0.09059887 0.20579201 0.13191599 0.014490927 0.095842615 0.13143113
-0.13698053 -0.13148344 -0.16381407 0.100655295 -0.10925312 -0.19772846 -0.21443993 0.09714549
-0.097985186 0.13345684 0.19914246 -0.19291846 -0.061641484 -0.17370614 -0.10959587 -0.055624243
-0.05971586 -0.088662095 -0.100381024 0.18543819 0.1315192 0.0030135862 -0.029410962 0.105427735
-0.07742345 0.09172633 0.22357741 0.010980231 0.110442236 -0.017586792 0.17922547 -0.11598578
0.08261063 -0.055883165 0.20350799 0.04420009 -0.24906652 0.12749846 -0.09075506 0.01374804
0.19216941 0.14452581 0.14727437 0.05774532 0.1655596 0.069659285 -0.17806211 0.0023503357
0.15139556 -0.20693931 -0.11253654 -0.13986607 -0.04144356 0.1795175 0.13347827 0.13372946
-0.072777845 0.10500862 0.04888435 -0.2129513 0.20330644 -0.19838431 0.041664235 -0.18998681
0.15992324 -0.08429074 -0.035682973 0.1601026 -0.20977958 -0.12222545 -0.17936517 -0.01916816
-0.16034831 0.17980456 -0.13053511 0.10784228 0.14375421 0.06605376 -0.05725141 -0.20887211
0.0727176 0.020494606 0.23267911 -0.057875253 -0.08707213 0.24619325 -0.0946075 0.070284456
00000000: 813f ff3d c19e aa3d 2c4a 193e 5c17 7f3e
00000010: 050a 01be 4d3c 5ebe 5bcb bf3d 6af7 663d
00000020: 9297 303c fbc7 46be be80 0fbc 6448 d53c
00000030: f939 ddbd bf0f 35be 136a 32be 523d 4ebe
00000040: 5da6 04be 2608 c83d c0e7 05bd 1b7d 603d
00000050: 20cf 1e3e 5db4 43be 09be 1e3e a476 62bd
00000060: 339e 11bd 7e51 093e da36 3cbe 0689 f2bc
00000070: 67d0 51bd 499d 99bd 1319 90bd a480 ff3d
00000080: 501c 753e a9be 7b3e 4688 ebbd c9fa b8bd
00000090: ea00 f1bd ea55 5abe 7966 80bc 896d babd
000000a0: 79c7 42be 1301 3c3e 7b0e db3d 25d9 28be
000000b0: 9f99 a23d 631f e93d aa02 7e3e bd51 49be
000000c0: 157e a6bd 1b31 a33d 8680 573e a8a5 efbd
000000d0: 0dbc 553e ea62 5b3e 1a67 9abc 79b3 c9bd
000000e0: 3fc4 bebc cfcc 15bd dbbf 1ebb a15f 27be
000000f0: aa1d c63d 3f0d e1bd 2dfa 0abe 1515 703e
00000100: efea 25bc 1ea0 b53c 17ee a9bd 770c b4bd
00000110: 56d1 6dbe 6c2c 9f3d f5a0 fd3c a83b 37be
00000120: 7099 f93c 1e0b 643e 173a 353e 7d96 6d3e
00000130: fb50 49be 2dfd cabd efa1 42be ce75 693d
00000140: aa9e cdbd 537f 65be 9628 413d 5e51 103e
00000150: 1149 84bd 5437 dc3c 4eee e23c 3919 e33d
00000160: 7a97 393e 7cbc eb3b e9c7 fcbd 9c23 60be
00000170: c151 b4bd 38e6 1b3d 92bb d7bc 1718 633e
00000180: 899f 963d a48d fcbd cd65 6abe 5704 35be
00000190: f6f9 15bd e5c0 5e3d 50c5 2f3e fc59 1cbe
000001a0: 5cda 68bd 3d04 1a3e 1c87 eabc c8fc 8fbd
000001b0: c4cd 7abd b0a3 01be 65b5 2a3e 490a 143e
000001c0: 1ff1 903d 5acb 3cbd e9b7 5d3e 1dea 86bd
000001d0: eb01 35be 427b e4bc 513b a63d 18a9 f7bb
000001e0: c40f 143d 0f77 c93c 29fe ed3d 2fa4 233d
000001f0: 17b1 39bd 96f7 4c3e 6b5f de3d 7e57 fe3d
00000200: 3e89 07be 6940 453e ed89 34be 975a 693e
00000210: 78ac 5cbe 44be 983d a2bd 25bd f23a 0dbe
00000220: 9cda 5dbe 8324 69be 89e2 01be c7c1 013e
00000230: 8c82 68be 967a e1bb 7cf7 713d 759f a6bd
00000240: 8c2a 2b3c af6d 4a3e 27fb 2abe cc83 433e
00000250: c661 1c3e 96ce 073e f023 1f3e 58ca 03be
00000260: e893 fe3c 26a3 083d f9c6 6abe 1fe9 49be
00000270: 2a8a 593e 0354 443d 9fa4 6dbd 6195 203e
00000280: cddc c0bd 90cc b2bc e68b b93d 24bb 523e
00000290: fc14 073e 5a6b 6d3c 2249 c43d e295 063e
000002a0: a044 0cbe 98a3 06be e0be 27be 5d24 ce3d
000002b0: 1ac0 dfbd 5479 4abe 2496 5bbe 37f4 c63d
000002c0: 75ac c8bd e9a8 083e 00ec 4b3e 6b8c 45be
000002d0: c87b 7cbd 06e0 31be cd73 e0bd 3fd6 63bd
000002e0: 9e98 74bd 7994 b5bd 9194 cdbd 82e3 3d3e
000002f0: f8ac 063e 967f 453b 42ef f0bc 7fea d73d
00000300: 3090 9ebd 04db bb3d 7af1 643e 6de6 333c
00000310: 8a2f e23d 2d12 90bc e286 373e f489 edbd
00000320: c32f a93d bfe5 64bd 6664 503e 270b 353d
00000330: 4b0b 7fbe f58e 023e cadd b9bd 763f 613c
00000340: 0fc8 443e 93fe 133e 18cf 163e 5b86 6c3d
00000350: 7588 293e 87a9 8e3d ea55 36be 1708 1a3b
00000360: 7007 1b3e e6e7 53be 8f79 e6bd 0d39 0fbe
00000370: b9c0 29bd 6fd3 373e 87ae 083e 60f0 083e
00000380: 8d0c 95bd c20e d73d f53a 483d e80f 5abe
00000390: 902f 503e 4225 4bbe 1ea8 2a3d e78b 42be
000003a0: ebc2 233e a0a0 acbd 4f28 12bd f0f1 233e
000003b0: 75d0 56be 5651 fabd 81ab 37be 8c06 9dbc
000003c0: 5932 24be b01e 383e ffaa 05be 6adc dc3d
000003d0: 4e34 133e 3247 873d 7480 6abd 92e2 55be
000003e0: f7ec 943d 4ee4 a73c 6f43 6e3e 9a0e 6dbd
000003f0: df52 b2bd 151a 7c3e 94c1 c1bd 4cf1 8f3d

tokenTuringMachineUnit.tokenLearner2.attention_maps.1.weight f4 [128, 16, 1]
-0.15809323 0.051276557 0.104588225 -0.17269355 -0.103700854 -0.068206444 0.082382634 -0.025655419
-0.08370555 0.011122083 -0.14297596 0.13776262 -0.1331385 -0.052911416 0.08102339 -0.0009708119
-0.1832133 -0.00074476685 -0.11944018 0.09224202 -0.04823132 0.012310284 -0.030604733 -0.0037919239
0.17348924 0.039513588 -0.13973972 -0.1052108 -0.013169381 0.06354534 0.1914523 -0.10013306
-0.10151224 -0.2074219 0.1853697 -0.051021446 -0.18034346 -0.19580762 0.10218818 0.035965398
0.18273398 -0.020897947 -0.06414539 0.13788635 -0.047120545 -0.025587102 0.018460428 0.0072237365
-0.2081188 0.036069777 -0.045434326 0.054626543 0.11736905 -0.13054042 0.03727703 -0.015576954
-0.0967901 -0.18398896 0.022176983 0.041027173 -0.02542499 -0.15555587 -0.16749837 -0.023307217
0.22018242 0.024491794 0.19627991 0.033914052 -0.080923334 0.08915087 -0.16025299 -0.011482467
0.20224562 -0.01725658 0.078244284 0.11741726 -0.005715082 -0.12215854 0.101410486 -0.122266985
-0.073954664 -0.19524667 -0.22076707 0.17695148 0.14388569 -0.01667923 -0.016565207 0.14316162
-0.1881792 0.13136578 0.106089994 -0.009891662 -0.08214117 0.163687 -0.06522565 0.19705072
0.115243874 -0.10777949 0.17660888 0.08575299 -0.049131352 0.04490528 -0.033201177 0.17274132
0.005796293 0.01170852 0.17084022 0.19835891 -0.17358147 0.114050776 0.0031772442 -0.10994455
-0.12630877 0.19701299 0.16228443 0.15958409 0.19413336 -0.11674738 -0.1677519 -0.07290976
-0.1715712 -0.1427834 -0.13063174 0.043353576 -0.08572107 0.022405397 0.05658233 -0.13934396
0.09897863 0.19726135 0.14924727 -0.14573804 0.19991714 -0.045072284 -0.12452926 0.13379599
-0.18183109 -0.07715264 -0.046342943 -0.12094552 0.053232096 -0.0096250605 -0.11844196 0.1255872
-0.10500006 -0.024813885 -0.035485223 -0.15090229 0.11761444 -0.01820921 0.086939014 0.16030087
0.16010405 -0.1437393 0.07797518 0.08997356 0.15616617 0.005591622 0.11195341 -0.13760597
-0.15685388 -0.04584823 -0.20104669 -0.21085131 0.13964862 -0.04478296 0.0980798 -0.16425428
0.09908546 -0.21330069 -0.09060743 -0.20780319 0.06101161 -0.06252414 -0.025282461 0.049481988
-0.15982707 0.014154558 0.1740719 -0.12298163 0.05378835 -0.107317574 -0.19023754 0.024991427
0.13032709 -0.16555719 0.10192384 -0.042962953 -0.113345325 0.16202846 0.14776185 -0.14538422
0.23490173 -0.16899289 -0.16147389 0.037809525 0.12085484 0.12172487 0.16290785 -0.06497459
0.15802585 0.14648648 0.10431872 -0.18174118 0.19555873 -0.035894897 -0.06219241 -0.1329402
-0.20601705 0.07895664 -0.016275909 -0.122110866 -0.12537608 0.10196077 -0.15788399 0.088667296
-0.046641257 0.09547354 0.12412328 -0.16019829 -0.120066926 -0.01890749 0.08419014 -0.10812751
0.032658633 0.054149874 -0.16893592 0.18560715 -0.22564404 0.08367834 -0.15784983 0.2286
0.17437993 -0.18609592 -0.12255918 0.04660496 -0.07630283 0.0040585585 0.19287482 -0.06369335
-0.003803521 0.20382217 -0.041650742 -0.20379047 0.18285643 -0.20785964 0.049020562 0.0059328796
-0.19243069 -0.2292528 -0.17734599 0.11707921 0.102625586 0.083241604 0.18949121 0.043330543
00000000: 31e3 21be 5e07 523d 5a32 d63d 94d6 30be
00000010: 1d61 d4bd d2af 8bbd 3ab8 a83d 502b d2bc
00000020: d16d abbd 6639 363c 4a68 12be a511 0d3e
00000030: 7555 08be a4b9 58bd 97ef a53d 157e 7eba
00000040: 449c 3bbe 753c 43ba 0e9d f4bd 62e9 bc3d
00000050: 348e 45bd 13b1 493c c7b6 fabc ed81 78bb
00000060: 2aa7 313e 00d9 213d ee17 0fbe c378 d7bd
00000070: 63c4 57bc 0f24 823d 120c 443e 9012 cdbd
00000080: a6e5 cfbd 6866 54be 8ed1 3d3e ddfb 50bd
00000090: f5ab 38be cb81 48be 0948 d13d 7450 133d
000000a0: 9e1e 3b3e 2c32 abbc a95e 83bd 1432 0d3e
000000b0: 7901 41bd 0b9c d1bc 533a 973c 18b5 ec3b
000000c0: 181d 55be e7bd 133d 5819 3abd 15c0 5f3d
000000d0: 2f5f f03d 63ac 05be cdaf 183d 7b36 7fbc
000000e0: e339 c6bd 9a67 3cbe 81ac b53c 1c0c 283d
000000f0: 1248 d0bc 0a4a 1fbe b184 2bbe c7ee bebc
00000100: 8077 613e 04a3 c83c 9afd 483e 76e9 0a3d
00000110: 22bb a5bd bb94 b63d 5c19 24be f520 3cbc
00000120: 7a19 4f3e ac5d 8dbc 8a3e a03d 7678 f03d
00000130: 9545 bbbb 422e fabd 4db0 cf3d 1d67 fabd
00000140: 8b75 97bd beee 47be c310 62be c532 353e
00000150: c556 133e e1a2 88bc c2b3 87bc f698 123e
00000160: 0cb2 40be c084 063e b645 d93d a310 22bc
00000170: a139 a8bd 919d 273e 0795 85bd aac7 493e
00000180: fb04 ec3d 7ebb dcbd f5d8 343e 439f af3d
00000190: f53d 49bd 99ee 373d f5fd 07bd 1ae3 303e
000001a0: d4ee bd3b 18d5 3f3c bdf0 2e3e 991e 4b3e
000001b0: 57bf 31be 7493 e93d 5039 503b 9c2a e1bd
000001c0: 1657 01be c6bd 493e e42d 263e 036a 233e
000001d0: e5ca 463e 4019 efbd 27c7 2bbe b651 95bd
000001e0: 5cb0 2fbe d035 12be 54c4 05be 8593 313d
000001f0: 878e afbd 868b b73c e0c2 673d 2fb0 0ebe
00000200: 4fb5 ca3d e1fe 493e 47d4 183e 5a3c 15be
00000210: 14b7 4c3e b79d 38bd 3209 ffbd d101 093e
00000220: ee31 3abe 3402 9ebd 19d2 3dbd 49b2 f7bd
00000230: e609 5a3d 6eb2 1dbc b391 f2bd ee99 003e
00000240: 450a d7bd 7d46 cbbc f458 11bd 2186 1abe
00000250: d7df f03d 7b2b 95bc 150d b23d e925 243e
00000260: 51f2 233e 6530 13be 73b1 9f3d 0f44 b83d
00000270: 06ea 1f3e ed39 b73b d447 e53d 94e8 0cbe
00000280: 4e9e 20be 5bcb 3bbd 2fdf 4dbe 68e9 57be
00000290: 0c00 0f3e 566e 37bd 10de c83d 4632 28be
000002a0: 51ed ca3d 7f6b 5abe 6390 b9bd 5cca 54be
000002b0: 4fe7 793d a80c 80bd 2a1d cfbc a0ad 4a3d
000002c0: b5a9 23be 85e8 673c e73f 323e cbdd fbbd
000002d0: 2c51 5c3d 51c9 dbbd a1cd 42be d2ba cc3c
000002e0: 7774 053e d387 29be 72bd d03d ecf9 2fbd
000002f0: 9821 e8bd caea 253e e24e 173e 9adf 14be
00000300: 148a 703e 790c 2dbe 6959 25be 29de 1a3d
00000310: be82 f73d e34a f93d 51d1 263e 6611 85bd
00000320: 87d1 213e 8d00 163e 0ea5 d53d 5c1a 3abe
00000330: 8c40 483e 8706 13bd 78bd 7ebd 7a21 08be
00000340: 22f6 52be 05b4 a13d 0e55 85bc 4315 fabd
00000350: 9662 00be cfd0 d03d 57ac 21be 3397 b53d
00000360: e70a 3fbd a287 c33d 5934 fe3d 050b 24be
00000370: a6e5 f5bd e1e3 9abc e16b ac3d f571 ddbd
00000380: 0fc5 053d 42cc 5d3d 8afd 2cbe cd0f 3e3e
00000390: 3b0f 67be 8d5f ab3d 63a3 21be 1e16 6a3e
000003a0: a790 323e ee8f 3ebe 4f00 fbbd d8e4 3e3d
000003b0: a844 9cbd a8fd 843b fa80 453e a971 82bd
000003c0: 7e44 79bb c2b6 503e f899 2abd 73ae 50be
000003d0: b73e 3b3e 28d9 54be c9c9 483d 9a68 c23b
000003e0: 8d0c 45be 3fc1 6abe 309a 35be 3ac7 ef3d
000003f0: 5d2d d23d 937a aa3d fc09 423e 5e7b 313d

tokenTuringMachineUnit.tokenLearner2.feat_conv.weight f4 [16, 16, 1]
-0.15717901 -0.23911996 0.04672911 -0.042873498 -0.21480915 0.115500554 0.03986979 0.2611949
-0.23492418 -0.05406736 -0.026175095 -0.14689887 0.005206625 0.24735914 0.047309447 -0.020487932
0.18690169 0.12041579 -0.21991321 0.06428883 0.20467246 0.102479346 0.07563695 0.17162193
-0.0860672 0.1008143 0.0563165 0.019638244 0.0061288835 -0.19371243 -0.2084674 0.07702437
0.25213715 0.11387698 -0.044388656 0.21420904 0.17316693 0.15763903 0.2227688 -0.061451852
-0.11476433 -0.19641837 -0.073196635 -0.12081047 0.022653976 -0.19222121 0.021793755 0.2274333
0.12320673 -0.059372865 -0.24061655 0.14690578 0.1722565 -0.15135147 -0.078673124 -0.2501485
0.24281769 -0.05743932 0.044788416 -0.1412784 0.07136838 -0.11747792 0.038633805 0.08857206
0.15820031 -0.08539484 0.0807701 0.18273686 -0.036779672 -0.0030366967 0.03354076 0.046721928
0.049975816 0.04040888 0.2386073 -0.17845334 0.14751396 -0.20720017 0.0288589 0.11303241
0.20621212 0.2295203 -0.12415226 -0.06644359 0.24158002 -0.030847011 -0.094170295 -0.0067997607
0.20274355 0.19712399 0.20187683 0.2266717 -0.13722612 -0.24778734 0.055286042 0.01907828
-0.100337386 0.09241759 0.051266305 -0.11031495 0.21210063 -0.21142974 -0.08397095 -0.19365261
0.21221326 -0.08277191 -0.090978354 -0.11796064 -0.23186807 0.15996872 0.18748944 -0.01396704
0.16195065 0.18645424 0.0861083 -0.16320598 0.13371854 -0.14141761 0.12030127 -0.20046455
0.1884924 -0.16113816 -0.21733648 -0.20276004 0.20302226 0.17063318 -0.09241564 0.10144682
-0.073861234 -0.15185082 -0.16734554 -0.10943057 0.09093202 0.25227353 -0.24334599 -0.024319043
-0.011805835 0.12981658 -0.14569455 -0.052731134 0.03603691 0.050455768 0.14948075 -0.16009434
0.15751247 -0.053878132 -0.15771718 -0.11428768 0.15024844 0.09307806 -0.0011317037 -0.08596062
-0.028424757 0.21084346 -0.10705586 -0.20646779 -0.033554573 0.06547091 0.25285167 -0.09492254
0.13122301 0.11529511 -0.15320061 0.12088944 -0.24443996 0.14574537 0.12759426 -0.062147688
-0.07752075 -0.14188176 0.23543459 0.06715554 -0.06734764 0.27370995 0.17015672 0.14334913
0.05705494 -0.15652426 0.09150739 0.13277131 0.24240632 -0.21835864 -0.0741362 -0.076899454
0.075185224 -0.22776918 -0.043003865 0.03196479 0.014420327 -0.04361029 -0.17245324 0.21721108
0.18214712 -0.23055343 -0.059099667 0.032969132 0.18708059 0.12979296 0.16142356 -0.13449958
-0.21411069 0.14363901 -0.23798655 0.08892961 -0.07898639 -0.15356913 -0.11391434 0.24350555
-0.029990764 -0.045677464 0.14019947 -0.14045395 0.18066242 0.07543904 0.08066487 -0.09891609
-0.08094337 -0.18181862 -0.11540313 0.20709716 -0.20307124 0.111842394 -0.16018555 0.11444314
0.0504458 -0.03753814 0.12503436 0.06146939 -0.16875891 0.22259304 0.049407054 -0.21312739
-0.2012995 -0.17362647 0.050564904 0.15513895 -0.23937389 -0.12013729 -0.003333166 0.15693775
0.24189356 0.047973927 -0.13923949 0.21842185 -0.027350033 -0.12213837 -0.13114834 -0.13898006
0.21192032 -0.18121286 -0.024557045 0.107097626 -0.053804263 -0.014595831 -0.18589678 -0.08053248
00000000: 89f3 20be dddb 74be 0667 3f3d 1f9c 2fbd
00000010: eef6 5bbe 8e8b ec3d 814e 233d 57bb 853e
00000020: f78f 70be bc75 5dbd 276d d6bc a86c 16be
00000030: 569c aa3b b74b 7d3e 8dc7 413d 4fd6 a7bc
00000040: 2863 3f3e 8e9c f63d ee30 61be dda9 833d
00000050: a895 513e b1e0 d13d 8ce7 9a3d a9bd 2f3e
00000060: 0044 b0bd ba77 ce3d 21ac 663d 62e0 a03c
00000070: cdd4 c83b 8d5c 46be 7a78 55be f4be 9d3d
00000080: 1f18 813e 5638 e93d e1d0 35bd 9d59 5b3e
00000090: ac52 313e 206c 213e 811d 643e f0b4 7bbd
000000a0: 9009 ebbd e621 49be 1ee8 95bd 7b6b f7bd
000000b0: d594 b93c a3d5 44be d188 b23c 46e4 683e
000000c0: cf53 fc3d f630 73bd 2f64 76be 786e 163e
000000d0: 0264 303e e1fb 1abe 601f a1bd 7713 80be
000000e0: 33a5 783e 7e45 6bbd 0f74 373d 49ab 10be
000000f0: 9629 923d 4498 f0bd 7b3e 1e3d 4565 b53d
00000100: 43ff 213e 7de3 aebd cb6a a53d 5f1f 3b3e
00000110: 48a6 16bd 5103 47bb 0962 093d 7e5f 3f3d
00000120: 71b3 4c3d c883 253d 7955 743e 79bc 36be
00000130: e60d 173e 482c 54be 8069 ec3c 897d e73d
00000140: 4529 533e 5f07 6b3e 8a43 febd 9413 88bd
00000150: c160 773e dfb2 fcbc 5bdc c0bd 87d0 debb
00000160: 019c 4f3e dfda 493e cdb8 4e3e a01c 683e
00000170: 0185 0cbe f7bb 7dbe 9e73 623d 0e4a 9c3c
00000180: b07d cdbd 6f45 bd3d 9efc 513d ceec e1bd
00000190: e830 593e 0a81 58be f6f8 abbd df4c 46be
000001a0: 6f4e 593e 5284 a9bd dc52 babd 5995 f1bd
000001b0: d36e 6dbe d7ce 233e 3bfd 3f3e 03d6 64bc
000001c0: 64d6 253e dced 3e3e 8c59 b03d 781f 27be
000001d0: 83ed 083e c7cf 10be 8360 f63d 9446 4dbe
000001e0: 2704 413e 6701 25be 748d 5ebe 54a0 4fbe
000001f0: 11e5 4f3e 77ba 2e3e 6944 bdbd 5ac3 cf3d
00000200: 8f44 97bd c87e 1bbe a15c 2bbe 221d e0bd
00000210: 913a ba3d ff29 813e b12f 79be bb38 c7bc
00000220: 436d 41bc a3ee 043e f430 15be 9afc 57bd
00000230: 709b 133d b5aa 4e3d 7b11 193e c5ef 23be
00000240: f34a 213e 51af 5cbd 9d80 21be a90f eabd
00000250: bada 193e b69f be3d ad55 94ba 1f0c b0bd
00000260: 09db e8bc 59e7 573e 1a40 dbbd 4b6c 53be
00000270: 8570 09bd 9d15 863d c675 813e c066 c2bd
00000280: 535f 063e d81f ec3d 9fe0 1cbe e294 f73d
00000290: 784e 7abe 463e 153e 12a8 023e 938e 7ebd
000002a0: 33c3 9ebd 7449 11be c415 713e d888 893d
000002b0: 8fed 89bd b623 8c3e 903d 2e3e 1dca 123e
000002c0: 71b2 693d e547 20be 3a68 bb3d 34f5 073e
000002d0: 5d39 783e 6899 5fbe b8d4 97bd 767d 9dbd
000002e0: b6fa 993d 533c 69be d224 30bd 83ed 023d
000002f0: 3c43 6c3c b4a0 32bd 9597 30be 956c 5e3e
00000300: c684 3a3e 3316 6cbe 7e12 72bd a40a 073d
00000310: 0e92 3f3e 72e8 043e 384c 253e 42ba 09be
00000320: d53f 5bbe 1b16 133e bfb2 73be ba20 b63d
00000330: 9ec3 a1bd 3a41 1dbe ec4b e9bd 8559 793e
00000340: 31af f5bc 4b18 3bbd 7390 0f3e 29d3 0fbe
00000350: 92ff 383e c97f 9a3d a033 a53d 8594 cabd
00000360: a3c5 a5bd a92e 3abe 7a58 ecbd 4711 543e
00000370: e8f1 4fbe a00d e53d ae07 24be 2a61 ea3d
00000380: 41a0 4e3d 98c1 19bd 0209 003e 54c7 7b3d
00000390: 23cf 2cbe 6eef 633e 0d5f 4a3d 113e 5abe
000003a0: 7521 4ebe 23cb 31be 251d 4f3d bfdc 1e3e
000003b0: 6e1e 75be 8a0a f6bd 3f71 5abb 4ab4 203e
000003c0: f2b2 773e 4f80 443d cc94 0ebe faa9 5f3e
000003d0: 2d0d e0bc af23 fabd c04b 06be ca50 0ebe
000003e0: a401 593e dd8f 39be db2b c9bc 0056 db3d
000003f0: dc61 5cbd 5a23 6fbc ba5b 3ebe 36ee a4bd

tokenTuringMachineUnit.transformerBlock.self_attn.in_proj_weight f4 [48, 16]
0.25695112 -0.017782778 -0.23997355 -0.17272769 -0.03351468 -0.18325165 0.27234843 -0.27593443
0.20514116 -0.009038329 0.0183855 0.28373107 0.017128587 -0.20949775 0.29584876 -0.19392547
0.28285852 -0.106833726 -0.2411991 0.15207753 0.1267525 0.13759422 0.15891004 0.1988577
0.033854663 0.2764856 0.06003949 -0.21259822 -0.10436453 0.24803832 0.28146365 0.1503832
-0.24150689 0.16494226 0.19789478 -0.27596653 -0.121933326 0.12631729 0.123686105 -0.18284595
0.19868347 0.122042716 0.04507494 0.14591515 -0.11185415 0.2501932 0.22422692 -0.2933682
-0.22825453 -0.032071143 -0.08198626 -0.063722596 -0.10953149 -0.023644388 -0.28554207 0.23568359
-0.23160371 -0.15273687 -0.051655084 -0.11497843 -0.21100827 0.1309832 0.05737433 -0.29440644
0.16412517 -0.011649936 0.3053725 0.2862464 0.066578716 -0.2839991 -0.24429637 0.2814664
-0.11914468 0.08452982 0.1919651 -0.29478946 -0.17672476 0.0658496 0.1946005 0.26046392
0.2236925 -0.17167798 0.026718944 -0.087743476 0.06653008 -0.16625135 0.2648385 -0.09639013
-0.28926402 -0.29756257 0.21282116 -0.17083286 0.12922671 0.144447 -0.14974685 -0.106929615
-0.05666265 0.15959245 -0.27581814 0.08619061 -0.1638543 -0.18013045 -0.1773441 0.018930972
0.22444734 0.28902397 -0.11141312 -0.29951212 -0.09664877 -0.28777903 -0.23606306 -0.06720944
-0.032774985 -0.10717358 -0.057564393 0.22839239 -0.11886947 -0.1754328 -0.037636817 0.10852963
0.18903899 -0.068527386 -0.13441357 0.28196386 0.061204255 -0.257317 -0.27530384 0.13047409
0.25893512 -0.22207984 0.15089563 0.19286251 -0.029079676 0.23202941 0.2962642 0.07395768
0.20143798 -0.10446921 -0.2571007 -0.13600574 0.14497948 0.2837104 0.17778385 0.033361077
0.052669704 0.26115426 -0.15763389 -0.18393038 -0.19304562 0.04250765 0.047795027 0.1300396
0.15744409 -0.25496012 -0.19171381 0.053188264 0.05255294 -0.01810518 -0.07524741 0.26734272
0.22044829 0.13471773 -0.2676338 0.0614264 0.2437261 -0.24127986 -0.14202759 0.28956512
0.20626137 -0.12260085 -0.14567295 -0.02415368 0.2895209 -0.119678274 0.03847763 0.045673013
-0.18468726 -0.09001373 0.19895503 -0.19632305 0.2310175 0.11625442 0.1426093 0.08922374
-0.27835336 -0.30390078 -0.17979604 0.13397059 -0.2996912 -0.052381694 0.2788013 -0.016874462
-0.16590258 0.27587542 -0.2997025 -0.29164496 0.28195813 -0.1340905 -0.016628861 0.08218345
-0.109994575 -0.13764413 -0.2042236 0.28302446 0.29431096 -0.30584696 0.29037735 0.27035937
0.17664698 -0.29420808 -0.16673078 0.30277202 -0.28096884 0.004526794 0.120179266 -0.02361539
-0.15615447 -0.20433153 -0.06926097 -0.23279753 0.22175291 -0.22925696 0.07099235 0.30169532
-0.2852003 -0.013748974 -0.20043999 0.057914585 0.20449129 -0.28060517 -0.1147238 -0.21816257
0.041159302 0.06455967 -0.18779686 0.21741024 -0.13911852 -0.22264007 -0.093088865 0.13233292
-0.24993993 0.007836282 0.28942445 0.22787526 -0.22802559 -0.04350993 -0.21626791 -0.12335451
-0.1408161 -0.30404827 -0.03957525 -0.106798545 -0.072398484 0.10734704 0.16476145 0.041811347
00000000: 198f 833e 30ad 91bc a0bb 75be 87df 30be
00000010: b046 09bd 52a6 3bbe 4171 8b3e 4747 8dbe
00000020: 8610 523e 8015 14bc 309d 963c 3345 913e
00000030: 4051 8c3c 9486 56be 7d79 973e 6694 46be
00000040: d5d2 903e a4cb dabd e6fc 76be 36ba 1b3e
00000050: 68cb 013e 80e5 0c3e 50b9 223e 5aa1 4b3e
00000060: 30ab 0a3d 858f 8d3e f8eb 753d 59b3 59be
00000070: 12bd d5bd c2fd 7d3e 011c 903e 0efe 193e
00000080: 954d 77be a0e6 283e eea4 4a3e 7c4b 8dbe
00000090: 2eb8 f9bd 5259 013e 244f fd3d f83b 3bbe
000000a0: ae73 4b3e 88f1 f93d 80a0 383d c86a 153e
000000b0: ca13 e5bd 5319 803e be9b 653e 5b34 96be
000000c0: 8ebb 69be 085d 03bd 6ae8 a7bd fe80 82bd
000000d0: 0c52 e0bd e0b1 c1bc 9232 92be 0a57 713e
000000e0: 8629 6dbe 0e67 1cbe 4894 53bd d079 ebbd
000000f0: 8d12 58be 7620 063e 5801 6b3d 71bc 96be
00000100: 6e10 283e 60df 3ebc c959 9c3e e38e 923e
00000110: 6c5a 883d 5468 91be d428 7abe 5d1c 903e
00000120: 2002 f4bd f81d ad3d 8092 443e a5ee 96be
00000130: 56f7 34be 28dc 863d 5a45 473e 875b 853e
00000140: a60f 653e 5acc 2fbe b0e1 da3c dab2 b3bd
00000150: ec40 883d cb3d 2abe e998 873e 3068 c5bd
00000160: 6a1a 94be 1f5a 98be caed 593e cfee 2ebe
00000170: 0254 043e eae9 133e 3d57 19be eafd dabd
00000180: 1817 68bd 346c 233e 0938 8dbe b484 b03d
00000190: 6cc9 27be 1e74 38be b199 35be 2015 9b3c
000001a0: 86d5 653e f3fa 933e 902c e4bd a759 99be
000001b0: caef c5bd c657 93be 84ba 71be 1aa5 89bd
000001c0: 103f 06bd d27d dbbd a4c8 6bbd b2df 693e
000001d0: d671 f3bd a8a4 33be 1029 1abd c844 de3d
000001e0: 7093 413e 1658 8cbd b6a3 09be 915d 903e
000001f0: 50b1 7a3d 0ebf 83be a0f4 8cbe 009b 053e
00000200: 2593 843e e668 63be 6284 1a3e c07d 453e
00000210: 8038 eebc 1e99 6d3e f1af 973e 2077 973d
00000220: c245 4e3e f4f3 d5bd b4a2 83be 1745 0bbe
00000230: 8075 143e 7d42 913e f80c 363e a0a5 083d
00000240: 30bc 573d 03b6 853e c76a 21be 3f58 3cbe
00000250: c0ad 45be 801c 2e3d b8c4 433d 1a29 053e
00000260: 0639 213e 228a 82be a050 44be f0db 593d
00000270: c041 573d 5051 94bc 501b 9abd 25e1 883e
00000280: 32bd 613e 72f3 093e 4c07 89be 409a 7b3d
00000290: 5693 793e 1112 77be ae6f 11be e141 943e
000002a0: 2e36 533e 2816 fbbd 4a2b 15be f0dd c5bc
000002b0: 153c 943e e219 f5bd b89a 1d3d a013 3b3d
000002c0: a81e 3dbe 1e59 b8bd deba 4b3e e908 49be
000002d0: da8f 6c3e cc16 ee3d 2c08 123e f0ba b63d
000002e0: 5584 8ebe e298 9bbe 741c 38be 962f 093e
000002f0: 2071 99be 308e 56bd 0bbf 8e3e 503c 8abc
00000300: 5ee2 29be 8b3f 8d3e 9b72 99be 7d52 95be
00000310: d15c 903e 054f 09be 4039 88bc cc4f a83d
00000320: d644 e1bd 95f2 0cbe fe1f 51be 95e8 903e
00000330: edaf 963e f997 9cbe 57ac 943e 8b6c 8a3e
00000340: f2e2 343e 71a2 96be 79bb 2abe ef04 9b3e
00000350: 26db 8fbe 8055 943b 8c20 f63d 1075 c1bc
00000360: f5e6 1fbe 493c 51be b2d8 8dbd 7a62 6ebe
00000370: 3213 633e 56c2 6abe 7064 913d cf77 9a3e
00000380: c605 92be 6043 61bc 2440 4dbe d837 6d3d
00000390: 2a66 513e 7bab 8fbe 50f4 eabd 0266 5fbe
000003a0: a896 283d dc37 843d d24d 40be caa0 5e3e
000003b0: 1675 0ebe c2fb 63be 60a5 bebd 4882 073e
000003c0: 41f0 7fbe c063 003c 712f 943e 2258 693e
000003d0: 8a7f 69be 7837 32bd 5675 5dbe 4aa1 fcbd
000003e0: 1932 10be 37ac 9bbe a819 22bd 32b9 dabd
000003f0: a845 94bd c4d8 db3d 3ab7 283e 6042 2b3d

tokenTuringMachineUnit.transformerBlock.self_attn.in_proj_bias f4 [48]
0.0 0.0 0.0 0.0 0.0 0.0 0.0 0.0
0.0 0.0 0.0 0.0 0.0 0.0 0.0 0.0
0.0 0.0 0.0 0.0 0.0 0.0 0.0 0.0
0.0 0.0 0.0 0.0 0.0 0.0 0.0 0.0
0.0 0.0 0.0 0.0 0.0 0.0 0.0 0.0
0.0 0.0 0.0 0.0 0.0 0.0 0.0 0.0
00000000: 0000 0000 0000 0000 0000 0000 0000 0000
00000010: 0000 0000 0000 0000 0000 0000 0000 0000
00000020: 0000 0000 0000 0000 0000 0000 0000 0000
00000030: 0000 0000 0000 0000 0000 0000 0000 0000
00000040: 0000 0000 0000 0000 0000 0000 0000 0000
00000050: 0000 0000 0000 0000 0000 0000 0000 0000
00000060: 0000 0000 0000 0000 0000 0000 0000 0000
00000070: 0000 0000 0000 0000 0000 0000 0000 0000
00000080: 0000 0000 0000 0000 0000 0000 0000 0000
00000090: 0000 0000 0000 0000 0000 0000 0000 0000
000000a0: 0000 0000 0000 0000 0000 0000 0000 0000
000000b0: 0000 0000 0000 0000 0000 0000 0000 0000

tokenTuringMachineUnit.transformerBlock.self_attn.out_proj.weight f4 [16, 16]
0.23943612 0.1766496 0.18626761 -0.24270979 0.06410217 0.24603677 -0.22477677 -0.117064685
0.2150347 0.0052109957 0.049319267 0.05946082 -0.069525 0.00812307 0.24467897 0.13018522
0.22889787 0.23775265 0.10241997 0.11236665 0.12200034 -0.021820635 -0.18631816 0.16437098
-0.030433744 0.030007094 0.119389325 0.03055209 -0.0014755726 0.079250276 -0.1900934 -0.15403673
-0.02486968 -0.18770066 0.172723 0.04818836 -0.10031313 -0.022403508 -0.19039908 0.14079979
-0.24908009 -0.07635188 -0.17820221 0.09125525 0.084462166 -0.040005118 0.15941694 0.1278151
-0.17074835 0.16779146 -0.1587739 0.21934217 -0.048152447 0.027347237 -0.060756147 0.21776026
-0.05333662 0.1377534 0.17403048 -0.03148091 0.110202014 0.16687164 0.062396675 -0.04533404
-0.16268957 -0.18823087 -0.23272002 -0.19075605 0.19315454 0.18131125 -0.15445176 0.0540134
-0.19481826 0.03522852 0.06443715 0.010573804 0.046668768 -0.16950428 -0.2441386 -0.083878845
-0.1243878 -0.20188102 0.11544436 -0.0075309277 0.13907471 -0.07700983 -0.22347876 -0.06523645
-0.026746124 -0.031482965 0.096663386 0.05136785 -0.21638599 -0.04726839 -0.2191391 0.12943566
-0.057031244 0.098691225 0.12639907 -0.17578995 0.008856088 -0.23421487 0.2150644 0.03883019
0.1583361 0.042685837 0.16878882 0.1324397 0.03293395 -0.24326444 -0.18922058 -0.13680625
-0.06513417 -0.10883531 -0.23895654 0.03125629 0.013441086 0.17917296 0.1960463 0.10514918
0.043842405 -0.060711533 0.067927 -0.11017135 0.0051801205 -0.12183544 0.07090551 -0.039251566
-0.073912024 -0.057689756 0.21622556 0.024410963 0.06644693 -0.23999634 0.08270359 0.1820974
-0.2443735 -0.05391878 0.012275934 -0.019589543 -0.013081789 0.008016944 0.030121058 0.14515695
0.17420089 0.2443285 0.1417565 0.19691423 0.19384098 0.047882617 0.21440575 0.09085232
0.009964377 -0.068588614 -0.017512858 -0.015422046 -0.17835408 -0.0022563636 0.052708417 0.1553399
-0.06336805 -0.091502756 -0.09398064 -0.036010176 0.14832646 0.23499069 -0.22739622 -0.0634014
0.2306638 -0.20583472 -0.23136473 0.027179658 -0.074911654 0.061599582 0.19828025 0.11254722
-0.12634793 -0.053961486 0.17097992 0.1020751 0.110543996 0.21457896 -0.14118114 -0.2277449
-0.09875691 -0.00934571 0.11380282 -0.1654146 -0.124019116 -0.15328902 0.106550545 0.19341716
-0.10358268 -0.23952574 -0.05074781 0.025167793 -0.12177706 0.064563125 -0.0062919855 0.24780712
0.019248039 -0.039896786 0.0025152266 -0.12778047 -0.18418178 -0.15187079 -0.14288163 -0.033643454
0.2186437 -0.10993871 -0.13624042 0.09007001 0.022216976 0.124993175 -0.11358088 0.21059439
-0.18881649 0.20831415 0.07536319 -0.13695204 0.037814766 0.1484108 -0.11323401 0.16308334
-0.17009705 0.03995323 0.018118054 -0.07899651 0.01729694 -0.13662511 0.10115433 0.2153619
0.18450582 -0.031055301 -0.06114939 0.24506035 0.2084339 0.13200518 -0.03435272 0.0027816892
-0.064603 -0.23050469 0.18454036 0.0046367943 0.077135265 -0.051979423 0.11052692 0.013226777
0.05763939 -0.18596467 -0.23741335 0.22862467 -0.19705066 -0.14010274 -0.08337909 -0.1941278
00000000: be2e 753e a2e3 343e f0bc 3e3e ea88 78be
00000010: 0048 833d 10f1 7b3e e22b 66be 9cbf efbd
00000020: 0e32 5c3e 00c1 aa3b 0003 4a3d 308d 733d
00000030: 2063 8ebd a016 053c 208d 7a3e 464f 053e
00000040: 3464 6a3e 6e75 733e 90c1 d13d 7c20 e63d
00000050: 50db f93d 30c1 b2bc 30ca 3ebe de50 283e
00000060: 3050 f9bc 70d1 f53c 6482 f43d 6048 fa3c
00000070: 0068 c1ba f84d a23d d8a7 42be cebb 1dbe
00000080: 80bb cbbc 9a34 40be 4cde 303e 2861 453d
00000090: f870 cdbd 9087 b7bc faf7 42be d22d 103e
000000a0: da0e 7fbe 605e 9cbd a47a 36be 08e4 ba3d
000000b0: 80fa ac3d 68dc 23bd 323e 233e f6e1 023e
000000c0: a8d8 2ebe 86d1 2b3e a095 22be 3c9b 603e
000000d0: 803b 45bd 5007 e03c 70db 78bd 8cfc 5e3e
000000e0: 8077 5abd 3a0f 0d3e 0c35 323e 20f2 00bd
000000f0: 98b1 e13d 66e0 2a3e a893 7f3d 30b0 39bd
00000100: 1898 26be 98bf 40be 284e 6ebe 8e55 43be
00000110: 4eca 453e a8a9 393e 9a28 1ebe 283d 5d3d
00000120: 707e 47be c84b 103d a0f7 833d c03d 2d3c
00000130: c027 3f3d 8892 2dbe 78ff 79be acc8 abbd
00000140: 08bf febd e6b9 4ebe 186e ec3d 00c6 f6bb
00000150: 9a69 0e3e 54b7 9dbd 9ed7 64be b09a 85bd
00000160: b01a dbbc 48f4 00bd 74f7 c53d 1867 523d
00000170: 4a94 5dbe 809c 41bd 0066 60be c88a 043e
00000180: 9899 69bd a01e ca3d c26e 013e 4802 34be
00000190: 2019 113c 06d6 6fbe d839 5c3e 680c 1f3d
000001a0: dc22 223e 58d7 2e3d fad6 2c3e 469e 073e
000001b0: c0e5 063d 501a 79be 0ac3 41be f016 0cbe
000001c0: 1065 85bd 0ce5 debd 06b1 74be 9806 003d
000001d0: 0038 5c3c 1e79 373e 5cc0 483e 7458 d73d
000001e0: 1894 333d a8ac 78bd 501d 8b3d 84a1 e1bd
000001f0: 00be a93b dc84 f9bd e836 913d 40c6 20bd
00000200: 305f 97bd 184c 6cbd 3c6a 5d3e 80f9 c73c
00000210: 5415 883d 9ac1 75be 8060 a93d be77 3a3e
00000220: 0c3d 7abe f0d9 5cbd 0021 493c 407a a0bc
00000230: 0055 56bc 8059 033c 70c0 f63c 06a4 143e
00000240: b861 323e 4031 7a3e 9e28 113e e2a3 493e
00000250: 407e 463e 9020 443d 2e8d 5b3e c810 ba3d
00000260: a041 233c 3078 8cbd 2077 8fbc c0ac 7cbc
00000270: 74a2 36be 80df 13bb c8e4 573d 6c11 1f3e
00000280: 1cc7 81bd cc65 bbbd ec78 c0bd 687f 13bd
00000290: e4e2 173e 66a1 703e 8eda 68be 98d8 81bd
000002a0: 2233 6c3e 56c6 52be e0ea 6cbe e0a7 de3c
000002b0: 486b 99bd d84f 7c3d fa09 4b3e 287f e63d
000002c0: 5a61 01be b806 5dbd 5c15 2f3e c00c d13d
000002d0: e464 e23d 96ba 5b3e ca91 10be f635 69be
000002e0: 1041 cabd c01e 19bc 7411 e93d 7262 29be
000002f0: bcfd fdbd ccf7 1cbe 2c37 da3d 260f 463e
00000300: 2823 d4bd 3c46 75be f0dc 4fbd b02c ce3c
00000310: 4066 f9bd ac39 843d 002d cebb 26c1 7d3e
00000320: 10ae 9d3c d06a 23bd 80d6 243b e2d8 02be
00000330: 269a 3cbe 0484 1bbe 904f 12be b8cd 09bd
00000340: 22e4 5f3e 8c27 e1bd 9c82 0bbe a076 b83d
00000350: 6000 b63c 6cfc ff3d 189d e8bd 0ea6 573e
00000360: 1c59 41be 4e50 553e 0458 9a3d 283d 0cbe
00000370: a8e3 1a3d 00f9 173e 3ce7 e7bd 52ff 263e
00000380: ec2d 2ebe 00a6 233d 506c 943c ecc8 a1bd
00000390: 50b2 8d3c 74e7 0bbe 002a cf3d d487 5c3e
000003a0: 18ef 3c3e b067 febc c877 7abd 1af1 7a3e
000003b0: b26f 553e 5e2c 073e 70b5 0cbd 004d 363b
000003c0: 944e 84bd 6c09 6cbe 26f8 3c3e 40f0 973b
000003d0: 18f9 9d3d 60e8 54bd f05b e23d 20b5 583c
000003e0: 4817 6c3d 866d 3ebe 7c1c 73be 961c 6a3e
000003f0: a6c7 49be 1877 0fbe a8c2 aabd 70c9 46be

tokenTuringMachineUnit.transformerBlock.self_attn.out_proj.bias f4 [16]
0.0 0.0 0.0 0.0 0.0 0.0 0.0 0.0
0.0 0.0 0.0 0.0 0.0 0.0 0.0 0.0
00000000: 0000 0000 0000 0000 0000 0000 0000 0000
00000010: 0000 0000 0000 0000 0000 0000 0000 0000
00000020: 0000 0000 0000 0000 0000 0000 0000 0000
00000030: 0000 0000 0000 0000 0000 0000 0000 0000
