check_point/lapalce_noise_ttm_epoch_8.pth (torch, 973453 bytes, 72 tensors)

tokenTuringMachineUnit.tokenLearner1.norm.weight f4 [16]
00000000: a67d 7e3f 0b01 713f fc91 733f 2510 823f
00000010: 0018 803f 43e7 7a3f ddb3 753f fbf8 773f
00000020: 5b24 853f 71d8 823f 9c8e 843f fbe9 853f
00000030: b548 793f da16 813f d906 813f 6975 7c3f
0.99410474 0.94142216 0.9514463 1.0161177 1.0007324 0.9800913 0.95977575 0.9686429
1.040172 1.0222303 1.0356021 1.046203 0.9737657 1.0085099 1.0080215 0.98616654

tokenTuringMachineUnit.tokenLearner1.norm.bias f4 [16]
00000000: 7a06 40b5 9327 bdb4 d2fa 0eb6 d036 4437
00000010: e0fe 2936 f83c d9b5 dbe7 8836 b0fb f0b5
00000020: a1a5 22b5 3e88 8e36 5332 4336 3306 09b7
00000030: b41b 1fb4 c9cc d836 12cb 3336 d53e 5e36
-7.1535e-07 -3.5232787e-07 -2.1305646e-06 1.1695272e-05 2.533132e-06 -1.6185504e-06 4.0801074e-06 -1.7954644e-06
-6.0590725e-07 4.2477905e-06 2.9086557e-06 -8.16728e-06 -1.4818107e-07 6.4611418e-06 2.679128e-06 3.311715e-06

tokenTuringMachineUnit.tokenLearner1.attention_maps.0.weight f4 [16, 16, 1]
00000000: 9b35 833e a72c e33d 24cb 2ebe 0498 513e
00000010: 42ca 2ebe ab1f 1ebe fa83 f23c d682 d6bd
00000020: 1c55 2b3e 9f2a f6bd 458b bc3c 063e 953e
00000030: 6102 d5bd 2337 fb3d d2bf 96bd 521b d5bc
00000040: 0baf 8c3d 2808 573d 7d2e 33be f5d3 d83d
00000050: 35a9 3fbe 2f59 2ebd 7f19 1cbe 1b66 403e
00000060: db8f 9bbe 1d94 4a3e 347c 6f3e 718d 9238
00000070: 2eca 643e 2062 7a3e 213e b93d f02a 353e
00000080: dcfb 1dbe 7be4 1bbe de88 f3bc 53f7 b0bd
00000090: a708 223e 98bb 47be 78cf 25be 1237 2cbe
000000a0: 69c0 d03d 6194 f3bd 3f98 553e 63cc 3bbe
000000b0: 7f5b 8a3c 9ae1 72be 06be 2b3e f190 45be
000000c0: 4c4a 093e 34c1 5abd ec58 e1bd ee84 edbd
000000d0: ec27 10bb c14a 2f3e acc0 99bd 2834 6cbe
000000e0: ac0a 99bd c860 fdbd b3cb 7b3e 79d8 bb3d
000000f0: 72a7 57be 4f9a 583e 3f97 0d3d 4f68 ed3d
00000100: 4676 89bd 7236 9ebd 3065 3abe 046b 16be
00000110: 3095 54bd f70b e43c 98ee d8bd b0f8 d33d
00000120: 9d25 26be 6080 723e e874 c0bd e0c5 11be
00000130: 5cba 06be 2d4c cdbc 5b72 10be 8a0a 3f3e
00000140: f8e1 f7bc 1c8c 3ebc 81b0 513e 3f03 84be
00000150: 7a74 3a3e c3d9 d7bd cf42 63be 0f02 803d
00000160: 1546 61bc 802c 68be 03c1 7e3d 50e6 803e
00000170: 3e51 193e d71f f2bb 8813 f8bd e8d0 b8bd
00000180: 092b 5bbe 346e 793d 8c1b fd3d 5754 d5bd
00000190: 9895 ac3d d23c 0cbd b636 11be 59fd 7bbd
000001a0: 5a49 88be 70ab 633e bc54 343e 26a5 45bd
000001b0: be42 c4bd aff2 543e 15a8 683e 4b36 653e
000001c0: 4c7b 493e ba10 0cbd 051c b73d fd57 5ebe
000001d0: 9831 a7bd 38be c03d 5048 92bd eaf5 11bd
000001e0: bdff d4bd fdea a2bd eddb 6b3e 48f2 06bd
000001f0: 31b3 613e c567 6c3d ee56 0a3e f32a 05be
00000200: 3a1b b63d 7635 46be a160 483e 5938 b3bc
00000210: a378 09be 74b4 813e c30c 44bc e6bd 8bbd
00000220: 0b75 b4bd d671 193e 867c f83c 9706 3c3e
00000230: 695f 6c3e e4a2 0d3d 5316 1abe e96e 4e3e
00000240: 78e1 ee3d 19fb 75bd 5c54 6cbe 4591 27be
00000250: cead 05be 7b0e 7d3e 2863 43bd 2e5b df3d
00000260: b296 d9bd 7818 5f3d b291 01be 6431 08be
00000270: bf03 dc3d 00a3 203d e9b7 32bc ce0f 383e
00000280: f3de 9a3c e3f6 363e c9ed 50bc 1d3e 63be
00000290: d88f 82be e603 3a3e c109 5a3d 6d0c 2abd
000002a0: 9d4b d9bd d500 443e 560f 3b3e 62be e63d
000002b0: f567 7a3d 8f83 03be 3672 edbd d4c0 c1bd
000002c0: 4671 2f3d 49aa 3d3e bed7 c43d 32d4 373e
000002d0: e2a8 6f3e d62e 1f3d f214 6ebe 6c20 2e3e
000002e0: ff72 823e f90f 513e 6e63 18be e820 84bc
000002f0: 49f9 15be 294a cebd f9f6 2dbe c5f3 06be
00000300: b036 18be 3c85 4a3e 5325 87be 79c0 7a3e
00000310: c7da eb3c 4f0a 7b3d 78dc 383e 8a88 d2bd
00000320: 6fa0 963e 8c74 133b 25c8 5ebd 5aec 60bd
00000330: 09e3 43bd dfeb 18be cdfa 5dbe 3654 46bd
00000340: 175d 41bd 0a27 babd 06d9 473e 63c1 623e
00000350: 5583 bebd 14a0 033e b2ab 2cbe f0d4 5cbe
00000360: 3894 e63d 5142 633d 2c07 a1bd b55a 70be
00000370: 8ef7 57be 5d41 1c3e 4b4c da3c a188 03be
00000380: 4607 363e d5ad abbd 1863 8dbd b807 7b3e
00000390: b37f 21be 6577 05be 9d22 943d 718a e2bd
000003a0: d5e6 43bd 62de 6c3e 8490 83be 6a54 2dbe
000003b0: 2952 c53d 5824 553d a1b1 88be d0b3 023e
000003c0: 5d1d 69be 8e2a 843c 36f1 bc3b 356a be3c
000003d0: 205a 843d 39d5 03bd 1dcd d2bd 6940 583e
000003e0: 49a2 763b 6b70 673e a7b2 20be 1c46 30bc
000003f0: d72c 4fbe 5f84 1abe eca0 003e 0f30 28be
0.25626835 0.11092501 -0.1706968 0.20468146 -0.17069343 -0.15441768 0.029603947 -0.10474174
0.16731685 -0.12019848 0.023015628 0.29148883 -0.10400844 0.12266376 -0.073608056 -0.026014004
0.06869324 0.052498013 -0.17498203 0.105873026 -0.18716891 -0.04256552 -0.15244101 0.1878895
-0.3038319 0.19783063 0.23387223 6.988168e-05 0.2234275 0.24451494 0.09045053 0.1769216
-0.15428108 -0.15223877 -0.02972835 -0.08640923 0.15823613 -0.19505155 -0.16192424 -0.16817883
0.10192949 -0.118935354 0.20858859 -0.18339686 0.016889332 -0.23718873 0.16771707 -0.19293572
0.13407248 -0.05340691 -0.110032886 -0.1159762 -0.0021996452 0.1711836 -0.07507452 -0.23066771
-0.074727386 -0.12371975 0.24589424 0.09172148 -0.21059969 0.21152614 0.034568068 0.11592161
-0.06712012 -0.07725228 -0.18202662 -0.1468926 -0.05190009 0.027837737 -0.10592383 0.10350168
-0.16225286 0.23681784 -0.09397298 -0.1423564 -0.13157028 -0.025060738 -0.14106123 0.18656364
-0.030259117 -0.011630084 0.20477487 -0.25783727 0.18208495 -0.105395816 -0.22193454 0.06250393
-0.013749619 -0.22673225 0.06219579 0.25175714 0.14972398 -0.0073890495 -0.121131 -0.09024221
-0.21403135 0.060896114 0.1235877 -0.10416477 0.0842697 -0.03423769 -0.14181027 -0.061520908
-0.26618463 0.22233367 0.17610449 -0.0482532 -0.095830426 0.20795701 0.22720368 0.22383992
0.1967594 -0.03419564 0.08940891 -0.21713252 -0.08163756 0.09411281 -0.07142699 -0.035634913
-0.10400341 -0.07954977 0.23033114 -0.0329459 0.22041012 0.05771615 0.13509724 -0.13004665
0.08891912 -0.19356331 0.19568111 -0.021877455 -0.13424926 0.25332987 -0.011965933 -0.0682333
-0.08811387 0.14984831 0.030332815 0.18361889 0.23083271 0.034579173 -0.15047579 0.20159496
0.116640985 -0.06005392 -0.23079056 -0.1636401 -0.13054582 0.24712555 -0.047701985 0.10906063
-0.10624446 0.054466695 -0.12653235 -0.13300091 0.10742902 0.03921795 -0.010908105 0.17974779
0.018905139 0.17867617 -0.012752005 -0.22191663 -0.2550037 0.1816555 0.05323196 -0.041515756
-0.10610125 0.19140942 0.18267569 0.112667814 0.061134297 -0.12843154 -0.1159405 -0.09460607
0.042832635 0.1852199 0.09611462 0.1795204 0.23404267 0.038863026 -0.23250178 0.17004555
0.2547836 0.2041625 -0.1488168 -0.016128972 -0.14645876 -0.10072739 -0.16988744 -0.13178928
-0.14864612 0.19777387 -0.26395664 0.24487485 0.028790845 0.061289128 0.18052852 -0.10279949
0.29419276 0.0022499887 -0.05439009 -0.054912902 -0.04782394 -0.14933728 -0.21677704 -0.048420154
-0.047207918 -0.09089477 0.19516382 0.22144084 -0.09302393 0.12854034 -0.16862372 -0.21565604
0.11258739 0.055483166 -0.07862696 -0.23472102 -0.21090528 0.15259309 0.026647707 -0.12845089
0.17776212 -0.08382765 -0.06903666 0.24514663 -0.1577137 -0.13033827 0.072331645 -0.11061562
-0.04782756 0.23131707 -0.25696194 -0.16926733 0.096348114 0.052036613 -0.2669802 0.12763906
-0.22765107 0.016133573 0.0057660593 0.023244003 0.064625025 -0.032185767 -0.102930285 0.2111832
0.003763335 0.22601478 -0.1569315 -0.010758903 -0.20231949 -0.15089558 0.12561387 -0.16424583

tokenTuringMachineUnit.tokenLearner1.attention_maps.1.weight f4 [8, 16, 1]
00000000: 03cd 643e 0225 143e 102a 143c b547 24be
00000010: ac9f b73d c614 673e 003d 87bd dc10 413e
00000020: cff3 62be 9b27 93bd 6f4e 363e 956d 94bd
00000030: 776f f83b e547 e33d a019 e93d 0812 8dbd
00000040: 54f6 0cbe d76b db3d 5d83 6cbe fb70 953d
00000050: 44fa 373e 77f1 4a3e 3fc7 bbbc 3850 823d
00000060: 9c6d 06be a894 42be 9b36 6a3d 1701 97be
00000070: baf8 11be b22b 7dbe 9a98 52be abda 6cbd
00000080: 0ba2 a23d ca75 e53c d785 5b3d bff2 27be
00000090: ead9 1b3e dd8b 2cbe bcc6 303e d536 213d
000000a0: d889 54be fad3 d33b 871b 653e b686 213d
000000b0: 6abe 5cbe f000 303e aa59 e8bd 284b 7d3d
000000c0: dd96 833e 5ee2 ad3c 6b53 18be e02c 933e
000000d0: f2d2 dfbc c74d 7b3e ace7 4e3d 84e6 c53d
000000e0: c615 42bd 8c6d b1bd a0d3 e7bd d92c e83d
000000f0: 1e29 cebd 725f 08be 8ac6 8f3d 40ec 0e3e
00000100: d2d1 543e 5cdc 7d3d 4463 d4bd 8eb3 9bbb
00000110: a6b2 9fbc 284f cebd b41b b4bd 45e0 3a3d
00000120: fbd5 b73d d0bc 573e 8573 1c3e 4e52 fcbd
00000130: 131b 28bd 2f25 62be 7c2a 803d f625 e7bd
00000140: 62b0 dfbd 396a a33d 976b 323e ba93 f5bd
00000150: af19 343e 1073 bcbd 9e0d 5c3e 1a70 7c3d
00000160: 6663 67bc 7105 acbd 715e 1a3e 0f66 5e3c
00000170: 6bc3 003e d1b2 cd3c 269b b13d e491 84be
00000180: 2485 5c3e 513b 423e 2901 8d3d 93c3 463e
00000190: d4af a03d fe39 d6bd 3978 f13d db4f 723e
000001a0: 3e4d 383e dff6 2e39 afc7 303e 790b d33d
000001b0: 1ba9 87be aee5 27be c077 6dbe 0566 463e
000001c0: fcc7 4a3e a623 a8bc 069c 2e3e b12b 673e
000001d0: b002 71be 1d83 13bc a96c 243e c5da eebd
000001e0: c31a 35be 80fd 583e 6e29 62be 39d4 36be
000001f0: 5347 e9bd 9e9d 9abd 6d08 93bd 8576 163c
0.22343831 0.14467242 0.009043232 -0.16042979 0.08966002 0.22566518 -0.06603432 0.18854088
-0.22163318 -0.071852885 0.17803358 -0.072474636 0.007581647 0.11097697 0.11381841 -0.06888205
-0.13765842 0.10713928 -0.23096986 0.0729694 0.17966563 0.19818674 -0.022922156 0.06362957
-0.1312775 -0.1900202 0.057180982 -0.2949302 -0.14255038 -0.247237 -0.20566025 -0.057825726
0.079410635 0.028010268 0.053594436 -0.16401194 0.15219846 -0.16850229 0.17263311 0.039358933
-0.20755708 0.0064644786 0.22373782 0.03943511 -0.21557012 0.17187858 -0.11345227 0.061839253
0.25701037 0.021226104 -0.14875571 0.28745174 -0.027322266 0.24541388 0.05051391 0.09663108
-0.047384046 -0.086634725 -0.11319661 0.11336679 -0.10066436 -0.1331766 0.0702029 0.1395731
0.20783165 0.06197773 -0.10370496 -0.004751629 -0.019494366 -0.100736916 -0.087943465 0.045624036
0.089763604 0.2106812 0.15278442 -0.12320386 -0.041041445 -0.22084497 0.06258103 -0.11286537
-0.10922314 0.07979245 0.17423855 -0.11991067 0.17587923 -0.09201634 0.2148957 0.061630346
-0.0141228195 -0.08399475 0.15075089 0.013574137 0.12574546 0.02510968 0.0867217 -0.25892556
0.21535164 0.1896794 0.06884987 0.19410543 0.078460366 -0.1046028 0.11790509 0.23663275
0.17998216 0.000166859 0.17263673 0.103049226 -0.26496205 -0.1639621 -0.23190212 0.19374855
0.1980285 -0.020524811 0.17051706 0.2257526 -0.23536181 -0.009003428 0.16057076 -0.11662821
-0.1768599 0.21190453 -0.22086117 -0.17854394 -0.11390557 -0.07549594 -0.071793415 0.009183531

tokenTuringMachineUnit.tokenLearner1.feat_conv.weight f4 [16, 16, 1]
00000000: 8dc5 46bd 1e00 aa3d 4aa1 333d 5a23 7f3e
00000010: be38 70bd ec06 553d 7a58 79be 9c08 59be
00000020: c8c5 33ba afb1 d03d 1829 e4bd e7c1 fbbd
00000030: c5d2 793d 11aa 883d d371 053d 3248 d0bd
00000040: 6354 12be e588 1cbe b300 3f3e 8e06 1b3e
00000050: bc36 69be ddb8 d6bd 562c a2bb 6fbe 5b3e
00000060: 7acf 63be 2a08 723d 39cf eb3d 64e1 0c3d
00000070: 080f 203e 3ba2 0cbe 8491 683e 232e 413d
00000080: cc1b 3d3e 4f58 03be 07e4 9bbd c22c 2abe
00000090: edd6 70be 1119 43be 6531 abb9 f397 e23d
000000a0: df62 4cbe 224a 3dbe ee32 17be 1ec1 fc3d
000000b0: 21e4 3b3e 9c99 bfbd 70b6 d73b 7d19 56be
000000c0: a424 cabd 7da4 fe3d 0678 60bd ca50 d13d
000000d0: 75cc 0d3e 46e2 babd 26cb 7fbe c604 493e
000000e0: 4b7f 593e 7271 ffbc 2893 4ebd 636e 25be
000000f0: 87e0 92bd e851 08bd 8908 5b3e 66aa 4bbe
00000100: bdb7 94bd d852 27bd fb04 7e3e 1726 4bbe
00000110: 3f35 603e 5805 45bd 1667 893d e7f1 f2bd
00000120: b6dc 7e3d 8b57 8ebd 0f6f 08be 3357 5ebd
00000130: 7c2a 633e 5d5b 693e 9723 6e3e 9744 ff3d
00000140: 73ab 41bd e16f 473e 860a 35be 8af5 7a3e
00000150: 3ad6 6fbe 7e5c 5ebe 8733 8d3d aece 433e
00000160: 81eb 63be 2a33 113e 90c9 1e3d 50ed 613c
00000170: 47ac ed3b a0f8 b5bd 3852 133e 2e65 053e
00000180: e55f 5fbe 32c9 28be 1032 7c3e 920a 03be
00000190: 9aee 47be 8760 4ebc ee8a 513d 9f48 2f3e
000001a0: 4200 8bbe f54e 90bd 63a5 ac3d 453d 19bd
000001b0: 9b48 a1bd 58f3 2cbc 933b 01be d81f 143e
000001c0: 732f 873d 320a 073e c35e c63c 99b8 69be
000001d0: 16e4 f73d f0c7 3e3e 2c5b 34be 5cf4 853e
000001e0: bfeb 76be e1af 0b3d 5b23 aa3d a668 1ebe
000001f0: 89b6 43be 96cc 63bd 243c 7c3e bfdf 00be
00000200: 07af e53a d331 29bd 7922 373c 7246 5abe
00000210: 86ad 97bd 7834 e8bc fe3b 33be fb61 863e
00000220: 7685 16be c514 27be 9e4c 743d dc97 053e
00000230: 5743 2fbe b5fe ecbd 1170 a63d 8921 f2bd
00000240: 44d1 fc3c 2125 4a3e 8792 dd3d 7bc5 3bbe
00000250: 4171 a23d 0b64 43bd 95d2 dbbc 634b 11be
00000260: 665a 8e3a 00e3 d03c 791a 413e 8b4d 453c
00000270: 3b2b 5cbd 59ae 183e 56ff e43d f666 0d3e
00000280: 2888 293c be83 fc3c 88eb cfbd 6936 78be
00000290: a8ae 003e b537 083c ca18 cabd 315f 2f3e
000002a0: f613 80bd fca8 d6bd a2e1 24be f509 a7bd
000002b0: cc2e 6e3e 8959 823e 40fc 0cbe afc1 873e
000002c0: 60a8 febd 3812 65be 0702 1fbe 446b 9f3d
000002d0: 726f 0cbe 3af2 aa3d 593d f73d 9578 1e3e
000002e0: b856 a43d c07a b73d 1a2c 5dbe f5ea 88be
000002f0: d9a1 aa3d 191f 77be 7590 45bd 76df d83d
00000300: 4bf9 2a3e e557 7bbd bdca 353e 24f4 5d3d
00000310: fd57 2e3e ccee cdbd 3142 2f3e 449e b6bd
00000320: 0f3d 983d ac69 143c c2ea 963d 55db 813d
00000330: 1793 2f3e 95a1 33be b026 0dbe 97e4 24be
00000340: f54d 32be 01fd 6fbe 57bb 31bd 4db8 19be
00000350: b440 d0bd cac0 5fbd 4f55 c13d d966 47be
00000360: 4934 25be 8ea9 98bd f999 81be ac0f 29bd
00000370: 4026 6abe edb0 6d3d da3b 803b 9533 d6bd
00000380: e970 93be 831f ddbd dd3f 553e 21cc 07bc
00000390: e7fa eb3d 3e12 30bd d849 3b3e 01d8 253c
000003a0: 3757 a2bc bfe4 6e3e bad0 6cbe e178 3fbe
000003b0: 6ec5 42bc ad00 dfbd 7514 6bbe 1947 2c3e
000003c0: 4c04 bbbd fe8b bfbb 3a3f 62be cccf 2d3e
000003d0: 56c7 3bbe 87ab 283e 85f1 0e3e 7ffc 0c3e
000003e0: 69de 6fbe 5a4e 6f3d 840f a2bc be40 b23d
000003f0: f641 653e 69e1 5ebe 1ca0 54bc 3e17 37be
-0.048528243 0.083008036 0.04385499 0.2491583 -0.058647864 0.052008554 -0.24350157 -0.2119469
-0.000685778 0.101901405 -0.111406505 -0.12292843 0.06099202 0.066730626 0.032579254 -0.1017002
-0.14290003 -0.15286596 0.1865261 0.15139219 -0.22774786 -0.104844786 -0.004949133 0.21459363
-0.22247115 0.059089817 0.11514134 0.034394637 0.15630734 -0.13733761 0.2271176 0.04716314
0.18467635 -0.12826656 -0.07611852 -0.16618636 -0.23519488 -0.19052531 -0.00032652463 0.11064138
-0.19959591 -0.1848531 -0.14765522 0.12341522 0.18348743 -0.093554705 0.0065830275 -0.2090816
-0.0987027 0.124337174 -0.054801963 0.102204874 0.13847525 -0.091251895 -0.24979839 0.19630727
0.21239965 -0.031182025 -0.050433308 -0.1615539 -0.071717314 -0.033281237 0.21389975 -0.1988922
-0.07261608 -0.04085049 0.24806587 -0.19838749 0.21895312 -0.0481008 0.06709115 -0.118625455
0.062222205 -0.06950291 -0.13323615 -0.05428238 0.22184175 0.22788759 0.23255764 0.12464254
-0.047282647 0.19476272 -0.17679796 0.24507728 -0.23421565 -0.2171497 0.06894594 0.19121811
-0.22257806 0.14179674 0.038766444 0.01378949 0.007253203 -0.08885312 0.14386833 0.13026878
-0.21813925 -0.16483 0.24628472 -0.12797001 -0.19524613 -0.012596256 0.051157884 0.17117546
-0.27148634 -0.0704631 0.084299825 -0.037411947 -0.078751765 -0.010556065 -0.12620382 0.14465272
0.06600847 0.13187483 0.024215108 -0.22824325 0.12104051 0.18630958 -0.17612904 0.26162994
-0.24113367 0.034103278 0.08307525 -0.15469608 -0.191126 -0.05561503 0.24632317 -0.12585352
0.0017523476 -0.04130728 0.0111776525 -0.21315935 -0.07406144 -0.028345332 -0.17503354 0.26246628
-0.14699349 -0.16316517 0.05964338 0.13046211 -0.17115532 -0.11572019 0.08126844 -0.118228026
0.030861504 0.19740726 0.108189635 -0.18337052 0.07931758 -0.04770283 -0.026833812 -0.14188914
0.0010860681 0.025498867 0.18857755 0.0120424135 -0.053752165 0.14910258 0.11181514 0.13808808
0.010347404 0.030824538 -0.10152346 -0.24239506 0.12566626 0.008314063 -0.098680094 0.17126156
-0.06253807 -0.1048145 -0.16101697 -0.08156196 0.23260039 0.25458935 -0.137681 0.26514956
-0.12434459 -0.22370231 -0.15528117 0.07784131 -0.13714388 0.08346982 0.12072248 0.15475686
0.08024353 0.089589596 -0.21598855 -0.26741758 0.08331651 -0.24132957 -0.048233468 0.10589497
0.1669666 -0.06136312 0.1775312 0.05418791 0.17025752 -0.100553125 0.17115094 -0.089169055
0.07433521 0.009058397 0.07368995 0.063406624 0.17145954 -0.17542107 -0.1378429 -0.16102825
-0.17412551 -0.23436357 -0.04339155 -0.15011711 -0.10168591 -0.054627217 0.094400994 -0.19472827
-0.16133226 -0.07454215 -0.25312784 -0.04127471 -0.22866154 0.058030058 0.003913385 -0.10459057
-0.2879708 -0.10797026 0.20825143 -0.008288414 0.11522465 -0.042986147 0.18289888 0.0101223
-0.019816978 0.23329447 -0.23126498 -0.18698455 -0.011887891 -0.10888801 -0.22957022 0.16823997
-0.09131679 -0.005845546 -0.22094432 0.169738 -0.1833776 0.16471682 0.1395932 0.13768195
-0.23424686 0.05842433 -0.019782789 0.08703755 0.22388443 -0.21765675 -0.012977626 -0.1787996

tokenTuringMachineUnit.tokenLearner2.norm.weight f4 [16]
00000000: 3de0 713f 00f7 713f dc8d 7c3f 91e2 773f
00000010: 7104 723f dcc0 6d3f f8bb 713f dad3 713f
00000020: e7c0 6b3f 477d 7d3f 6c05 773f ea9b 783f
00000030: 6d0d 793f 3cd5 723f e631 743f 94b2 713f
0.94482785 0.9451752 0.9865396 0.9683009 0.9453803 0.92872405 0.9442744 0.94463885
0.9209122 0.99019283 0.9649265 0.97112906 0.9728611 0.9485662 0.9538864 0.94413114

tokenTuringMachineUnit.tokenLearner2.norm.bias f4 [16]
00000000: db70 72b7 99e2 c0b6 7611 03b3 eea1 3db7
00000010: 508b 46b6 c35f ce36 454b 55b6 f6c0 5b36
00000020: 95d7 83b5 4747 0e38 e506 0537 6c12 6cb7
00000030: ba7f ef35 5e80 27b5 3a4b b537 cb84 8736
-1.44506e-05 -5.7484253e-06 -3.0516695e-08 -1.130298e-05 -2.958539e-06 6.1504265e-06 -3.1783286e-06 3.274586e-06
-9.823003e-07 3.392182e-05 7.929023e-06 -1.4070985e-05 1.7844061e-06 -6.2399147e-07 2.1611912e-05 4.0387727e-06

tokenTuringMachineUnit.tokenLearner2.attention_maps.0.weight f4 [16, 16, 1]
00000000: 8858 e93d 78c0 963d a475 223e 7e21 823e
00000010: 98db 0abe 8048 5dbe 8125 cc3d dd91 7e3d
00000020: deee bc3b 7d0a 4dbe 45d1 82ba 7a6c ff3c
00000030: 5295 ecbd 5f89 3bbe b83c 34be 77f6 3ebe
00000040: d5d6 f4bd fd64 df3d d8da 25bd 907a 303d
00000050: 4d91 243e 03d2 3bbe 4f4d 133e 3e4f 81bd
00000060: 80be f9bc d456 0f3e e281 42be c6f6 0ebd
00000070: 6803 21bd f9da 84bd 079b 81bd c649 e13d
00000080: 3965 803e b419 833e dabe febd f3d1 c6bd
00000090: 14f5 dcbd eeb5 58be 909e bbbc e3b3 c9bd
000000a0: 2ed1 3dbe f030 433e 1260 c93d ab9e 2dbe
000000b0: a993 b33d 03dd fb3d e21a 803e c255 57be
000000c0: 646d aebd 2cf6 8b3d 4822 603e 3752 debd
000000d0: d526 4a3e fc92 593e e5ab 1abc 549e b6bd
000000e0: b38f cfbc b6c3 37bd 0816 a23b 9cc3 22be
000000f0: f95c b23d 8114 f8bd e3f7 0bbe b29e 783e
00000100: 15e4 9fbb fb84 ba3c 7ade 8abd 7dba b7bd
00000110: f5de 69be 5018 993d b072 fc3c 2826 33be
00000120: 9ca9 a53c fc05 533e e3f0 483e f181 7c3e
00000130: a668 46be f43a b7bd 6b01 3fbe 5502 613d
00000140: b904 d0bd dc1c 6cbe 7c3b 673d b375 123e
00000150: 18ba 87bd 903a 223d 0fcf 033d 28c1 f23d
00000160: 9813 3a3e 5a54 b0ba ac56 edbd b102 5fbe
00000170: 4871 b9bd 8aac ce3c c820 c2bc bf06 673e
00000180: 6d11 ab3d c12a e7bd 613a 72be c86e 3abe
00000190: b1ac b4bc eef9 653d ba39 283e dba5 22be
000001a0: d2e4 54bd 60bd 1f3e ee1a 12bd 5a54 98bd
000001b0: c4f6 54bd 4a6b f1bd c2ba 2c3e 29fa 043e
000001c0: 4d1e 813d f746 67bd ba52 663e 8342 7dbd
000001d0: d4cb 3dbe e3d5 e7bc cf23 b33d 5c35 3eba
000001e0: e5c7 f23c a584 963c 577e fe3d 2b0e 3c3d
000001f0: 7e17 65bd 66d2 453e 3611 da3d aeea 103e
00000200: d8e8 11be 3421 3b3e 254d 2bbe dfbe 6e3e
00000210: 891e 68be 4ed6 8f3d 79cd 0abd 9ddd 06be
00000220: 7246 61be d980 6ebe 33cc f4bd 99c0 053e
00000230: 1c3c 6fbe bf77 61bc 3a76 673d 3991 8abd
00000240: 171c 3d3c 7f1b 543e e4f4 31be dada 3f3e
00000250: 8183 2a3e 4f5d 093e adf2 173e d4c2 09be
00000260: d117 1a3d 818b 193d f653 71be 5067 4ebe
00000270: d8e8 643e c3a0 593d 9913 5abd 9863 0e3e
00000280: 9b35 cfbd c500 f4bc d42a c93d e961 563e
00000290: 9f3e f93d c260 9f3c 2434 cd3d becd 0b3e
000002a0: 80e6 0cbe 78bb 0bbe 2f92 20be a7df d23d
000002b0: 382d e9bd eb81 52be 9777 5abe f916 d73d
000002c0: 2f69 d8bd 1a12 fc3d 1eb7 523e d94b 3ebe
000002d0: fa84 a0bd ba7f 35be 1585 d0bd c8fe 48bd
000002e0: 7a5c 82bd d002 bdbd 6fcd c0bd e5b6 403e
000002f0: b787 f53d f080 8fbb bc8b 0cbd 5d71 f63d
00000300: 0189 b2bd 4d60 a53d e6b3 6d3e 5bd6 8b3c
00000310: c569 cd3d 77c1 a5bc bf6f 3e3e 1589 dfbd
00000320: 9645 9c3d b101 7ebd 154a 583e c566 4f3d
00000330: 5545 84be 331a f83d fdaf bebd 8e93 f83c
00000340: 07bd 3d3e 4fc6 123e 213d 0b3e 5500 6b3d
00000350: 1bb9 2e3e 7fa3 623d 2cde 2fbe 8b5f c4ba
00000360: 7888 1d3e 56e0 4dbe ce2f f2bd 3000 14be
00000370: 0e3a 43bd 9a45 2f3e 0de8 073e 167e 063e
00000380: 3d50 8ebd d02d c33d e0f7 5b3d 5f6b 55be
00000390: 298a 3d3e af7a 49be 36f3 3f3d 364c 3cbe
000003a0: cf93 1e3e 5e5d afbd daab f6bc 5eb5 213e
000003b0: 6e02 5ebe c9e7 00be 0474 36be e0c2 d7bb
000003c0: 239c 1bbe 84d5 3e3e b216 0cbe 1993 d23d
000003d0: 5d2c 1e3e 8c92 7f3d 2fe0 7dbd 406a 59be
000003e0: af8a 963d a885 c23c 8f1c 683e 3cbe 72bd
000003f0: 874c a3bd f81b 813e b0d7 babd 9f5e 783d
0.11393839 0.07360929 0.15865189 0.25416178 -0.13560331 -0.21609688 0.09968091 0.062150825
0.00576578 -0.20023532 -0.000998058 0.031179655 -0.11551918 -0.18314122 -0.17601287 -0.18648706
-0.119550385 0.10907934 -0.04049191 0.043085635 0.16071053 -0.18341832 0.1438496 -0.063139424
-0.030486345 0.13997966 -0.18994859 -0.03490331 -0.03930989 -0.06487078 -0.06328397 0.11000399
0.25077227 0.25605547 -0.12438746 -0.097080134 -0.107889324 -0.2116315 -0.022902757 -0.09848764
-0.18536827 0.19061637 0.09832777 -0.16955058 0.08768398 0.12298014 0.2502051 -0.21028808
-0.08516958 0.06834063 0.21888077 -0.10855525 0.19741376 0.21247476 -0.009440397 -0.089169174
-0.025337076 -0.04486438 0.004946474 -0.15894932 0.087091394 -0.12113286 -0.1366878 0.24279287
-0.0048794844 0.022768488 -0.06780715 -0.08971117 -0.22838958 0.0747534 0.030816406 -0.17495024
0.020222478 0.20607752 0.19623141 0.24658944 -0.19375858 -0.08946791 -0.18652885 0.054933865
-0.10157151 -0.23057884 0.056453213 0.14302711 -0.066272914 0.03960663 0.03217989 0.11853248
0.18171537 -0.0013452873 -0.11588797 -0.2177837 -0.0905481 0.025228757 -0.023697272 0.22561167
0.08352933 -0.112874515 -0.23655082 -0.18206322 -0.022055002 0.056146555 0.16428271 -0.15883581
-0.051976033 0.15599585 -0.035670213 -0.07437964 -0.051993147 -0.11788042 0.16868117 0.12986054
0.063046075 -0.05646416 0.22492495 -0.06183101 -0.18534786 -0.028300231 0.08747064 -0.0007255876
0.029636333 0.018373797 0.12426441 0.04591195 -0.055930607 0.19318542 0.10647814 0.14152023
-0.14248979 0.18274385 -0.16728647 0.23314999 -0.22667898 0.07023297 -0.03388736 -0.13170476
-0.21999529 -0.23291339 -0.119530104 0.13061751 -0.23362774 -0.01376146 0.056509234 -0.0676598
0.011542342 0.20713614 -0.17378575 0.18735829 0.16651727 0.134145 0.14838667 -0.13453227
0.03762037 0.037486557 -0.23567185 -0.20156598 0.22354448 0.05313183 -0.053241346 0.1390518
-0.10117646 -0.029785523 0.09822622 0.20935787 0.12170147 0.019455317 0.10019711 0.13652703
-0.13759804 -0.13645732 -0.15680765 0.102965645 -0.11385578 -0.20557372 -0.21334682 0.105024286
-0.10566937 0.1230814 0.20577666 -0.18583621 -0.07837863 -0.17724505 -0.101816334 -0.049071103
-0.06365295 -0.09229052 -0.09414183 0.18819769 0.11988776 -0.004379384 -0.03431295 0.12033341
-0.08717538 0.080750085 0.23213157 0.017069986 0.100299396 -0.020233853 0.18597315 -0.10914818
0.0763046 -0.06201333 0.2112201 0.050635118 -0.25834146 0.12114372 -0.09310911 0.030343797
0.1852914 0.14333461 0.13597538 0.057373364 0.170628 0.055331703 -0.17174596 -0.0014982087
0.1538409 -0.20105109 -0.11825524 -0.14453197 -0.047662787 0.17116395 0.13272114 0.13134035
-0.06948898 0.095302224 0.05370319 -0.2084174 0.18509735 -0.19675706 0.046862803 -0.18388447
0.15486072 -0.0856273 -0.030111242 0.15791842 -0.21680614 -0.12588419 -0.17817694 -0.00658451
-0.1519628 0.18636137 -0.13680533 0.10281963 0.15446611 0.062395617 -0.061981376 -0.21231937
0.073506705 0.023745373 0.22667144 -0.059263453 -0.07973581 0.2521665 -0.091231704 0.060637113

tokenTuringMachineUnit.tokenLearner2.attention_maps.1.weight f4 [128, 16, 1]
00000000: b51e 15be 6f8d 333d 2887 ba3d d88e 24be
00000010: 3c51 d8bd abce 77bd 7205 973d e146 6dba
00000020: 273b 94bd 153e bcbb 5f07 02be 48e1 103e
00000030: 608f eabd f7d3 3dbd 8d6d 9c3d 6701 40bc
00000040: 21c6 33be bfe5 32bb 1509 01be 8446 bc3d
00000050: 3580 51bd e055 bf3c 5348 07bd 1608 d93b
00000060: b231 2d3e b227 003d d76d 05be 43d3 bebd
00000070: 10a3 a7bb dcfc 803d b9e6 363e 2d1b cfbd
00000080: cb0a c0bd 07a4 4fbe d2fb 323e c69d 44bd
00000090: 7c72 31be 0de3 32be 5afd c73d 90f4 453d
000000a0: 0a24 343e 7121 ebbc 80b6 5fbd 75c7 053e
000000b0: a411 16bd d7af d6bc 2f5c 993c 23fb 0c3a
000000c0: 8a02 4bbe 8837 f83c d37d 5dbd 5108 653d
000000d0: 42b5 e13d 04cd f1bd 95ec fc3c 3a3d 433a
000000e0: 5268 b4bd 9ddd 43be b917 fd3c 0d0e 513d
000000f0: 8546 6fbc a84a 16be c259 1bbe 15ea f4bc
00000100: 21b6 623e c864 b03c 4412 413e 65ed 133d
00000110: 19c3 a7bd f878 c53d bfb5 23be 6a75 d5ba
00000120: b8ca 4c3e 7a82 bfbc 29c3 a93d 629a ef3d
00000130: 2349 41b9 c0a4 eabd fb83 c13d c54c 00be
00000140: 97bc 84bd e818 49be 8229 6bbe 0cc9 333e
00000150: 79d1 0a3e 11ba 0cbb e751 afbc b0fe 1c3e
00000160: 5072 37be 1f4b f23d 2dde eb3d 184c f0ba
00000170: a592 8fbd 3e6a 223e 5827 61bd b3f6 3a3e
00000180: 39f3 f53d 05de debd 7601 2b3e 3bd7 b03d
00000190: 6fed 59bd 4125 623d 4d06 17bd 979e 353e
000001a0: 5d83 243c 6ff1 853b 2339 353e 181b 443e
000001b0: 6a5e 27be 8e4b e63d 48e4 9d3b 08f6 e8bd
000001c0: e535 f0bd ceed 403e 41e8 1a3e ff53 1d3e
000001d0: 55cb 3e3e a69d dabd 6157 2bbe 2617 4cbd
000001e0: dc8e 24be 52e4 1bbe b779 f2bd 70fe 603d
000001f0: 7200 93bd 11a7 c73c d231 5e3d 4f02 0ebe
00000200: 3ace d43d 8117 413e 07a6 0d3e dab4 0cbe
00000210: f44d 423e e224 22bd dd63 03be b2f2 103e
00000220: 6fe7 2dbe 74d2 afbd af10 14bd b2e3 d3bd
00000230: d02b 7f3d d7ee 82bb 398c d5bd 5f80 e83d
00000240: 88ae cabd f3af eebc caea 2abd 9cfb 14be
00000250: ee01 e93d b348 03bc edbf a83d 9b95 2e3e
00000260: c556 233e bc9e 1bbe 2062 aa3d d1dc c33d
00000270: 623e 253e 930b 033c 2de7 d83d 810e 12be
00000280: 80e3 16be 06b9 49bd c82d 55be 3c73 4dbe
00000290: fce7 063e d689 f5bc 8e52 b93d dc53 14be
000002a0: c7db d13d c9fc 60be 72d9 a3bd 188f 43be
000002b0: a759 8f3d 5763 6bbd 1cd7 9bbc e767 243d
000002c0: c0a0 18be bd56 093c c7f7 253e ceed e8bd
000002d0: e397 3c3d 105d bfbd 3a01 46be ef34 1f3d
000002e0: 4371 083e f2b4 31be f85e e23d 782f e8bc
000002f0: 67c2 cebd a4d6 233e 8466 0e3e 5f78 18be
00000300: 9ab1 763e f5d0 31be 034e 2ebe 9c52 343d
00000310: 61a8 e63d fa0e 063e c0b0 1e3e ccd1 56bd
00000320: 6b66 253e 88c8 0a3e 2dba e53d 475f 2cbe
00000330: e86d 4f3e 9ca7 e7bc c59a 66bd defe 0fbe
00000340: 79ef 48be 1c2f 953d 3ec9 d2bc b751 e7bd
00000350: a938 04be b8e0 da3d 54d4 23be cc1d ca3d
00000360: fc04 22bd 5f53 aa3d 6435 073e cb95 11be
00000370: 7628 debd 354e 66bc 9603 a03d 720b e8bd
00000380: ff80 203d 49e4 4e3d ab3c 35be adaf 3c3e
00000390: dadc 65be 0fd9 c63d ac37 23be 83de 703e
000003a0: 0670 313e 675d 45be 6dda e8bd 3d64 363d
000003b0: ae24 8abd 1f7b 573b 886b 3c3e 67e0 90bd
000003c0: d1eb 833b 049e 473e 04b8 51bd 0a28 46be
000003d0: c390 333e e7ff 42be 2bfc 2c3d 00c6 c03c
000003e0: 2d19 38be a323 72be 9c41 28be 0d25 fd3d
000003f0: 6c18 e53d 89de aa3d 86f7 383e c4b4 083d
-0.14562495 0.043836053 0.0910781 -0.16070116 -0.10562369 -0.06049983 0.073740855 -0.00090513943
-0.07237845 -0.0057447054 -0.12698124 0.14148438 -0.11453128 -0.046344724 0.07638083 -0.011719084
-0.17556049 -0.0027297584 -0.12601121 0.09193137 -0.05114766 0.023356378 -0.033027958 0.0066232784
0.16913489 0.031287856 -0.13030182 -0.09317639 -0.005115874 0.06298229 0.17861451 -0.10112605
-0.093770586 -0.20277415 0.17478874 -0.048002027 -0.17328829 -0.17469425 0.0976512 0.048328936
0.17591873 -0.02870247 -0.054617405 0.13064368 -0.036637917 -0.026206894 0.018720714 0.00053779985
-0.19825187 0.030299917 -0.054075073 0.055916134 0.110209 -0.11806682 0.03087453 0.0007447783
-0.0880896 -0.19127508 0.0308951 0.05103879 -0.0146042155 -0.14676917 -0.15170959 -0.029896775
0.22139789 0.021532431 0.18854624 0.03611507 -0.08191509 0.096422136 -0.159873 -0.0016285602
0.19999206 -0.023377646 0.08289177 0.11699368 -0.0001843316 -0.11457205 0.094490014 -0.12529285
-0.06481283 -0.19638407 -0.22965053 0.17557162 0.1355647 -0.002147321 -0.021401359 0.1533153
-0.179147 0.118307345 0.11516986 -0.0018333225 -0.07010392 0.1586084 -0.05496916 0.18258171
0.12009282 -0.108821906 0.16699776 0.08634802 -0.05320495 0.05521131 -0.036871243 0.17736278
0.010041085 0.004087619 0.17697577 0.1915096 -0.1634461 0.1124488 0.004818473 -0.11375052
-0.117290296 0.18840715 0.1512766 0.15364073 0.18632253 -0.106746 -0.16732551 -0.049826764
-0.16070122 -0.15223816 -0.118396215 0.05493015 -0.07177819 0.024371656 0.05424673 -0.13868068
0.10390897 0.18856622 0.13832866 -0.13740864 0.1897505 -0.039585955 -0.12831064 0.14155081
-0.16982816 -0.085850626 -0.036148723 -0.10346164 0.062297642 -0.003995757 -0.10427136 0.1135261
-0.098965704 -0.029136634 -0.04172782 -0.14549106 0.11377321 -0.008012938 0.08239732 0.17049257
0.15951069 -0.15197271 0.08319497 0.09563602 0.16137078 0.007998365 0.10590968 -0.14263345
-0.14735222 -0.049248718 -0.20818245 -0.2006349 0.13174433 -0.029972952 0.09048949 -0.14485115
0.10246997 -0.2197143 -0.08000459 -0.19097555 0.06999522 -0.057467785 -0.01902347 0.04013815
-0.14905071 0.008382496 0.16207801 -0.11373483 0.046043288 -0.09343922 -0.19336405 0.03886884
0.13324456 -0.17354181 0.1105327 -0.028342947 -0.10095673 0.15999848 0.13906294 -0.14889668
0.24091187 -0.17364867 -0.17021947 0.044024095 0.112625845 0.1309165 0.15497112 -0.05244617
0.1615235 0.13553059 0.11217151 -0.1683322 0.2025677 -0.028278165 -0.056299943 -0.14062068
-0.19622602 0.07284376 -0.025730725 -0.11294883 -0.12912239 0.10687393 -0.15998966 0.098689646
-0.039555535 0.08316683 0.1320396 -0.14217298 -0.10847561 -0.014056732 0.07813184 -0.11330308
0.03918552 0.05051068 -0.17698924 0.1842639 -0.2244753 0.097093694 -0.15939206 0.23522381
0.1732789 -0.19273911 -0.113697864 0.04452919 -0.06745277 0.0032879782 0.18400395 -0.07074051
0.0040259142 0.19493872 -0.05120088 -0.19351211 0.17535691 -0.19042931 0.042232674 0.023531914
-0.17978354 -0.23646407 -0.16431278 0.123605825 0.11186299 0.083432265 0.18063173 0.033375517

tokenTuringMachineUnit.tokenLearner2.feat_conv.weight f4 [16, 16, 1]
00000000: af7a 1abe 436c 73be 13c4 4c3d 2cf0 2fbd
00000010: 484b 58be a75d d33d 6059 7a3d c7be 8c3e
00000020: 32a5 77be 7ee2 79bd 1157 91bc 7868 18be
00000030: cc78 a93b 33a5 8a3e 46c3 613d edc0 bdbc
00000040: f233 3d3e cb98 ff3d 84f8 5ebe bf44 8b3d
00000050: 2579 4e3e fdc6 ae3d 5f4a c13d 42dd 303e
00000060: 4c8c b5bd f3ca b43d 8cee 5f3d abd5 733c
00000070: edf4 3cbb cd27 3cbe 1dcd 47be 7465 8d3d
00000080: a000 843e 754c d53d 1a22 19bd 430d 553e
00000090: e3ba 393e b974 2a3e 1cb7 5b3e b620 50bd
000000a0: 071f f8bd dbe3 49be bd48 7cbd 77d2 dcbd
000000b0: d502 023d 786c 37be eddb 5c3c 8daa 6e3e
000000c0: 2ae4 e43d 23d2 50bd bac0 80be 0218 1a3e
000000d0: d3d9 283e 4cd6 1bbe 2066 b2bd 75f7 87be
000000e0: c3ce 813e 3ded 54bd b0b0 043d 3843 1bbe
000000f0: 781b 853d 837a 0cbe d31c 293d f431 b03d
00000100: d64b 2d3e e413 c7bd 1aee b93d 1790 313e
00000110: 8d7a 10bd 7866 ab3b 5543 e93c 530b 523d
00000120: 87f9 3b3d 0e56 2b3d 4d7e 803e 6ab5 2cbe
00000130: 205c 203e 851c 50be 486f af3c d62d f33d
00000140: 30a2 4a3e 62ad 713e 47e8 07be ad6d 88bd
00000150: 8edc 6b3e f4da 01bd f66d dcbd 1c6c a5bc
00000160: 1cbc 5a3e 5f65 463e 913b 463e 2093 613e
00000170: 7144 11be dacd 86be c88c 7b3d f8d2 543c
00000180: 4652 cebd 53bb c73d 372d 5a3d bc10 d3bd
00000190: 80d4 653e 1748 58be 723e 9fbd 90f6 42be
000001a0: 811a 533e f19c a5bd 0e9e c0bd 4fca e0bd
000001b0: eaae 67be b2eb 273e a1a2 3c3e f4f1 6abc
000001c0: 1bd7 213e cfe5 3f3e 9929 ba3d 15bf 18be
000001d0: 72c1 0b3e 0b0a 1ebe 94c4 123e 3078 44be
000001e0: aa84 333e f28b 30be a195 65be f46e 4abe
000001f0: 128c 473e d2b2 3b3e c7ec b3bd 63b3 c23d
00000200: 673e 96bd 22b6 20be 1c1f 2fbe 43f8 f2bd
00000210: f7b7 a63d d19c 873e c6ad 89be 8841 0ebd
00000220: 0e60 86bb 0c8f 0c3e adc9 14be 1aea 70bd
00000230: a46e fa3c b8cd d63c bf61 153e 663c 1ebe
00000240: 444c 143e 5d35 28bd 5f41 31be 202e e2bd
00000250: 46a9 0a3e a16d ba3d 3641 9abc 7335 dbbd
00000260: 9e7d 3abc bbc6 583e aed3 fbbd 0e98 62be
00000270: fd30 39bd 8e8e 323d ba2f 853e 2bdd d3bd
00000280: d239 083e 3e45 f03d efb1 1abe d049 fd3d
00000290: 583d 77be 342f 093e 7da0 133e 1465 4abd
000002a0: dead aabd ec18 1dbe 4dd1 763e a418 8e3d
000002b0: 80aa 89bd 1ffe 973e 0e42 363e 8dc1 0e3e
000002c0: bd8c 853d 83e3 24be 083a d13d 933d 083e
000002d0: 2122 823e 45c8 65be 40b5 4bbd 9815 6abd
000002e0: eb27 7b3d 87ef 6dbe 9820 febc 9c23 283d
000002f0: 079a c43c 0ad3 8cbc ab78 2fbe 089e 603e
00000300: 725a 383e 0a56 68be 1ed9 70bd 42af fc3c
00000310: f508 3f3e b632 033e d803 2c3e f200 0cbe
00000320: c4ac 5cbe e7b4 173e d2a6 75be 2428 aa3d
00000330: 7ea2 9dbd b5d8 1cbe 9263 ebbd b7dc 793e
00000340: 6ab8 9ebc 2864 5dbd 0021 1a3e 44e4 17be
00000350: 8acd 413e d948 a33d 9c99 af3d e520 afbd
00000360: 47ab b9bd 1232 3abe 197f d4bd 2497 5c3e
00000370: 8f16 48be 1cf5 023e ed84 28be 99d1 f23d
00000380: 7998 4e3d dd6b 22bd 9968 fd3d ef2d 5c3d
00000390: 22a4 2fbe 322b 6a3e ad8e 2d3d b242 51be
000003a0: fc2e 49be c612 33be a7ff 663d f75e 1e3e
000003b0: 984d 73be 8164 e2bd ea57 b8bb c7d6 223e
000003c0: 644e 833e 5ead 273d a1f0 03be 8492 543e
000003d0: 66fd bbbc 52af e6bd bd36 0abe 1c3c 06be
000003e0: ed95 503e ab97 34be 4a95 57bc 8071 f03d
000003f0: a59a 3cbd 7224 afbb 3a46 47be 2eba 9abd
-0.15085863 -0.23771767 0.04999168 -0.042953655 -0.21122468 0.10320597 0.06112039 0.27489302
-0.24184111 -0.061007015 -0.017741712 -0.14883602 0.005171871 0.27079162 0.055117868 -0.023163283
0.18476847 0.12480315 -0.21774489 0.06800222 0.201634 0.08534048 0.09438013 0.17271903
-0.0886465 0.08827772 0.054670855 0.014882485 -0.002883251 -0.18374558 -0.19511838 0.06904116
0.25781727 0.10414974 -0.037386037 0.2080584 0.18137698 0.16646089 0.2145657 -0.050812446
-0.12115293 -0.19715826 -0.061592806 -0.107823305 0.031740982 -0.17912471 0.013480169 0.23307247
0.11176331 -0.050981652 -0.2514704 0.15048221 0.16489343 -0.15218467 -0.08710885 -0.26555982
0.2535306 -0.05198406 0.032395065 -0.1516236 0.0649938 -0.1371861 0.041287255 0.08603278
0.1692346 -0.09720591 0.090786174 0.17340122 -0.035273124 0.005230721 0.02847449 0.05128033
0.045892265 0.041830115 0.2509636 -0.16866079 0.15660143 -0.2032338 0.021415368 0.11873977
0.19788432 0.23601297 -0.132722 -0.06661544 0.23033354 -0.03170295 -0.10763161 -0.020193152
0.2136082 0.19374608 0.1935866 0.2202878 -0.14186265 -0.26328927 0.061413556 0.012989752
-0.10074286 0.09752526 0.053265776 -0.10305926 0.22444344 -0.2112125 -0.077755824 -0.19039369
0.20615579 -0.08086575 -0.094051465 -0.10976087 -0.22625318 0.16398504 0.18421413 -0.014339913
0.15804712 0.18740009 0.090899654 -0.14916642 0.13648012 -0.15433519 0.14332801 -0.19186473
0.17531076 -0.17240885 -0.2242036 -0.19768888 0.19487026 0.18329933 -0.08785396 0.095068716
-0.07336121 -0.15694478 -0.17101711 -0.118637584 0.08140557 0.2648683 -0.2689039 -0.034730464
-0.004100806 0.13726443 -0.14530058 -0.058817007 0.030570336 0.026221141 0.14588068 -0.15452728
0.14482218 -0.041066516 -0.17310093 -0.11043954 0.13541135 0.09102941 -0.018829923 -0.10703554
-0.0113824885 0.2116956 -0.12296234 -0.22128317 -0.045212734 0.043592982 0.26012975 -0.10344919
0.13303307 0.11731957 -0.15106939 0.12367594 -0.24144495 0.13396913 0.1441669 -0.0494128
-0.08333944 -0.15341538 0.2410328 0.069382936 -0.067219734 0.29686067 0.17798635 0.13941021
0.06520984 -0.16102414 0.10216147 0.13304739 0.25416663 -0.22439678 -0.0497334 -0.0571495
0.061317366 -0.23235904 -0.031021401 0.041049585 0.023999227 -0.017190475 -0.17135875 0.21935284
0.18003252 -0.22689071 -0.05880081 0.030845288 0.1865576 0.12812313 0.16798341 -0.13672236
-0.2155028 0.14815103 -0.23989418 0.083084375 -0.076970086 -0.15317042 -0.11493601 0.24400602
-0.019375045 -0.054050595 0.15051651 -0.1483317 0.18926063 0.07972879 0.085742205 -0.08551196
-0.09065872 -0.18183163 -0.103758045 0.2154203 -0.19539855 0.12788814 -0.16456957 0.11856384
0.050438378 -0.039653648 0.12373466 0.053754743 -0.17152455 0.2286804 0.042372394 -0.20435598
-0.1964683 -0.1748763 0.056396153 0.15465914 -0.23760068 -0.11054326 -0.0056257145 0.15902244
0.25645745 0.04093682 -0.12884761 0.20759016 -0.022947978 -0.112639084 -0.13497443 -0.13108867
0.20369692 -0.17635982 -0.013158152 0.117403984 -0.046045918 -0.005344921 -0.19460383 -0.07555042

tokenTuringMachineUnit.transformerBlock.self_attn.in_proj_weight f4 [48, 16]
00000000: 198f 833e 30ad 91bc a0bb 75be 87df 30be
00000010: b046 09bd 52a6 3bbe 4171 8b3e 4747 8dbe
00000020: 8610 523e 8015 14bc 309d 963c 3345 913e
00000030: 4051 8c3c 9486 56be 7d79 973e 6694 46be
00000040: d5d2 903e a4cb dabd e6fc 76be 36ba 1b3e
00000050: 68cb 013e 80e5 0c3e 50b9 223e 5aa1 4b3e
00000060: 30ab 0a3d 858f 8d3e f8eb 753d 59b3 59be
00000070: 12bd d5bd c2fd 7d3e 011c 903e 0efe 193e
00000080: 954d 77be a0e6 283e eea4 4a3e 7c4b 8dbe
00000090: 2eb8 f9bd 5259 013e 244f fd3d f83b 3bbe
000000a0: ae73 4b3e 88f1 f93d 80a0 383d c86a 153e
000000b0: ca13 e5bd 5319 803e be9b 653e 5b34 96be
000000c0: 8ebb 69be 085d 03bd 6ae8 a7bd fe80 82bd
000000d0: 0c52 e0bd e0b1 c1bc 9232 92be 0a57 713e
000000e0: 8629 6dbe 0e67 1cbe 4894 53bd d079 ebbd
000000f0: 8d12 58be 7620 063e 5801 6b3d 71bc 96be
00000100: 6e10 283e 60df 3ebc c959 9c3e e38e 923e
00000110: 6c5a 883d 5468 91be d428 7abe 5d1c 903e
00000120: 2002 f4bd f81d ad3d 8092 443e a5ee 96be
00000130: 56f7 34be 28dc 863d 5a45 473e 875b 853e
00000140: a60f 653e 5acc 2fbe b0e1 da3c dab2 b3bd
00000150: ec40 883d cb3d 2abe e998 873e 3068 c5bd
00000160: 6a1a 94be 1f5a 98be caed 593e cfee 2ebe
00000170: 0254 043e eae9 133e 3d57 19be eafd dabd
00000180: 1817 68bd 346c 233e 0938 8dbe b484 b03d
00000190: 6cc9 27be 1e74 38be b199 35be 2015 9b3c
000001a0: 86d5 653e f3fa 933e 902c e4bd a759 99be
000001b0: caef c5bd c657 93be 84ba 71be 1aa5 89bd
000001c0: 103f 06bd d27d dbbd a4c8 6bbd b2df 693e
000001d0: d671 f3bd a8a4 33be 1029 1abd c844 de3d
000001e0: 7093 413e 1658 8cbd b6a3 09be 915d 903e
000001f0: 50b1 7a3d 0ebf 83be a0f4 8cbe 009b 053e
00000200: 2593 843e e668 63be 6284 1a3e c07d 453e
00000210: 8038 eebc 1e99 6d3e f1af 973e 2077 973d
00000220: c245 4e3e f4f3 d5bd b4a2 83be 1745 0bbe
00000230: 8075 143e 7d42 913e f80c 363e a0a5 083d
00000240: 30bc 573d 03b6 853e c76a 21be 3f58 3cbe
00000250: c0ad 45be 801c 2e3d b8c4 433d 1a29 053e
00000260: 0639 213e 228a 82be a050 44be f0db 593d
00000270: c041 573d 5051 94bc 501b 9abd 25e1 883e
00000280: 32bd 613e 72f3 093e 4c07 89be 409a 7b3d
00000290: 5693 793e 1112 77be ae6f 11be e141 943e
000002a0: 2e36 533e 2816 fbbd 4a2b 15be f0dd c5bc
000002b0: 153c 943e e219 f5bd b89a 1d3d a013 3b3d
000002c0: a81e 3dbe 1e59 b8bd deba 4b3e e908 49be
000002d0: da8f 6c3e cc16 ee3d 2c08 123e f0ba b63d
000002e0: 5584 8ebe e298 9bbe 741c 38be 962f 093e
000002f0: 2071 99be 308e 56bd 0bbf 8e3e 503c 8abc
00000300: 5ee2 29be 8b3f 8d3e 9b72 99be 7d52 95be
00000310: d15c 903e 054f 09be 4039 88bc cc4f a83d
00000320: d644 e1bd 95f2 0cbe fe1f 51be 95e8 903e
00000330: edaf 963e f997 9cbe 57ac 943e 8b6c 8a3e
00000340: f2e2 343e 71a2 96be 79bb 2abe ef04 9b3e
00000350: 26db 8fbe 8055 943b 8c20 f63d 1075 c1bc
00000360: f5e6 1fbe 493c 51be b2d8 8dbd 7a62 6ebe
00000370: 3213 633e 56c2 6abe 7064 913d cf77 9a3e
00000380: c605 92be 6043 61bc 2440 4dbe d837 6d3d
00000390: 2a66 513e 7bab 8fbe 50f4 eabd 0266 5fbe
000003a0: a896 283d dc37 843d d24d 40be caa0 5e3e
000003b0: 1675 0ebe c2fb 63be 60a5 bebd 4882 073e
000003c0: 41f0 7fbe c063 003c 712f 943e 2258 693e
000003d0: 8a7f 69be 7837 32bd 5675 5dbe 4aa1 fcbd
000003e0: 1932 10be 37ac 9bbe a819 22bd 32b9 dabd
000003f0: a845 94bd c4d8 db3d 3ab7 283e 6042 2b3d
0.25695112 -0.017782778 -0.23997355 -0.17272769 -0.03351468 -0.18325165 0.27234843 -0.27593443
0.20514116 -0.009038329 0.0183855 0.28373107 0.017128587 -0.20949775 0.29584876 -0.19392547
0.28285852 -0.106833726 -0.2411991 0.15207753 0.1267525 0.13759422 0.15891004 0.1988577
0.033854663 0.2764856 0.06003949 -0.21259822 -0.10436453 0.24803832 0.28146365 0.1503832
-0.24150689 0.16494226 0.19789478 -0.27596653 -0.121933326 0.12631729 0.123686105 -0.18284595
0.19868347 0.122042716 0.04507494 0.14591515 -0.11185415 0.2501932 0.22422692 -0.2933682
-0.22825453 -0.032071143 -0.08198626 -0.063722596 -0.10953149 -0.023644388 -0.28554207 0.23568359
-0.23160371 -0.15273687 -0.051655084 -0.11497843 -0.21100827 0.1309832 0.05737433 -0.29440644
0.16412517 -0.011649936 0.3053725 0.2862464 0.066578716 -0.2839991 -0.24429637 0.2814664
-0.11914468 0.08452982 0.1919651 -0.29478946 -0.17672476 0.0658496 0.1946005 0.26046392
0.2236925 -0.17167798 0.026718944 -0.087743476 0.06653008 -0.16625135 0.2648385 -0.09639013
-0.28926402 -0.29756257 0.21282116 -0.17083286 0.12922671 0.144447 -0.14974685 -0.106929615
-0.05666265 0.15959245 -0.27581814 0.08619061 -0.1638543 -0.18013045 -0.1773441 0.018930972
0.22444734 0.28902397 -0.11141312 -0.29951212 -0.09664877 -0.28777903 -0.23606306 -0.06720944
-0.032774985 -0.10717358 -0.057564393 0.22839239 -0.11886947 -0.1754328 -0.037636817 0.10852963
0.18903899 -0.068527386 -0.13441357 0.28196386 0.061204255 -0.257317 -0.27530384 0.13047409
0.25893512 -0.22207984 0.15089563 0.19286251 -0.029079676 0.23202941 0.2962642 0.07395768
0.20143798 -0.10446921 -0.2571007 -0.13600574 0.14497948 0.2837104 0.17778385 0.033361077
0.052669704 0.26115426 -0.15763389 -0.18393038 -0.19304562 0.04250765 0.047795027 0.1300396
0.15744409 -0.25496012 -0.19171381 0.053188264 0.05255294 -0.01810518 -0.07524741 0.26734272
0.22044829 0.13471773 -0.2676338 0.0614264 0.2437261 -0.24127986 -0.14202759 0.28956512
0.20626137 -0.12260085 -0.14567295 -0.02415368 0.2895209 -0.119678274 0.03847763 0.045673013
-0.18468726 -0.09001373 0.19895503 -0.19632305 0.2310175 0.11625442 0.1426093 0.08922374
-0.27835336 -0.30390078 -0.17979604 0.13397059 -0.2996912 -0.052381694 0.2788013 -0.016874462
-0.16590258 0.27587542 -0.2997025 -0.29164496 0.28195813 -0.1340905 -0.016628861 0.08218345
-0.109994575 -0.13764413 -0.2042236 0.28302446 0.29431096 -0.30584696 0.29037735 0.27035937
0.17664698 -0.29420808 -0.16673078 0.30277202 -0.28096884 0.004526794 0.120179266 -0.02361539
-0.15615447 -0.20433153 -0.06926097 -0.23279753 0.22175291 -0.22925696 0.07099235 0.30169532
-0.2852003 -0.013748974 -0.20043999 0.057914585 0.20449129 -0.28060517 -0.1147238 -0.21816257
0.041159302 0.06455967 -0.18779686 0.21741024 -0.13911852 -0.22264007 -0.093088865 0.13233292
-0.24993993 0.007836282 0.28942445 0.22787526 -0.22802559 -0.04350993 -0.21626791 -0.12335451
-0.1408161 -0.30404827 -0.03957525 -0.106798545 -0.072398484 0.10734704 0.16476145 0.041811347

tokenTuringMachineUnit.transformerBlock.self_attn.in_proj_bias f4 [48]
00000000: 0000 0000 0000 0000 0000 0000 0000 0000
00000010: 0000 0000 0000 0000 0000 0000 0000 0000
00000020: 0000 0000 0000 0000 0000 0000 0000 0000
00000030: 0000 0000 0000 0000 0000 0000 0000 0000
00000040: 0000 0000 0000 0000 0000 0000 0000 0000
00000050: 0000 0000 0000 0000 0000 0000 0000 0000
00000060: 0000 0000 0000 0000 0000 0000 0000 0000
00000070: 0000 0000 0000 0000 0000 0000 0000 0000
00000080: 0000 0000 0000 0000 0000 0000 0000 0000
00000090: 0000 0000 0000 0000 0000 0000 0000 0000
000000a0: 0000 0000 0000 0000 0000 0000 0000 0000
000000b0: 0000 0000 0000 0000 0000 0000 0000 0000
0.0 0.0 0.0 0.0 0.0 0.0 0.0 0.0
0.0 0.0 0.0 0.0 0.0 0.0 0.0 0.0
0.0 0.0 0.0 0.0 0.0 0.0 0.0 0.0
0.0 0.0 0.0 0.0 0.0 0.0 0.0 0.0
0.0 0.0 0.0 0.0 0.0 0.0 0.0 0.0
0.0 0.0 0.0 0.0 0.0 0.0 0.0 0.0

tokenTuringMachineUnit.transformerBlock.self_attn.out_proj.weight f4 [16, 16]
00000000: be2e 753e a2e3 343e f0bc 3e3e ea88 78be
00000010: 0048 833d 10f1 7b3e e22b 66be 9cbf efbd
00000020: 0e32 5c3e 00c1 aa3b 0003 4a3d 308d 733d
00000030: 2063 8ebd a016 053c 208d 7a3e 464f 053e
00000040: 3464 6a3e 6e75 733e 90c1 d13d 7c20 e63d
00000050: 50db f93d 30c1 b2bc 30ca 3ebe de50 283e
00000060: 3050 f9bc 70d1 f53c 6482 f43d 6048 fa3c
00000070: 0068 c1ba f84d a23d d8a7 42be cebb 1dbe
00000080: 80bb cbbc 9a34 40be 4cde 303e 2861 453d
00000090: f870 cdbd 9087 b7bc faf7 42be d22d 103e
000000a0: da0e 7fbe 605e 9cbd a47a 36be 08e4 ba3d
000000b0: 80fa ac3d 68dc 23bd 323e 233e f6e1 023e
000000c0: a8d8 2ebe 86d1 2b3e a095 22be 3c9b 603e
000000d0: 803b 45bd 5007 e03c 70db 78bd 8cfc 5e3e
000000e0: 8077 5abd 3a0f 0d3e 0c35 323e 20f2 00bd
000000f0: 98b1 e13d 66e0 2a3e a893 7f3d 30b0 39bd
00000100: 1898 26be 98bf 40be 284e 6ebe 8e55 43be
00000110: 4eca 453e a8a9 393e 9a28 1ebe 283d 5d3d
00000120: 707e 47be c84b 103d a0f7 833d c03d 2d3c
00000130: c027 3f3d 8892 2dbe 78ff 79be acc8 abbd
00000140: 08bf febd e6b9 4ebe 186e ec3d 00c6 f6bb
00000150: 9a69 0e3e 54b7 9dbd 9ed7 64be b09a 85bd
00000160: b01a dbbc 48f4 00bd 74f7 c53d 1867 523d
00000170: 4a94 5dbe 809c 41bd 0066 60be c88a 043e
00000180: 9899 69bd a01e ca3d c26e 013e 4802 34be
00000190: 2019 113c 06d6 6fbe d839 5c3e 680c 1f3d
000001a0: dc22 223e 58d7 2e3d fad6 2c3e 469e 073e
000001b0: c0e5 063d 501a 79be 0ac3 41be f016 0cbe
000001c0: 1065 85bd 0ce5 debd 06b1 74be 9806 003d
000001d0: 0038 5c3c 1e79 373e 5cc0 483e 7458 d73d
000001e0: 1894 333d a8ac 78bd 501d 8b3d 84a1 e1bd
000001f0: 00be a93b dc84 f9bd e836 913d 40c6 20bd
00000200: 305f 97bd 184c 6cbd 3c6a 5d3e 80f9 c73c
00000210: 5415 883d 9ac1 75be 8060 a93d be77 3a3e
00000220: 0c3d 7abe f0d9 5cbd 0021 493c 407a a0bc
00000230: 0055 56bc 8059 033c 70c0 f63c 06a4 143e
00000240: b861 323e 4031 7a3e 9e28 113e e2a3 493e
00000250: 407e 463e 9020 443d 2e8d 5b3e c810 ba3d
00000260: a041 233c 3078 8cbd 2077 8fbc c0ac 7cbc
00000270: 74a2 36be 80df 13bb c8e4 573d 6c11 1f3e
00000280: 1cc7 81bd cc65 bbbd ec78 c0bd 687f 13bd
00000290: e4e2 173e 66a1 703e 8eda 68be 98d8 81bd
000002a0: 2233 6c3e 56c6 52be e0ea 6cbe e0a7 de3c
000002b0: 486b 99bd d84f 7c3d fa09 4b3e 287f e63d
000002c0: 5a61 01be b806 5dbd 5c15 2f3e c00c d13d
000002d0: e464 e23d 96ba 5b3e ca91 10be f635 69be
000002e0: 1041 cabd c01e 19bc 7411 e93d 7262 29be
000002f0: bcfd fdbd ccf7 1cbe 2c37 da3d 260f 463e
00000300: 2823 d4bd 3c46 75be f0dc 4fbd b02c ce3c
00000310: 4066 f9bd ac39 843d 002d cebb 26c1 7d3e
00000320: 10ae 9d3c d06a 23bd 80d6 243b e2d8 02be
00000330: 269a 3cbe 0484 1bbe 904f 12be b8cd 09bd
00000340: 22e4 5f3e 8c27 e1bd 9c82 0bbe a076 b83d
00000350: 6000 b63c 6cfc ff3d 189d e8bd 0ea6 573e
00000360: 1c59 41be 4e50 553e 0458 9a3d 283d 0cbe
00000370: a8e3 1a3d 00f9 173e 3ce7 e7bd 52ff 263e
00000380: ec2d 2ebe 00a6 233d 506c 943c ecc8 a1bd
00000390: 50b2 8d3c 74e7 0bbe 002a cf3d d487 5c3e
000003a0: 18ef 3c3e b067 febc c877 7abd 1af1 7a3e
000003b0: b26f 553e 5e2c 073e 70b5 0cbd 004d 363b
000003c0: 944e 84bd 6c09 6cbe 26f8 3c3e 40f0 973b
000003d0: 18f9 9d3d 60e8 54bd f05b e23d 20b5 583c
000003e0: 4817 6c3d 866d 3ebe 7c1c 73be 961c 6a3e
000003f0: a6c7 49be 1877 0fbe a8c2 aabd 70c9 46be
0.23943612 0.1766496 0.18626761 -0.24270979 0.06410217 0.24603677 -0.22477677 -0.117064685
0.2150347 0.0052109957 0.049319267 0.05946082 -0.069525 0.00812307 0.24467897 0.13018522
0.22889787 0.23775265 0.10241997 0.11236665 0.12200034 -0.021820635 -0.18631816 0.16437098
-0.030433744 0.030007094 0.119389325 0.03055209 -0.0014755726 0.079250276 -0.1900934 -0.15403673
-0.02486968 -0.18770066 0.172723 0.04818836 -0.10031313 -0.022403508 -0.19039908 0.14079979
-0.24908009 -0.07635188 -0.17820221 0.09125525 0.084462166 -0.040005118 0.15941694 0.1278151
-0.17074835 0.16779146 -0.1587739 0.21934217 -0.048152447 0.027347237 -0.060756147 0.21776026
-0.05333662 0.1377534 0.17403048 -0.03148091 0.110202014 0.16687164 0.062396675 -0.04533404
-0.16268957 -0.18823087 -0.23272002 -0.19075605 0.19315454 0.18131125 -0.15445176 0.0540134
-0.19481826 0.03522852 0.06443715 0.010573804 0.046668768 -0.16950428 -0.2441386 -0.083878845
-0.1243878 -0.20188102 0.11544436 -0.0075309277 0.13907471 -0.07700983 -0.22347876 -0.06523645
-0.026746124 -0.031482965 0.096663386 0.05136785 -0.21638599 -0.04726839 -0.2191391 0.12943566
-0.057031244 0.098691225 0.12639907 -0.17578995 0.008856088 -0.23421487 0.2150644 0.03883019
0.1583361 0.042685837 0.16878882 0.1324397 0.03293395 -0.24326444 -0.18922058 -0.13680625
-0.06513417 -0.10883531 -0.23895654 0.03125629 0.013441086 0.17917296 0.1960463 0.10514918
0.043842405 -0.060711533 0.067927 -0.11017135 0.0051801205 -0.12183544 0.07090551 -0.039251566
-0.073912024 -0.057689756 0.21622556 0.024410963 0.06644693 -0.23999634 0.08270359 0.1820974
-0.2443735 -0.05391878 0.012275934 -0.019589543 -0.013081789 0.008016944 0.030121058 0.14515695
0.17420089 0.2443285 0.1417565 0.19691423 0.19384098 0.047882617 0.21440575 0.09085232
0.009964377 -0.068588614 -0.017512858 -0.015422046 -0.17835408 -0.0022563636 0.052708417 0.1553399
-0.06336805 -0.091502756 -0.09398064 -0.036010176 0.14832646 0.23499069 -0.22739622 -0.0634014
0.2306638 -0.20583472 -0.23136473 0.027179658 -0.074911654 0.061599582 0.19828025 0.11254722
-0.12634793 -0.053961486 0.17097992 0.1020751 0.110543996 0.21457896 -0.14118114 -0.2277449
-0.09875691 -0.00934571 0.11380282 -0.1654146 -0.124019116 -0.15328902 0.106550545 0.19341716
-0.10358268 -0.23952574 -0.05074781 0.025167793 -0.12177706 0.064563125 -0.0062919855 0.24780712
0.019248039 -0.039896786 0.0025152266 -0.12778047 -0.18418178 -0.15187079 -0.14288163 -0.033643454
0.2186437 -0.10993871 -0.13624042 0.09007001 0.022216976 0.124993175 -0.11358088 0.21059439
-0.18881649 0.20831415 0.07536319 -0.13695204 0.037814766 0.1484108 -0.11323401 0.16308334
-0.17009705 0.03995323 0.018118054 -0.07899651 0.01729694 -0.13662511 0.10115433 0.2153619
0.18450582 -0.031055301 -0.06114939 0.24506035 0.2084339 0.13200518 -0.03435272 0.0027816892
-0.064603 -0.23050469 0.18454036 0.0046367943 0.077135265 -0.051979423 0.11052692 0.013226777
0.05763939 -0.18596467 -0.23741335 0.22862467 -0.19705066 -0.14010274 -0.08337909 -0.1941278

tokenTuringMachineUnit.transformerBlock.self_attn.out_proj.bias f4 [16]
00000000: 0000 0000 0000 0000 0000 0000 0000 0000
00000010: 0000 0000 0000 0000 0000 0000 0000 0000
00000020: 0000 0000 0000 0000 0000 0000 0000 0000
00000030: 0000 0000 0000 0000 0000 0000 0000 0000
0.0 0.0 0.0 0.0 0.0 0.0 0.0 0.0
0.0 0.0 0.0 0.0 0.0 0.0 0.0 0.0
